dagger_models/model_2.pth (torch, 231749 bytes, 24 tensors)

conv1.weight f4 [4, 1, 5, 5]
0	0x3d2b4ab9	0.041819308
1	0xbcd6f053	-0.026237642
2	0xbd951901	-0.0728016
3	0xbd82e549	-0.06391389
4	0xbc9a6ceb	-0.018850764
5	0x3e2cdf75	0.16882117
6	0x3cdd3236	0.027001482
7	0x3c8acdcb	0.016943833
8	0x3d67c967	0.056588557
9	0x3e2c168f	0.1680548
10	0xbe119328	-0.14216292
11	0x3e2efab9	0.1708783
12	0x3e392cce	0.18083498
13	0x3d7b4871	0.061348382
14	0x3d478baf	0.048717197
15	0x3bdbde80	0.0067098737
16	0x3e4845e1	0.19557907
17	0x3d7078a3	0.0587088
18	0xbdbdbf46	-0.09264998
19	0xbe348332	-0.17628172
20	0x3e350f93	0.17681722
21	0xbdabdbef	-0.083915584
22	0x3cec348c	0.02883365
23	0xbd3ccf8f	-0.04609638
24	0xbc3107e9	-0.010805109
25	0xbd8c9f35	-0.06866304
26	0xbd384791	-0.044990126
27	0x3e139dc9	0.14415659
28	0x3c8c4d78	0.017126784
29	0x3e1dc264	0.15406185
30	0xbe0a70e7	-0.13519631
31	0x3d72f400	0.059314728
32	0xbe432c2f	-0.19059823
33	0xbcd68ac4	-0.026189215
34	0x3d9d0349	0.07666642
35	0x3e0ac84a	0.13552967
36	0x3d92b865	0.07164077
37	0xbd9c0ce6	-0.07619648
38	0xbd4762a1	-0.048678044
39	0xbe08dafa	-0.13364783
40	0xbe3a3557	-0.1818441
41	0x3d920b89	0.071311064
42	0xbe3dd435	-0.18537982
43	0xbda38ff5	-0.07986442
44	0x3d0c135d	0.034198154
45	0x3e46f683	0.19429974
46	0xbd28d645	-0.04121997
47	0xbd3074a6	-0.043079995
48	0x3deeca6b	0.11659702
49	0xbdc56c39	-0.096397825
50	0x3e215b77	0.15757547
51	0xbcf62334	-0.030046083
52	0x3e49eed3	0.1972001
53	0xbde6cb61	-0.1126926
54	0xbde9540d	-0.113929845
55	0xbe10f389	-0.14155401
56	0x3e292547	0.16518126
57	0xbdece2c6	-0.11566691
58	0x3d81c109	0.06335647
59	0x3d838760	0.06422305
60	0x3d8f7b6d	0.070059635
61	0x3e286b2e	0.16447136
62	0x3e24af24	0.16082436
63	0xbddc1535	-0.107462324
64	0x3e2006b4	0.15627557
65	0x3dca4eef	0.09878337
66	0x3dceb93a	0.10093923
67	0xbe3e9db1	-0.18614842
68	0xbcf61253	-0.030038035
69	0x3e412796	0.18862757
70	0x3bfee57c	0.0077788215
71	0xbd8f71bb	-0.07004114
72	0x3d15f58d	0.03661113
73	0xbd8ec8e2	-0.06971909
74	0xbc094174	-0.008377422
75	0xbcf6edcd	-0.03014269
76	0x3e2f3a97	0.17112194
77	0x3e102e17	0.14080082
78	0x3c1a8f35	0.009433557
79	0x3dece822	0.11567713
80	0xbde07bf9	-0.10961146
81	0x3dc3abc5	0.09554247
82	0xbdadd5e9	-0.08488066
83	0xbe101304	-0.14069754
84	0xbe12d583	-0.14339261
85	0x3d359cc9	0.044338975
86	0xbe2b2d40	-0.1671648
87	0xbd8b6856	-0.0680701
88	0x3c7c982a	0.015417138
89	0x3e1c2938	0.15250099
90	0x3dc2b0d4	0.095063835
91	0x3e0903b8	0.13380325
92	0xbcf8ed9c	-0.030386738
93	0x3dbab31c	0.09116194
94	0xbd8e3fde	-0.069457754
95	0x3e3bea22	0.18351033
96	0x3dda8e7a	0.106717065
97	0xbdfac03f	-0.12243699
98	0x3ddfe419	0.10932178
99	0xbde32b76	-0.11092274

conv1.bias f4 [4]
0	0x3df4344e	0.11924039
1	0xbd69688c	-0.05698447
2	0xbdef1e60	-0.116757154
3	0xbe18b3dd	-0.14912362

norm1.weight f4 [4]
0	0x3f7fca9e	0.99918544
1	0x3f801af5	1.0008227
2	0x3f7ff4c1	0.9998284
3	0x3f8004fa	1.0001519

norm1.bias f4 [4]
0	0xb976b619	-0.00023528225
1	0x3a084f1a	0.00051997753
2	0xb8f1ed82	-0.00011536015
3	0x39a903dd	0.0003223707

norm1.running_mean f4 [4]
0	0x42d6a592	107.32338
1	0xc2305af7	-44.088833
2	0x42cd913d	102.78367
3	0x42773a2c	61.80681

norm1.running_var f4 [4]
0	0x43fe9dfb	509.23422
1	0x42c4fb17	98.49041
2	0x43dd75c1	442.91995
3	0x43300434	176.01642

conv2.weight f4 [8, 4, 5, 5]
0	0x3db26a98	0.087117374
1	0x3d0ad2cf	0.03389245
2	0xbd8ab1be	-0.06772183
3	0xbd716307	-0.05893233
4	0x3d7c1e7f	0.06155252
5	0x3d8da737	0.06916659
6	0x3d152b74	0.036418393
7	0x3da78f29	0.081816025
8	0xbd9b365b	-0.07578727
9	0x3d2c66fb	0.042090397
10	0xbd64f73a	-0.055899836
11	0x3da071db	0.07834216
12	0xbcd95c67	-0.026533319
13	0xbd910944	-0.070818454
14	0x3c9bad17	0.019003434
15	0xbd9d83e8	-0.07691175
16	0xbcc4f426	-0.0240422
17	0xbcbb908a	-0.02289607
18	0x3d528ccd	0.05140381
19	0x3dae586b	0.08512958
20	0xbb1b3aed	-0.0023686246
21	0xbd9d1a8b	-0.07671078
22	0x3c1af756	0.009458384
23	0xbd988d16	-0.07448785
24	0x3cf8739b	0.030328562
25	0xbc90d4db	-0.017679622
26	0x3c652336	0.013985446
27	0x3c1df350	0.00964053
28	0xbc3c78ce	-0.011503411
29	0x3d8cb90f	0.068712346
30	0x3c453350	0.01203616
31	0xbc901787	-0.017589344
32	0x3d811e8b	0.06304654
33	0xbc459d5d	-0.012061444
34	0x3d8dbc54	0.06920686
35	0xbca9b677	-0.020716889
36	0xbd503c8e	-0.050839
37	0x3d940637	0.07227748
38	0x3d08ce64	0.033399954
39	0xbd861132	-0.065462485
40	0xbb37a03c	-0.002801909
41	0x3a43cf95	0.0007469592
42	0x3d0ad54f	0.033894833
43	0x3da7e15d	0.081972815
44	0x3d11be51	0.03558189
45	0xbcb2ebee	-0.021841016
46	0xbdbd7005	-0.09249882
47	0xbdb6d129	-0.08926613
48	0xbdb29fff	-0.08721923
49	0xbd189e32	-0.03726024
50	0xbba2902b	-0.004961034
51	0xbc922c8e	-0.017843511
52	0x3d574e7e	0.05256509
53	0xbd323ccc	-0.04351501
54	0xbb814ab7	-0.0039456743
55	0x3c0a0c0f	0.008425727
56	0x3d183433	0.037159156
57	0xbd9e3f53	-0.07726922
58	0x3c2aee62	0.010432811
59	0x3d8dcabb	0.069234334
60	0x3cddef9e	0.027091797
61	0x3c75c170	0.014999732
62	0x3c631d4c	0.013861965
63	0x3dc1048d	0.09424696
64	0x3d021bf6	0.031764947
65	0xbd2c30ea	-0.042038836
66	0xbd92656f	-0.07148253
67	0xbcc3c763	-0.023898786
68	0xbd8451f9	-0.064609475
69	0xbd5f36ea	-0.05449573
70	0x3cbb9581	0.022898437
71	0x3bdf30a3	0.006811218
72	0xbd7a6cff	-0.061139103
73	0x3d8f09bf	0.06984281
74	0x3d698e03	0.0570202
75	0x3c9042a3	0.0176099
76	0xbbe9afef	-0.0071315686
77	0xbd869adc	-0.06572506
78	0xbc7c0363	-0.015381667
79	0xbd53af77	-0.05168101
80	0x3db96f78	0.09054464
81	0x3ce15b72	0.027509425
82	0x3d202324	0.039096013
83	0x3c9b4f11	0.0189586
84	0xbca9786f	-0.02068731
85	0xbd7c20d4	-0.061554745
86	0xbd990a18	-0.07472628
87	0x3cfed63e	0.031108018
88	0x3daa84db	0.083261214
89	0xbc5299c7	-0.012854046
90	0xbc0c4302	-0.008560898
91	0xbd4def0e	-0.05027681
92	0x3dba6c36	0.09102671
93	0xbdaeecc5	-0.08541254
94	0xbdc89010	-0.09793103
95	0x3d21fa20	0.03954518
96	0xbca2f802	-0.01989365
97	0x3d93699d	0.071978785
98	0xbd87063a	-0.065929845
99	0xbd0f9095	-0.035049994
100	0xbd3b1c7b	-0.045681458
101	0x3d325e42	0.043546923
102	0xbd80251e	-0.062570795
103	0x3d4680ce	0.04846268
104	0x3ca19adc	0.019727163
105	0xbc80fbe5	-0.015745113
106	0x3d98c646	0.07459693
107	0xbc6df920	-0.014524728
108	0x3d18fc51	0.037350003
109	0xbcaed238	-0.021340474
110	0x3d698646	0.05701282
111	0xbd5d5dfa	-0.0540447
112	0x3ce36f58	0.027763054
113	0xbdc3ae4d	-0.095547296
114	0x3d30110b	0.042985003
115	0x3c832d01	0.01601267
116	0x3cd03ab2	0.025418613
117	0x3d0cf052	0.034408875
118	0xbda4b205	-0.08041767
119	0x3d156db7	0.036481585
120	0x3cc3dd5c	0.023909263
121	0x3d13f966	0.036126517
122	0xbd60d1ca	-0.05488757
123	0x3afbfaab	0.0019224485
124	0x3dbd554a	0.09244783
125	0xbd025e0f	-0.031827983
126	0xbcdc0fea	-0.026863057
127	0xbdb3fa51	-0.087879784
128	0xbd61507e	-0.055008404
129	0x3d99b7c9	0.07505757
130	0xbd3f3fd4	-0.04669173
131	0xbda63bd7	-0.08116882
132	0xbd9d39c8	-0.076770365
133	0xbc8ced30	-0.017202944
134	0xbcc5b6e4	-0.02413506
135	0xbd86025b	-0.06543418
136	0xbdc8677c	-0.09785363
137	0x3c57fd97	0.013183019
138	0xbda8253d	-0.08210228
139	0x3daed512	0.08536734
140	0x3da4d126	0.080477044
141	0x3ccafe5e	0.024779495
142	0xbcdadd6c	-0.02671691
143	0xbcf3379e	-0.029689606
144	0xbd808847	-0.06275993
145	0x3d08c3c2	0.033389814
146	0xbdaefe9e	-0.08544658
147	0xbdb6faa9	-0.089345284
148	0x3cd9754b	0.026545187
149	0x3b0e7c92	0.002174173
150	0x3d8c0b78	0.06838125
151	0x3d7e8a6b	0.062143724
152	0x3dbe5f25	0.09295491
153	0xbdbf1ad3	-0.09331288
154	0x3ab118c3	0.0013511408
155	0x3d58db4b	0.05294351
156	0xbd287d12	-0.0411349
157	0x3dbea184	0.093081504
158	0x3b9ec84a	0.0048456537
159	0x3d1f2721	0.038855676
160	0xbdbb044d	-0.0913168
161	0x3d4e64e4	0.050389186
162	0x3d903597	0.070414715
163	0xbd8e428e	-0.06946288
164	0x3d954ae6	0.07289676
165	0xbd2b6c8b	-0.04185156
166	0xbd36d501	-0.04463673
167	0xbdb7f3b3	-0.08982029
168	0x3dc71eac	0.09722647
169	0x3da803dc	0.08203861
170	0x3d5f7936	0.054558955
171	0x3d9a2fd4	0.07528654
172	0x3c463c0e	0.012099279
173	0x3cf38144	0.029724725
174	0x3cab6197	0.020920558
175	0xbd19b260	-0.037523627
176	0x3daa22d9	0.08307428
177	0xbd4bf023	-0.04978956
178	0x3db29e38	0.08721584
179	0x3dc4a4b3	0.096017264
180	0x3cf8b9bf	0.030362008
181	0x3d55663a	0.052099444
182	0x3dcc3b08	0.09972197
183	0xbd41ec5f	-0.04734456
184	0x3d097848	0.033561975
185	0x3db53fcd	0.0885006
186	0x3d4cc775	0.049994905
187	0x3c008fdc	0.007846799
188	0xbca22bc4	-0.01979626
189	0x3cadf163	0.021233266
190	0xbc90532a	-0.01761778
191	0xbca096c3	-0.019603139
192	0xbdc752db	-0.097326
193	0x3da4771f	0.08030533
194	0x3cda3ca2	0.02664024
195	0x3db584cc	0.088632196
196	0xbd4125a1	-0.047155026
197	0x3cf64582	0.03006244
198	0xbd44f7e1	-0.04808796
199	0x3d436628	0.047704846
200	0xb93e9d4a	-0.00018178407
201	0x3badcce5	0.0053039663
202	0xbc86c77a	-0.01645254
203	0xbc9fc364	-0.01950235
204	0x3d3e54ff	0.046467777
205	0xbbcd0b95	-0.006257484
206	0xbd71e6c3	-0.059057962
207	0xbb141eb9	-0.002260132
208	0x3b8304ac	0.0039983597
209	0x3db9401d	0.09045432
210	0xbd2066de	-0.0391606
211	0x3d814c32	0.06313361
212	0xbd32edce	-0.04368382
213	0x3ce060cb	0.027389904
214	0xbd16f325	-0.036852974
215	0x3d8a95ac	0.06766829
216	0xbd7a0b37	-0.06104585
217	0xbd94c08b	-0.07263287
218	0x3dc6d13d	0.09707878
219	0x3b9ccbbe	0.00478503
220	0x3d67efc6	0.05662515
221	0xbd87fef7	-0.066404276
222	0x3cc168a9	0.023609476
223	0x3d0f1efd	0.034941662
224	0x3cbd514b	0.023110053
225	0x3db00327	0.08594351
226	0xbd87937a	-0.06619926
227	0x3b5ac64e	0.003338236
228	0xbd96d10e	-0.07364093
229	0xbda0ceaf	-0.07851922
230	0x3dbe5079	0.09292693
231	0x3da62cec	0.08114037
232	0x3d3a450d	0.04547601
233	0x3d2354da	0.039875843
234	0x3b862ebb	0.004094926
235	0xbd5c2f82	-0.053756244
236	0x3cae221a	0.021256495
237	0x3d8d96e8	0.06913549
238	0xbd523f2a	-0.05132977
239	0xbdb2440d	-0.08704386
240	0x3d36e2df	0.044649955
241	0xbc780162	-0.015137048
242	0xbd4dfa3d	-0.050287474
243	0xbd19af92	-0.037520953
244	0x3d82a5e2	0.06379296
245	0xbc816b6c	-0.015798293
246	0x3a55d498	0.0008156984
247	0xbda81801	-0.082077034
248	0x3d90a21d	0.07062171
249	0xbce0d161	-0.02744359
250	0xbce31f04	-0.02772475
251	0x3d7bb21a	0.061449148
252	0xbda253b0	-0.079261184
253	0xbd998fa2	-0.07498099
254	0x3ca43452	0.02004448
255	0x3d9940df	0.07483076

conv2.bias f4 [8]
0	0x3d771c5c	0.06032978
1	0x3da88225	0.08227948
2	0x3ccdcc40	0.025121808
3	0xbdc386c5	-0.095471896
4	0x3d64a752	0.05582363
5	0x3cff9a14	0.0312014
6	0xbc1c0831	-0.009523437
7	0x3c9a5fe2	0.018844549

norm2.weight f4 [8]
0	0x3f802c99	1.001361
1	0x3f7fe60c	0.999604
2	0x3f7fff81	0.99999243
3	0x3f7fed13	0.9997112
4	0x3f80161b	1.0006746
5	0x3f7fdde7	0.9994797
6	0x3f7ff654	0.9998524
7	0x3f7fd1ff	0.99929804

norm2.bias f4 [8]
0	0x3a372afb	0.00069873006
1	0xb9943ec1	-0.00028275515
2	0x39809a69	0.00024529107
3	0xb91c56f7	-0.00014909716
4	0x398e68f4	0.00027162547
5	0xba12e3c7	-0.00056033995
6	0xb941a4f7	-0.00018467368
7	0xba12a290	-0.00055936817

norm2.running_mean f4 [8]
0	0x3c543b60	0.012953609
1	0x3e98a16e	0.2981066
2	0x3e0b814a	0.13623539
3	0xbf2aa5d6	-0.66659296
4	0x3e630e19	0.22173347
5	0x3f05cfa9	0.5226999
6	0x3e10e2c6	0.14149007
7	0x3cf727d0	0.030170351

norm2.running_var f4 [8]
0	0x3cca17e6	0.024669599
1	0x3f1e7028	0.61889887
2	0x3d10d18c	0.03535609
3	0x3e5bb93a	0.21457377
4	0x3d0e85d8	0.034795612
5	0x3d867875	0.06565944
6	0x3e8bf938	0.27338576
7	0x3d504105	0.050843257

conv3.weight f4 [16, 8, 6, 6]
0	0x3d15b2f2	0.03654761
1	0x3d12ab02	0.035807617
2	0xbd349338	-0.04408571
3	0x3b8766d4	0.004132131
4	0x3cf303ff	0.029664991
5	0xbbc1fd62	-0.005920098
6	0xbcd6914d	-0.026192332
7	0x3be714ca	0.007052039
8	0xbd0f87f1	-0.035041753
9	0xbc7b3095	-0.015331407
10	0xbd68d1cc	-0.056840703
11	0x3d07f7f6	0.03319546
12	0xbd326ac4	-0.04355885
13	0x3bf7d680	0.007563412
14	0xbd37e85c	-0.04489933
15	0xbc67f0b1	-0.014156506
16	0x3cff8468	0.031191066
17	0x3c50d0ee	0.012745125
18	0xbc29fa88	-0.010374673
19	0xba0b6d60	-0.00053187273
20	0xbcb23cee	-0.02175757
21	0xbc95975d	-0.018260652
22	0xbcb4beea	-0.022063691
23	0x3d300385	0.042972106
24	0x3c20e4a2	0.009820135
25	0xbd5608dd	-0.052254546
26	0xbc1101b2	-0.008850502
27	0xbc8d2400	-0.01722908
28	0x3d2472dc	0.0401486
29	0xbba2772f	-0.0049580554
30	0x3d3e66ce	0.04648476
31	0x3d23eaf1	0.04001898
32	0xbcd35014	-0.02579502
33	0xbc120fa7	-0.008914865
34	0x3d0a6710	0.033789694
35	0x3caaccb7	0.020849569
36	0xbd0a8b8c	-0.03382449
37	0xbcffc2db	-0.031220844
38	0x3d171923	0.036889207
39	0x3d155c62	0.036465056
40	0xbd5e67ab	-0.054298084
41	0x3d47355a	0.048634864
42	0xbc91116f	-0.017708508
43	0xbc615657	-0.013753495
44	0xbd3d86cd	-0.046271134
45	0x3d3b6001	0.045745853
46	0x3d29914b	0.041398328
47	0xbc620fe8	-0.013797738
48	0xbd4d2a90	-0.05008942
49	0x3ce9c6d6	0.028537195
50	0x3d375350	0.044757187
51	0x3d699ea1	0.057036046
52	0xbd6927c0	-0.056922674
53	0xbc082348	-0.008309193
54	0x3cd83342	0.02639163
55	0xbd44cf12	-0.04804904
56	0xbc054dec	-0.008136254
57	0x3cb6d762	0.0223195
58	0xbd5a584a	-0.053306855
59	0x3c4017e0	0.011724442
60	0xbc8a2be3	-0.01686663
61	0x3d6c2ca1	0.05765975
62	0xbcea7b89	-0.02862336
63	0x3ca75f5a	0.02043121
64	0xbbbbbafb	-0.005729077
65	0x3d69b7a8	0.057059914
66	0x3ca8a8f3	0.020588374
67	0x3cccdb09	0.025006788
68	0xbc58f627	-0.013242281
69	0xbd420a75	-0.047373254
70	0xbd011b30	-0.03152007
71	0x3c832eef	0.01601359
72	0x3d4e2c03	0.05033494
73	0xbcf998e3	-0.03046841
74	0x3d3efe25	0.04662909
75	0xbc5c03e8	-0.013428666
76	0xbcadcbed	-0.021215403
77	0x3d30e377	0.043185677
78	0xbd51b66b	-0.051199358
79	0x3c52874b	0.012849639
80	0xbceac6d3	-0.02865926
81	0x3c31f7ed	0.010862333
82	0xbbdce970	-0.006741695
83	0x3d5d15cf	0.053975876
84	0xbd363fdc	-0.044494495
85	0xbd269024	-0.040664807
86	0x3cd92862	0.026508514
87	0xbd35a266	-0.04434433
88	0x3d63ff1b	0.05566321
89	0x3d3cd243	0.04609896
90	0x3cc28527	0.023745133
91	0x3c042eb3	0.008067775
92	0x3d2b0d09	0.04176048
93	0x3b91ab3f	0.004445463
94	0xbd4d4f98	-0.050124735
95	0x3c7532b6	0.014965704
96	0x3d31fd72	0.043454595
97	0xbd3ff140	-0.046860933
98	0xbca4139f	-0.020028887
99	0x3be61556	0.0070215864
100	0x3d2df5dc	0.042470798
101	0xbc3935dd	-0.011304346
102	0xbd4dc224	-0.050233975
103	0x3cc01c59	0.023451017
104	0xbc7fb4a7	-0.015607036
105	0x3d48bc19	0.04900751
106	0xbc96e9d2	-0.018422041
107	0xbd29629f	-0.041353818
108	0xbd4dddc9	-0.05026034
109	0xbb405a29	-0.0029350615
110	0x3cfbcd70	0.030737609
111	0xbd54adf4	-0.051923707
112	0x3d46bd78	0.048520535
113	0xbd110b6a	-0.035411276
114	0xbd439ff4	-0.047759965
115	0xbcb249f5	-0.021763781
116	0xbc848cfa	-0.016180504
117	0xbd20515b	-0.039140087
118	0xbd1921ae	-0.037385635
119	0x3bc8a101	0.006122709
120	0xbd65ead6	-0.05613216
121	0xbd50980b	-0.05092625
122	0xbd1402ff	-0.03613567
123	0x3cc7a1b7	0.024369104
124	0xbd39eaf3	-0.04539008
125	0xbd3246e0	-0.043524623
126	0x3cf20e94	0.029547967
127	0x3bd437ba	0.0064763697
128	0x3d50488c	0.050850436
129	0x3d03f6e7	0.032217886
130	0x3cf59232	0.029976938
131	0xbd2995ab	-0.0414025
132	0xbd465f20	-0.048430562
133	0xbcb6d816	-0.022319835
134	0x3d3c8839	0.04602835
135	0xbd21cab1	-0.039499942
136	0x3cca6fde	0.024711546
137	0xbc4f13f9	-0.012639039
138	0x3cadd3a8	0.02121909
139	0xbce4fd42	-0.027952794
140	0xbc1fafbc	-0.009746488
141	0x3c9e3cb2	0.019316051
142	0xbd5926ba	-0.05301545
143	0x3d3639f3	0.04448886
144	0xbd5bdf07	-0.053679492
145	0xbb21e401	-0.0024702551
146	0x3c8c77dc	0.017146997
147	0x3cd99092	0.026558194
148	0xbd4b6efe	-0.049666397
149	0x3d1e8c76	0.038708173
150	0xbd511d55	-0.051053364
151	0x3d3142ca	0.043276586
152	0x3d5d9ac7	0.054102685
153	0x3d1dee6b	0.03855745
154	0xbc2675e2	-0.010159941
155	0x3c9f2120	0.019424975
156	0xbd13d705	-0.03609373
157	0x3d3296f3	0.043600988
158	0x3ca943b9	0.020662175
159	0x3cba0f41	0.022712352
160	0x3d57499f	0.052560445
161	0xbced3ba7	-0.028959109
162	0x3cea33f0	0.028589219
163	0xbb8b62cf	-0.0042537223
164	0xbc93e2f4	-0.018052556
165	0x3b49c87c	0.0030789664
166	0x3d6b2769	0.05741063
167	0xbc8aeaf8	-0.016957745
168	0xbc69900e	-0.014255537
169	0xbc75d8e8	-0.015005328
170	0x3d4d74ba	0.050160147
171	0xbc3612b1	-0.011112855
172	0x3d0b9408	0.03407672
173	0xbbf23e94	-0.007392714
174	0x3cec3d8e	0.028837945
175	0x3d213ea1	0.03936637
176	0x3c507d92	0.012725251
177	0xbd6e9b45	-0.058253545
178	0xbd5a253b	-0.053258162
179	0xbd3fd277	-0.046831574
180	0xbca662ac	-0.020310722
181	0x3d56103d	0.05226158
182	0xbbf44350	-0.0074543133
183	0x3d404e36	0.046949588
184	0x3d6cedcc	0.05784397
185	0xbbc0064d	-0.005860126
186	0x3acdd540	0.0015703812
187	0x3cca2491	0.02467564
188	0xbcb15eb4	-0.021651603
189	0xbcdbca7c	-0.02682995
190	0x3d2fed82	0.042951114
191	0xbcc63028	-0.024192885
192	0xbc0fe2fd	-0.008782146
193	0x3d61e7af	0.05515259
194	0x3d5b8606	0.05359461
195	0x3c397c11	0.011321084
196	0xbd05ef1e	-0.032698743
197	0xbc9a87e5	-0.018863628
198	0x3d0eca14	0.034860685
199	0xbca152f0	-0.019692868
200	0xbd697e59	-0.05700526
201	0x3d3426e6	0.04398241
202	0x3d2df7f3	0.04247279
203	0xbd3bf05c	-0.04588352
204	0x3cf5477d	0.029941315
205	0x3d063dbc	0.03277372
206	0x3c153fac	0.009109419
207	0x3d332144	0.043732896
208	0x3c6a350e	0.014294876
209	0xbd6e7811	-0.058219973
210	0xbcd50533	-0.026003456
211	0xbd600ce9	-0.054699812
212	0x3d4815de	0.04884898
213	0x3cf16ae1	0.02946991
214	0x3d441dbc	0.04787992
215	0xbcd3e75c	-0.025867157
216	0x3d069f24	0.032866612
217	0x3d2d53e1	0.04231632
218	0xbcfc0729	-0.030765133
219	0xbd5c2c6c	-0.0537533
220	0xbd10baa9	-0.035334263
221	0x3d69f9fb	0.057123166
222	0x3cb79778	0.022411093
223	0x3c7059dc	0.014669862
224	0x3c739851	0.014867858
225	0x3c87ab70	0.01656124
226	0xbd3ee504	-0.046605125
227	0x3b150612	0.0022739214
228	0x3bd99bb6	0.0066408766
229	0xbd41e167	-0.0473341
230	0x3d4d4a11	0.050119463
231	0xbc8d5caf	-0.017256109
232	0xbd365ed1	-0.044524018
233	0xbcd787b4	-0.026309825
234	0x3a35690d	0.0006920256
235	0x3ccac04d	0.0247499
236	0xbd46b6dd	-0.048514236
237	0x3d33afaa	0.0438687
238	0x3c290a85	0.010317449
239	0x3d400b8a	0.046886005
240	0xbcb7e182	-0.022446398
241	0x3c68af2f	0.014201923
242	0x3c498d18	0.012301706
243	0xbcc0171c	-0.02344852
244	0xbca2383d	-0.019802207
245	0x3d52cbaf	0.05146378
246	0x3d38d474	0.045124486
247	0xbca13cde	-0.019682344
248	0xbc5b78f4	-0.013395537
249	0xbd329393	-0.04359777
250	0xbd090ad0	-0.033457577
251	0x3d599029	0.053115997
252	0xbc336bb0	-0.010950968
253	0x3bf2584b	0.0073957792
254	0xbd328dd8	-0.043592304
255	0x3d6bcb82	0.057567127

conv3.bias f4 [16]
0	0x3d6cd3a1	0.057819013
1	0xbcceb468	-0.025232509
2	0x3cb2a0ae	0.021805134
3	0x3c91e54e	0.017809536
4	0x3d19510b	0.037430804
5	0x3cac76a6	0.02105267
6	0x3b051da0	0.0020311847
7	0x3d03d47b	0.03218506
8	0x3d53ff81	0.05175734
9	0xbd677182	-0.056504734
10	0x3b92b958	0.004477661
11	0xbd07f87f	-0.03319597
12	0x3c6f1d44	0.01459438
13	0xbc85a51c	-0.016314082
14	0xbce5b68d	-0.028041149
15	0xbbd4b6d0	-0.0064915195

norm3.weight f4 [16]
0	0x3f7fed10	0.99971104
1	0x3f7fc8f9	0.99916035
2	0x3f80186c	1.0007453
3	0x3f800512	1.0001547
4	0x3f803fec	1.0019507
5	0x3f801be0	1.0008507
6	0x3f7fdffe	0.9995116
7	0x3f80039e	1.0001104
8	0x3f7fbbb2	0.99895775
9	0x3f7ff1c4	0.9997828
10	0x3f7fe843	0.9996378
11	0x3f80296d	1.0012642
12	0x3f7fe771	0.99962527
13	0x3f80216f	1.0010203
14	0x3f801e77	1.0009297
15	0x3f800d47	1.0004052

norm3.bias f4 [16]
0	0xb9acf4c9	-0.00032988776
1	0xba4f03f9	-0.00078970153
2	0x3a1e0d2b	0.0006029184
3	0x3a2aff9f	0.0006523076
4	0x3ae08bf7	0.0017131557
5	0x3a90c7f1	0.0011045915
6	0xb95c5f94	-0.0002101644
7	0x3963c19c	0.00021720532
8	0xbaa49fc8	-0.0012559826
9	0xb987a8f2	-0.0002587508
10	0xb8cfdb8f	-9.911425e-05
11	0x39c96669	0.0003841401
12	0xb99da4ed	-0.00030068253
13	0x3a946eee	0.0011324564
14	0x3a46514e	0.0007565216
15	0x3838a9cd	4.4027158e-05

norm3.running_mean f4 [16]
0	0x3eaf4f4a	0.3424018
1	0x3e33d92e	0.17563316
2	0x3c03b74f	0.00803931
3	0x3dede807	0.11616521
4	0x3ea0d1e9	0.3141015
5	0xbe93f0d2	-0.2889467
6	0xbdfd8c0a	-0.12380226
7	0x3e93cd51	0.2886758
8	0xbe8768f1	-0.2644725
9	0xbf6afa00	-0.9178772
10	0x3e7058cd	0.23471375
11	0x3ec42bb0	0.3831458
12	0xbf1a759a	-0.60335696
13	0x3e3e8715	0.18606217
14	0xbe37c25d	-0.17945237
15	0x3e50fb31	0.20408322

norm3.running_var f4 [16]
0	0x3e6f1802	0.23349002
1	0x3e112680	0.14174843
2	0x3e163528	0.14668715
3	0x3e229f9e	0.15881202
4	0x3e05fdd3	0.13085108
5	0x3dd5b209	0.10434348
6	0x3e283583	0.16426663
7	0x3e21b187	0.15790378
8	0x3e4404b7	0.19142424
9	0x3e73b1e7	0.23798333
10	0x3dca2b45	0.09871534
11	0x3e148446	0.14503583
12	0x3e76b5bc	0.24092764
13	0x3e28f6c3	0.16500382
14	0x3e2bdf9f	0.16784523
15	0x3e45844c	0.19288749

lin1.weight f4 [64, 768]
0	0x3cec32ab	0.028832754
1	0x3bfc5272	0.007700258
2	0x3aaeac35	0.0013326468
3	0xbc5e5355	-0.013569673
4	0xbcdead2a	-0.02718218
5	0x3c6b1606	0.0143485125
6	0xbcf4a14d	-0.02986207
7	0x3c76c391	0.015061275
8	0x3cc794e6	0.024362992
9	0xbaedecdb	-0.0018152253
10	0x3ca6c3ae	0.02035698
11	0xbd06d80b	-0.03292088
12	0xbc8b8088	-0.017029062
13	0xbcbb4b4e	-0.022863057
14	0x3cfeb75a	0.031093288
15	0xbc4df990	-0.012571707
16	0x3cd80b2f	0.02637252
17	0xba8ee879	-0.0010903022
18	0xbcba617a	-0.022751559
19	0xbb51dbf9	-0.0032021983
20	0xbcb5d897	-0.022198005
21	0xbcc010f8	-0.023445591
22	0x3d04794f	0.03234225
23	0x3ccebce9	0.025236564
24	0xbabe9ae4	-0.0014542011
25	0x3bd06ca4	0.006360607
26	0x3cb25c17	0.021772427
27	0xbcd65cfd	-0.026167387
28	0x3d0d4f6c	0.03449957
29	0xbcef288b	-0.029194137
30	0x3ca50b19	0.020146893
31	0xbb318dd5	-0.0027092595
32	0xbcc59e3d	-0.024123305
33	0xbc14c3f6	-0.009079924
34	0xbc49ac17	-0.012309096
35	0xbd0cb408	-0.03435138
36	0x3c8ca609	0.017169015
37	0xbcd8415b	-0.026398351
38	0xbca98ef0	-0.02069804
39	0xbceac8b8	-0.028660163
40	0xbca6eae8	-0.020375684
41	0xbc20a1c1	-0.00980419
42	0x3c0340b4	0.008011032
43	0x39813ca1	0.0002464997
44	0x3bf7d22d	0.0075628967
45	0x3cf61106	0.030037414
46	0xbcd1feca	-0.025634188
47	0x3ca8fb9e	0.020627793
48	0x3d0aeea4	0.03391899
49	0x3b8de527	0.0043302956
50	0x3c286477	0.010277859
51	0xbb6637ac	-0.0035128398
52	0xbc51689e	-0.01278129
53	0xbd008093	-0.031372618
54	0xbca684be	-0.020326968
55	0x3d0d2bc8	0.03446558
56	0xbd0973a7	-0.03355756
57	0xbcc5b5e6	-0.024134587
58	0x3c7574e8	0.014981486
59	0xba9c540e	-0.0011926906
60	0x3bcae054	0.006191293
61	0xbc319b9e	-0.010840325
62	0x3ce61c2a	0.028089602
63	0x3d0a2079	0.033722375
64	0x3d11842a	0.035526432
65	0x3d0af65f	0.033926364
66	0xbc4b78e1	-0.0124189565
67	0xbcce0b9b	-0.025152018
68	0xbc031f95	-0.008003135
69	0x3c2c1e8b	0.010505329
70	0x3c968aa0	0.018376648
71	0x3aae0a85	0.0013278282
72	0x3c04041d	0.008057621
73	0x3c924d33	0.017859077
74	0xbd0c25f1	-0.03421587
75	0x3cc7a7c8	0.024371997
76	0xbc43940f	-0.011937155
77	0xbc912bba	-0.017721046
78	0x3ba27319	0.0049575684
79	0x39083804	0.00012990838
80	0xbbc00f23	-0.0058611794
81	0xbc9dbd59	-0.019255327
82	0xbd09cd0c	-0.033642814
83	0x3c51a194	0.012794871
84	0x3a43fcf8	0.0007476355
85	0xbc973621	-0.018458428
86	0x3cd0bc87	0.025480522
87	0xbd00b5ff	-0.031423565
88	0x3b2bb807	0.0026202218
89	0x3cb733fc	0.022363655
90	0xbca799da	-0.020459104
91	0xbc0760aa	-0.008262793
92	0x3ca1a04b	0.019729754
93	0xbcac1edc	-0.021010809
94	0x3cf06ad4	0.029347815
95	0x3bf77fd7	0.0075530815
96	0xbc339c55	-0.010962565
97	0x3c6112ef	0.013737424
98	0xbd0ff8b1	-0.03514928
99	0x3b3b9d74	0.0028627785
100	0xbce62461	-0.028093519
101	0xbcd89de9	-0.026442485
102	0x3d0ac2c6	0.033877157
103	0x3c172773	0.009225714
104	0xbc261850	-0.0101376325
105	0xbc74efdd	-0.014949766
106	0x3c29dd48	0.010367699
107	0xbce5d7e0	-0.028057039
108	0xbcfb2690	-0.030658036
109	0xbc4fb98c	-0.012678515
110	0x3cfa374b	0.030543944
111	0x3d092899	0.033485983
112	0xbd12a453	-0.035801243
113	0xbcba14b8	-0.022714958
114	0xbb88ddd6	-0.0041768355
115	0xbce396f8	-0.027781948
116	0x3ceace90	0.02866295
117	0x3b7dadce	0.0038708332
118	0xbc701205	-0.014652734
119	0xbc87f429	-0.016595917
120	0x3cfe3fd0	0.031036288
121	0x3ce1cd3f	0.02756369
122	0xbc5133db	-0.012768711
123	0xbce01616	-0.027354281
124	0xbbe76956	-0.0070621176
125	0xbc95164f	-0.018199114
126	0xbcd38bad	-0.025823439
127	0xbc7a267f	-0.015267967
128	0x3d099b22	0.03359521
129	0xbc280e59	-0.010257327
130	0xbd0a9aea	-0.033839144
131	0xbbbb44e3	-0.005714999
132	0x3d0717b9	0.032981608
133	0xbd0155f7	-0.031576123
134	0xbd0ab0b2	-0.033859916
135	0x3b2689c8	0.0025411714
136	0xbd104ab1	-0.03522748
137	0x3c77638f	0.01509942
138	0xbb63f1ea	-0.0034781643
139	0xbc56023c	-0.013062056
140	0xba9e433c	-0.0012074481
141	0xbbb669cc	-0.005566811
142	0xbcdccf3a	-0.026954282
143	0xbcdecec6	-0.027198207
144	0x3c8d505a	0.017250229
145	0x3c86c7e6	0.01645274
146	0x3c9dca44	0.019261487
147	0xbd03282e	-0.03202074
148	0xbc5b051e	-0.013367919
149	0x3c095cef	0.0083839735
150	0xbc1c7b90	-0.009550944
151	0xbd0ff557	-0.035146084
152	0x398ca4db	0.00026825708
153	0xbc70c733	-0.01469593
154	0xbcfce337	-0.030870063
155	0xbc110524	-0.008851323
156	0xbcf3a04f	-0.029739527
157	0x3c0affbd	0.008483824
158	0x3c35a119	0.011085772
159	0xbc17a754	-0.009256203
160	0x3cc285c9	0.023745434
161	0xbc313deb	-0.010817985
162	0x3c886089	0.016647594
163	0xbca73bae	-0.0204142
164	0x3c8c33c7	0.017114533
165	0x3cb3d216	0.021950763
166	0xbc6ee810	-0.014581695
167	0xbc9a5512	-0.018839393
168	0xbb979480	-0.004625857
169	0xbc72f6d5	-0.014829357
170	0x3b780c47	0.0037849115
171	0xbcf4edf3	-0.02989862
172	0xbc59a2e8	-0.013283469
173	0xbc60f5ba	-0.013730461
174	0xbb954c47	-0.004556212
175	0xbccc8e07	-0.024970068
176	0x3bd0b862	0.0063696364
177	0xbd03905d	-0.032120097
178	0x3ca9425d	0.020661527
179	0xbc5296d1	-0.01285334
180	0x3ccbb978	0.024868712
181	0x3ba71eb7	0.005100097
182	0xbd02d38d	-0.03194003
183	0x3c516430	0.012780234
184	0x3cb5acd2	0.022177134
185	0xbaefc8a8	-0.0018294053
186	0xbc9c819d	-0.019104773
187	0xbbfe08b0	-0.0077525005
188	0xbc47ef36	-0.012203028
189	0xbcd3a2f5	-0.02583454
190	0x3cd320cd	0.025772477
191	0xbd0f04f5	-0.034916837
192	0x3cd3b2fc	0.025842182
193	0xbce83ad9	-0.028348373
194	0xbd1188dd	-0.035530914
195	0xbcdf31a5	-0.027245352
196	0xbca9aa70	-0.020711154
197	0x3cb5bf49	0.022185938
198	0x3ca0ba32	0.019620035
199	0x3c42c0f9	0.011886829
200	0x3d0a85eb	0.03381912
201	0x3cde78a5	0.027157137
202	0xbccf75b8	-0.025324687
203	0x3cf4c0cc	0.029877089
204	0x3c00d403	0.0078630475
205	0xbbc2378f	-0.0059270333
206	0xbd053bae	-0.032527618
207	0xbcc0797b	-0.023495426
208	0x3d07061a	0.032964803
209	0xbbef0e94	-0.007295439
210	0xbce184ff	-0.027529238
211	0xbcd7eefe	-0.026359078
212	0xbc901239	-0.017586814
213	0xbc1ebd73	-0.009688723
214	0x3cf880e4	0.030334897
215	0xbd11916f	-0.035539087
216	0x3b391db2	0.002824646
217	0x3ced7dca	0.028990645
218	0xba510a1a	-0.00079742225
219	0xbcf43076	-0.029808264
220	0x3c3fc925	0.011705671
221	0x3ce99c3b	0.02851688
222	0x3af68215	0.0018807078
223	0xbce10ec7	-0.027472867
224	0x3d0cda23	0.03438772
225	0x3cda4d69	0.02664824
226	0xbcca48e0	-0.024692953
227	0xbb7b76ff	-0.0038370488
228	0xbc6bad33	-0.014384556
229	0xbbd1df01	-0.006404758
230	0x3cd9d0ad	0.026588762
231	0x3c8908fb	0.016727915
232	0xb991452e	-0.00027708098
233	0x3b2d94e5	0.0026486453
234	0xbc5bf8e7	-0.013426042
235	0xbcede6b9	-0.029040681
236	0x3ca57e7f	0.02020192
237	0x3bdb1362	0.00668566
238	0xbc43051f	-0.011903076
239	0xbd0b109b	-0.033951383
240	0x3cdfac4d	0.02730384
241	0xbb57bd3a	-0.0032919184
242	0x3b8b1e0e	0.004245526
243	0x3cd7dbda	0.02634995
244	0xbbf7d874	-0.007563645
245	0xbbaeedd0	-0.005338408
246	0xbc02c29e	-0.007980971
247	0x3cfe77cf	0.031062989
248	0xbc8788f8	-0.016544804
249	0x397b9702	0.0002399348
250	0xbcaf03d7	-0.021364136
251	0x3cd0423d	0.02542221
252	0xba76cc48	-0.00094145956
253	0xbc717282	-0.014736773
254	0x39cac11b	0.00038672317
255	0x3c621c46	0.013800686

lin1.bias f4 [64]
0	0x3d08f8b0	0.033440292
1	0xbc8c7e2c	-0.017150007
2	0x3ccf2e5a	0.025290657
3	0x3c8d6808	0.01726152
4	0xbcdf610c	-0.027267955
5	0x3cf5ba70	0.029996127
6	0xbca9cc73	-0.020727372
7	0xbcdd5579	-0.027018296
8	0x3bfa5a7f	0.0076401825
9	0x3b1ddb8f	0.0024087166
10	0x3d123951	0.035699192
11	0xbd0d3f28	-0.03448406
12	0xbc054f6b	-0.0081366105
13	0x3c6b85d2	0.014375167
14	0xbc2f7573	-0.010709154
15	0x3cbe4d6c	0.023230277
16	0x3d14131b	0.036151033
17	0xbce5eec8	-0.028067961
18	0xbc226650	-0.0099120885
19	0x3d155e6a	0.036466993
20	0x3cb88cf8	0.022528157
21	0xbc9d3aad	-0.019193018
22	0xbcd6eb40	-0.026235223
23	0xbcf2f651	-0.029658468
24	0xbcae8608	-0.021304145
25	0x3b91dbbb	0.0044512427
26	0x3cc521c5	0.024063954
27	0xbcc01e05	-0.023451814
28	0x3ca49447	0.020090235
29	0xbcd1b535	-0.025599102
30	0x3ce4ad21	0.027914586
31	0x3c15678e	0.009118928
32	0x3cd5ac30	0.026083082
33	0xbc8a8a1f	-0.016911564
34	0xbcecbc87	-0.02889849
35	0xbceb06f6	-0.028689843
36	0x3d070b9f	0.032970067
37	0xbc9339ff	-0.01797199
38	0xbc17ad4a	-0.009257624
39	0x3c839de0	0.016066492
40	0xbc7f4f5a	-0.015582884
41	0x3c8990e2	0.016792718
42	0x3c826e15	0.015921632
43	0x3cc39fa6	0.023879837
44	0x3c9799a9	0.018505888
45	0xbbe6a30b	-0.007038479
46	0x3cfb21ac	0.030655704
47	0x3c716341	0.014733137
48	0xbc231136	-0.009952834
49	0x39b4d819	0.0003449328
50	0xbc6dc371	-0.014511929
51	0x3cd7e853	0.026355898
52	0x3c921841	0.01783383
53	0xbc11151f	-0.008855133
54	0x3c1870d5	0.009304245
55	0x3cdffbbb	0.027341714
56	0xbd02d458	-0.031940788
57	0xbd01a69e	-0.03165304
58	0x3c9c02ee	0.019044366
59	0x3cc61313	0.024179017
60	0xbc2a6456	-0.0103998985
61	0x3be97760	0.0071248263
62	0x3d014a5d	0.03156506
63	0x3cd28af6	0.025701027

lin2.weight f4 [16, 64]
0	0xbd7502aa	-0.059816994
1	0x3d70f4fb	0.05882738
2	0x3c2dea82	0.010614993
3	0xbddf1f1b	-0.10894605
4	0x3ca94365	0.020662019
5	0x3dee904b	0.116486154
6	0x3dbe829b	0.09302255
7	0x3c52b90d	0.012861502
8	0xbd247d6c	-0.040158674
9	0xbd5a74cc	-0.053334042
10	0xbb2523dc	-0.0025198376
11	0xbd25f83c	-0.040519938
12	0xbdcb589f	-0.099290125
13	0x3dc2c7d6	0.09510772
14	0xbdda7208	-0.10666281
15	0xbde52a43	-0.111897014
16	0xbc2f2e0d	-0.010692132
17	0x3d060d83	0.03272773
18	0x3ca7bee9	0.020476775
19	0xbd757239	-0.059923384
20	0x3d6ba2c2	0.057528265
21	0xbcb374e4	-0.021906324
22	0xbced61ab	-0.028977236
23	0xbc62114f	-0.013798072
24	0x3dcacf8a	0.09902866
25	0xbd9c1c0a	-0.076225355
26	0xbd726fdf	-0.05918872
27	0x3d90894e	0.07057439
28	0xbc62a5e2	-0.013833495
29	0xbd8ac0bc	-0.067750424
30	0x3d849c0f	0.06475078
31	0x3d74cf72	0.059768148
32	0x3d9d6346	0.076849505
33	0x3c1e6595	0.009667774
34	0xbd91db52	-0.0712191
35	0x3c5b0b6f	0.013369425
36	0x3dbac7e3	0.091201566
37	0x3dcf38ce	0.101182565
38	0x3db21f7c	0.086974114
39	0x3d9e8b48	0.077414095
40	0x3d388e4b	0.045057576
41	0x3d371abe	0.044703238
42	0xbdd04ed1	-0.10171283
43	0x3d17a8f0	0.037026346
44	0xbdf11831	-0.11772192
45	0xbde26d97	-0.11056059
46	0xbdcce93b	-0.10005423
47	0x3d5536a6	0.05205407
48	0xbcd5f58f	-0.026118068
49	0xbb9813f2	-0.0046410495
50	0xbdcb77b0	-0.09934938
51	0x3d0aa583	0.03384925
52	0x3c1b7ee8	0.009490706
53	0x3da3547d	0.07975099
54	0xbd8e2e1c	-0.069423884
55	0xbd4cb83f	-0.0499804
56	0x3dc10a20	0.09425759
57	0x3dc9296d	0.098223545
58	0x3d8d4068	0.0689705
59	0xbce2bf0c	-0.027678989
60	0x3deff686	0.117169425
61	0xba0dcb69	-0.00054090336
62	0x3deb4ec0	0.1148963
63	0x3d6206bd	0.055182207
64	0xbd935be0	-0.07195258
65	0xbd885a74	-0.066578776
66	0xbdc1014d	-0.09424076
67	0xbdffc9f6	-0.12489693
68	0xbd8f76f0	-0.070051074
69	0xbcc1c19e	-0.023651894
70	0x3bcc2bf9	0.006230828
71	0xbc957f9e	-0.01824933
72	0xbd866e17	-0.06563967
73	0x3d34d414	0.044147566
74	0xbdfeaf9f	-0.12435841
75	0x3de38631	0.11109579
76	0x3dcc9344	0.09989026
77	0x3deea8fc	0.11653325
78	0x3db0dbed	0.086356975
79	0x3d0e90e9	0.034806166
80	0xbd8002a5	-0.062505044
81	0xbdc7b43e	-0.09751175
82	0xbd0abe59	-0.033872936
83	0x3d9ee484	0.0775843
84	0xbd98a14d	-0.07452641
85	0x3dca26ce	0.09870683
86	0x3d5f81ce	0.05456715
87	0xbcad6e92	-0.021170888
88	0x3dcf562a	0.10123856
89	0xbc4bfa9d	-0.012449888
90	0xbd7f657b	-0.06235264
91	0x3dd840ce	0.105592355
92	0x3d316553	0.04330952
93	0xbcbe7fc9	-0.023254292
94	0xbdd3b5f2	-0.10337438
95	0x3d84a592	0.064768925
96	0xbdc51cc5	-0.09624628
97	0x3da57275	0.080784716
98	0xbdc9628d	-0.0983325
99	0xbd31a2ef	-0.043368276
100	0xbd9ba161	-0.0759914
101	0x3d1e7f35	0.038695533
102	0xbcdce888	-0.026966348
103	0xbd2e4149	-0.04254273
104	0xbc3a712f	-0.011379524
105	0x3d7319e6	0.05935087
106	0xbd0eefb6	-0.034896575
107	0xbd6cdcc7	-0.057827737
108	0xbbb185aa	-0.0054175453
109	0xbdc53c63	-0.096306585
110	0xbdc6e144	-0.09710935
111	0xbd67291f	-0.0564357
112	0xbc9e12f9	-0.019296156
113	0xbc835326	-0.01603086
114	0x3c2cb689	0.010541567
115	0xbc80d408	-0.015726104
116	0xbbb1cbfd	-0.0054259286
117	0xbd9afa7e	-0.07567309
118	0xbc56ccf9	-0.013110393
119	0x3c5aaa7f	0.0133463135
120	0x3dbb1dcd	0.091365434
121	0xbdd5d13c	-0.10440299
122	0x3cc5559c	0.024088673
123	0x3d1c94a7	0.038227703
124	0x3d02caf4	0.031931832
125	0xbd604844	-0.054756418
126	0xbd0b8e78	-0.034071416
127	0xbda42e23	-0.080166124
128	0xbc6e9196	-0.014561078
129	0xbdd4f86c	-0.10398945
130	0xbdf5f8de	-0.12010358
131	0xbdd51cc6	-0.10405879
132	0xbd810c36	-0.06301157
133	0x3d4a3c50	0.049373925
134	0xbdcf5fd0	-0.10125697
135	0xbc907cf9	-0.017637717
136	0x3d23a795	0.03995474
137	0x3db7b7aa	0.08970578
138	0xbde591b8	-0.11209434
139	0xbdddc816	-0.10829179
140	0x3c1d1d55	0.009589513
141	0x3d9170a0	0.0710156
142	0x3d94635c	0.07245514
143	0xbd8dd7b6	-0.06925909
144	0xbccffa58	-0.025387928
145	0xbd3674a8	-0.044544846
146	0xbc8afd71	-0.016966553
147	0x3cf2d5e7	0.029643012
148	0x3cffefc3	0.031242257
149	0x3df866d1	0.12128986
150	0x3d8e2b74	0.06941882
151	0xbd9c8a57	-0.07643574
152	0x3dd75c91	0.105157025
153	0xbde93580	-0.113871574
154	0xbd108dfb	-0.035291653
155	0xbd9d8234	-0.0769085
156	0xbdb09448	-0.086220324
157	0x3df9a0cc	0.12188873
158	0x3d4cdeb8	0.05001709
159	0xbd95fc75	-0.07323543
160	0xbdb1224b	-0.08649119
161	0xbd9b26cc	-0.07575759
162	0x3c1ceee1	0.009578438
163	0xbdf5cc74	-0.12001887
164	0xbd4d129d	-0.05006658
165	0xbd94cd7d	-0.07265756
166	0x3dacec6e	0.08443533
167	0xbdab9a9e	-0.083791
168	0x3dcb41f3	0.09924688
169	0xbd8aad03	-0.067712806
170	0xbd418c95	-0.04725321
171	0xbcbfcc5c	-0.023412876
172	0x3da8bff8	0.0823974
173	0x3d86cc80	0.06581974
174	0x3da991c9	0.082797594
175	0xbc430c7f	-0.011904835
176	0xbd4f3a76	-0.050592862
177	0xbdc92b3c	-0.098226994
178	0x3d5acc9d	0.05341779
179	0xbc48ee87	-0.012263901
180	0xbd5ffbec	-0.05468361
181	0x3dbc80a9	0.092042275
182	0x3dbc0540	0.09180689
183	0xbcfbfd93	-0.030760562
184	0xbd857895	-0.0651714
185	0x3c7798c0	0.015112102
186	0xbdbe0b5c	-0.092795104
187	0x3dcca2a1	0.099919565
188	0xbd35e514	-0.04440792
189	0x3d9a62de	0.07538389
190	0x3cc2e7b6	0.023792129
191	0xbdfbd5bf	-0.12296628
192	0xbd1ea36b	-0.038730066
193	0x3dfee400	0.12445831
194	0x3d835150	0.064119935
195	0x3d742696	0.05960711
196	0xbd1f5d7d	-0.038907517
197	0xbd9ceffd	-0.07662962
198	0xbb99e16c	-0.004696062
199	0x3ddbf67b	0.10740372
200	0x3c5ab9ad	0.013349933
201	0xbd98ce88	-0.07461268
202	0xbdad869b	-0.084729396
203	0xbdf00038	-0.11718792
204	0x3de68eb3	0.112576865
205	0xbba8b34c	-0.005148327
206	0x3c4c40f1	0.012466655
207	0x3dd771dd	0.105197646
208	0x3dc10ed6	0.09426658
209	0xbdb67247	-0.089085154
210	0x3cb76691	0.022387775
211	0x3d2df64a	0.042471208
212	0x3de6cace	0.11269151
213	0xbd549e0b	-0.051908534
214	0x3d29f37e	0.041491978
215	0xbd0d3193	-0.034471106
216	0x3d87f8a8	0.06639224
217	0xbde5a897	-0.112137966
218	0x3da9c785	0.082900085
219	0xbd6d99d5	-0.058008034
220	0x3d058180	0.032594204
221	0x3c109dbf	0.008826672
222	0x3ccef84d	0.025264883
223	0x3dfc45b6	0.12317984
224	0xbdb89d51	-0.09014381
225	0x3cee9fe4	0.029128976
226	0x3d9a3d80	0.075312614
227	0xbd9e07b5	-0.07716314
228	0x3d196132	0.03744621
229	0xbdd6e9db	-0.10493823
230	0x3da050af	0.07827889
231	0xbde34f94	-0.11099163
232	0xbd4b3dce	-0.04961949
233	0x3c97d945	0.01853622
234	0xbcb9e427	-0.0226918
235	0x3d8aebba	0.067832425
236	0xbddb896f	-0.10719573
237	0x3be05cf8	0.0068470202
238	0xbd95cb39	-0.07314152
239	0xbd94fb13	-0.07274451
240	0xbd58cf3b	-0.052932005
241	0x3d3aa901	0.04557133
242	0x3d8ab482	0.067727104
243	0xbdd2bee6	-0.10290317
244	0xbca17b91	-0.019712241
245	0x3de8672b	0.11347803
246	0x3d02b1da	0.031907894
247	0xbdef4447	-0.11682945
248	0x3cd48f7a	0.025947321
249	0xbdcea9d9	-0.100909896
250	0xbd8086c8	-0.062757075
251	0xbce6442e	-0.028108682
252	0x3d8e1fdc	0.069396704
253	0x3c53a5bd	0.012917933
254	0xbdb72918	-0.08943385
255	0xbcd1563e	-0.025553819

lin2.bias f4 [16]
0	0xbdda8c33	-0.10671272
1	0x3d4ef55a	0.050526954
2	0x3dc8b57d	0.09800241
3	0xbd482cdd	-0.04887091
4	0x3dc69d21	0.09697939
5	0xbdd59500	-0.1042881
6	0xbdda45a5	-0.10657815
7	0x3d1abd4e	0.03777819
8	0x3dd60b97	0.10451429
9	0xbd4d40e3	-0.05011071
10	0xbd58693d	-0.052834738
11	0x3d919909	0.07109267
12	0xbd00718b	-0.031358283
13	0x3db6ac04	0.08919528
14	0x3dd8b698	0.10581702
15	0xb977827b	-0.00023604363

lin3.weight f4 [3, 16]
0	0xbc3abc7d	-0.011397478
1	0x3e2c4aa2	0.16825345
2	0x3dec9e0f	0.11553585
3	0x3e5b23aa	0.21400324
4	0xbd77b453	-0.060474705
5	0x3e38c8dc	0.18045372
6	0x3dfa616e	0.122256145
7	0x3e6a3891	0.22873141
8	0x3de9cb7e	0.11415766
9	0xbe6a6372	-0.22889498
10	0x3e205ebf	0.15661143
11	0x3e430485	0.19044693
12	0x3ccae96f	0.024769513
13	0x3e0f758d	0.14009686
14	0xbd682986	-0.056680225
15	0x3d84714c	0.06466922
16	0x3dc29376	0.09500782
17	0x3d4f3652	0.050588913
18	0xbe718c8d	-0.23588772
19	0x3e746984	0.23868376
20	0xbda19abf	-0.078908436
21	0x3e34cc27	0.17656003
22	0xbe31866b	-0.17336433
23	0xbe03b2d8	-0.12861192
24	0x3ce7f4bb	0.028314939
25	0x3e776f21	0.24163486
26	0xbd7d07e9	-0.06177512
27	0x3e75c3a8	0.24000418
28	0xbdf435c7	-0.1192432
29	0x3c98df01	0.018661024
30	0x3da8e0b3	0.08245983
31	0x3ddff3bb	0.1093516
32	0x3e0baabd	0.1363935
33	0x3da6796d	0.08128629
34	0xbcdcd817	-0.026958508
35	0x3e5b00b2	0.21386984
36	0x3de26494	0.1105434
37	0x3ce699bb	0.028149476
38	0x3dff2d31	0.124597915
39	0x3d81ff70	0.06347549
40	0x3cea6beb	0.028615912
41	0x3d7f9935	0.06240197
42	0x3e65466d	0.22390147
43	0x39bed654	0.0003639931
44	0x3e56a583	0.20961575
45	0xbe54e448	-0.20790207
46	0x3cf5f237	0.030022724
47	0x3e260744	0.16213709

lin3.bias f4 [3]
0	0x3daec421	0.08533502
1	0x3dd506a3	0.104016565
2	0x3d0bbd42	0.034116037
