dagger_models/model_3.pth (torch, 231749 bytes, 24 tensors)

conv1.weight f4 [4, 1, 5, 5]
0	0xbc84e128	-0.016220644
1	0x3cb19837	0.021679027
2	0x3d8e36a6	0.06944017
3	0xbd64d879	-0.055870507
4	0x3df59e55	0.1199309
5	0x3d4d2870	0.050087392
6	0x3c9dcb92	0.019262109
7	0x3daf0aa4	0.085469514
8	0x3cc6fd8f	0.024290828
9	0x3d03857d	0.032109726
10	0x3d050e58	0.032484382
11	0x3e458e0d	0.1929247
12	0xbd3a0bb4	-0.045421317
13	0xbe2b0e91	-0.16704775
14	0x3dc30b47	0.09523635
15	0x3d21e338	0.039523333
16	0xbd75417e	-0.05987691
17	0x3e0e3167	0.13886033
18	0xbb906dca	-0.004407619
19	0x3ded61e7	0.11590939
20	0x3d3aa884	0.045570865
21	0x3dd4ff3e	0.10400246
22	0x3e3329d0	0.17496419
23	0x3d103730	0.03520888
24	0x3d8e8d28	0.06960517
25	0xbd622532	-0.055211253
26	0xbd4bcd23	-0.04975618
27	0x3d9b606a	0.07586749
28	0x3e037044	0.12835795
29	0x3d4384c4	0.047734037
30	0x3caaacbf	0.020834325
31	0x3d590e45	0.052992124
32	0x3ba8e6f3	0.0051544844
33	0x3e0a2280	0.13489723
34	0xbcc41d75	-0.023939827
35	0x3e4bbccb	0.19896238
36	0x3e4ad467	0.19807588
37	0xbe1a46a2	-0.15066007
38	0xbe2202ef	-0.15821432
39	0xbe0dad24	-0.13835579
40	0x3d8947b2	0.06703128
41	0xbd7e8f3a	-0.06214831
42	0x3da40034	0.08007851
43	0xbd1b2d5d	-0.03788506
44	0xbd120aa9	-0.035654698
45	0x3dfc13ea	0.12308486
46	0x3cc31314	0.023812808
47	0x3e42b224	0.19013268
48	0xbe449bf1	-0.19200112
49	0x3db69325	0.08914784
50	0xbc710af8	-0.014712088
51	0x3e40f722	0.18844274
52	0x3e13b341	0.14423849
53	0x3dd51cde	0.104058966
54	0x3e34a187	0.17639743
55	0xbdc2a90f	-0.095049016
56	0x3e30ceaa	0.17266336
57	0xbe095439	-0.13411035
58	0x3c10f385	0.008847122
59	0xbe23295d	-0.15933748
60	0x3dae37d8	0.08506745
61	0xbd484978	-0.04889819
62	0x3df1c1b6	0.118045256
63	0x3c6135f3	0.013745773
64	0x3e41d695	0.18929513
65	0x3dca2aef	0.0987147
66	0x3d1a917d	0.037736405
67	0xbcbebeec	-0.023284398
68	0xb9c83438	-0.0003818588
69	0xbe1a5f73	-0.15075473
70	0x3de70a14	0.11281219
71	0x3d523a49	0.051325116
72	0xbd65ed3c	-0.056134447
73	0xbe2cc0ca	-0.16870418
74	0xbe2f6494	-0.17128211
75	0x3ce323e4	0.027727075
76	0xbd1649cf	-0.036691483
77	0xbe2ce1c7	-0.16883002
78	0x3d9c949d	0.07645533
79	0x3df454cf	0.119302385
80	0xbc0d4291	-0.008621828
81	0x3db8bf9f	0.09020924
82	0xbd85b7c9	-0.06529195
83	0x3d0ef043	0.0348971
84	0x3d3df95c	0.046380386
85	0xbdff0614	-0.12452331
86	0xbe1de1a6	-0.1541811
87	0x3dfef24b	0.124485575
88	0xbd5cbe71	-0.053892557
89	0xbe0ebd39	-0.1393937
90	0x3ddfa21d	0.109195925
91	0xba294fc4	-0.00064587244
92	0x3dd9755e	0.10618089
93	0x3e196d32	0.14983061
94	0x3e3b4b57	0.18290459
95	0x3e365494	0.17805701
96	0xbdc8a358	-0.0979678
97	0xbd404193	-0.046937536
98	0xbbb20781	-0.0054330234
99	0xbe1f83d1	-0.15577628

conv1.bias f4 [4]
0	0xbd6bf0d8	-0.057602733
1	0xbd580138	-0.052735537
2	0xbe14b350	-0.14521527
3	0x3e3bd1c1	0.18341734

norm1.weight f4 [4]
0	0x3f7ff291	0.999795
1	0x3f8002d0	1.0000858
2	0x3f8003d9	1.0001174
3	0x3f7fffe9	0.9999986

norm1.bias f4 [4]
0	0xb982aeef	-0.00024925868
1	0x39ebdfb6	0.0004498937
2	0xb9b7f83e	-0.00035089435
3	0xb9820ab6	-0.00024803512

norm1.running_mean f4 [4]
0	0x433314ec	179.08173
1	0x42ab638a	85.69441
2	0x4298ee57	76.46551
3	0x41f473ce	30.556545

norm1.running_var f4 [4]
0	0x44d2eebe	1687.4607
1	0x43d1b17a	419.38654
2	0x43b48dfc	361.10925
3	0x425e96f0	55.6474

conv2.weight f4 [8, 4, 5, 5]
0	0xbd49d2e9	-0.049273405
1	0x3d235801	0.03987885
2	0x3d53ff80	0.051757336
3	0x3da21ac4	0.079152614
4	0x3dc48b62	0.09596898
5	0xbdae0ff4	-0.084991366
6	0x3c1ad4ce	0.009450151
7	0x3d8404d7	0.064462356
8	0x3dc6be37	0.09704249
9	0xbd5378e2	-0.051628955
10	0xbbce729a	-0.0063002827
11	0xbcd7ddc1	-0.026350858
12	0x3da91f68	0.082579434
13	0xbca26efb	-0.01982831
14	0x3b8a926e	0.0042288816
15	0xbd45be31	-0.048277084
16	0xbdab3546	-0.083597705
17	0xbc1861ff	-0.009300708
18	0xbd573b63	-0.05254687
19	0xbd534058	-0.051575035
20	0x3ce51591	0.027964385
21	0x3d39947b	0.045307618
22	0x3c8e7b0f	0.017392663
23	0x3dc75452	0.0973288
24	0xbca31bc9	-0.01991071
25	0x3db744be	0.089486584
26	0x3be2f8d5	0.0069266357
27	0x3d917f6b	0.07104381
28	0x3cb0f97d	0.02160334
29	0xbdb030d2	-0.08603062
30	0x3dc7079b	0.097182475
31	0xb85f36b4	-5.321829e-05
32	0xbc359e25	-0.011085068
33	0x3c27b4ec	0.010236006
34	0x3dc09ed2	0.094052926
35	0xbd3c630d	-0.0459929
36	0x3d2dd1b2	0.04243631
37	0xbd6b48dd	-0.057442535
38	0x3dbedf43	0.093199275
39	0xbd9bab0b	-0.07600983
40	0x3cb3e822	0.021961275
41	0xbcaa1fe5	-0.020767162
42	0xbd8d1189	-0.0688811
43	0x3da9acff	0.082849495
44	0x3b62ce61	0.0034607875
45	0xbd554c00	-0.052074432
46	0x3d383d22	0.044980176
47	0x3dc75b1b	0.09734174
48	0x3d6ce971	0.057839815
49	0x3d8398ab	0.064256035
50	0xbda269bc	-0.079303235
51	0xbd5ce5d4	-0.05393012
52	0xbcc0ed2a	-0.023550589
53	0x3dc3dabd	0.095632054
54	0x3d36eb94	0.04465826
55	0xbdbfdde2	-0.09368493
56	0x3da227a6	0.079177186
57	0xbda55b96	-0.08074109
58	0x3dc88050	0.09790099
59	0x3d9f013a	0.07763906
60	0x3ced4074	0.028961398
61	0xbdb46870	-0.08808982
62	0xbd3a1a3e	-0.045435183
63	0x3c7764f6	0.015099755
64	0x3da92e34	0.08260766
65	0xbda14df2	-0.07876195
66	0xbb47f8d3	-0.00305133
67	0xbd149676	-0.036276303
68	0x3c16aec9	0.0091969455
69	0xbd97e733	-0.074171446
70	0x3d249e61	0.040190104
71	0xbc85fc3d	-0.016355628
72	0x3d82ac4c	0.06380519
73	0xbc6af262	-0.014340015
74	0xbdc279c8	-0.09495884
75	0xbaf06d7f	-0.0018343179
76	0xbdc6eb91	-0.097128995
77	0xbdb097dc	-0.08622715
78	0x39a2faa7	0.00031085798
79	0x3d9794d4	0.074014336
80	0x3d058b37	0.03260347
81	0x3dab439c	0.08362505
82	0x3d91eb85	0.07125
83	0xbc73b9bd	-0.014875826
84	0x3daf1807	0.08549505
85	0xbd1cdbd3	-0.03829558
86	0x3da8cf62	0.0824268
87	0x3c968d87	0.018378032
88	0xbd572d63	-0.05253352
89	0xbd71e130	-0.059052646
90	0xbdc8ba00	-0.09801102
91	0xbd1f70e1	-0.03892601
92	0xbdaa891d	-0.083269335
93	0x3dbd2e14	0.09237304
94	0xbcccc0c2	-0.024994258
95	0x3d7b9fed	0.061431814
96	0xbd37d35e	-0.04487931
97	0x3d4b6647	0.049658086
98	0xbd6ea92d	-0.058266807
99	0x3dace1c5	0.084414996
100	0x3d1e51e0	0.0386523
101	0xbd57830e	-0.052615218
102	0xbd1e8e27	-0.038709786
103	0xbc10b6c5	-0.008832638
104	0xbd0a2d9f	-0.033734914
105	0xbd2fa873	-0.042885255
106	0xbc6384b7	-0.013886622
107	0x3d94319c	0.07236025
108	0xbd6a77db	-0.05724321
109	0x3cecfdb0	0.028929561
110	0x3daf1aab	0.085500084
111	0xbdbc3d61	-0.091913946
112	0x3d808709	0.06275756
113	0x3dbb1da8	0.09136516
114	0x3d235799	0.03987846
115	0xbd9179fe	-0.07103346
116	0x3d24ca81	0.040232185
117	0xbd502ec0	-0.050825834
118	0x3c6f2d52	0.014598208
119	0x3dc3c70f	0.09559452
120	0xbc2d50e0	-0.010578364
121	0x3d5f8555	0.054570515
122	0x3d147ed1	0.036253754
123	0x3d6dc8a6	0.05805268
124	0x3cbfbafe	0.023404595
125	0xbcc363a2	-0.02385122
126	0x3cd73e39	0.026274787
127	0x3d4083e3	0.047000777
128	0xbd9d2e57	-0.07674854
129	0x3c18ee60	0.009334177
130	0xbd9ed92b	-0.07756265
131	0xbd469db6	-0.04849025
132	0xbc80c531	-0.015719028
133	0xbda77544	-0.081766635
134	0xbda15398	-0.07877272
135	0x3dc30836	0.095230505
136	0x3dabe213	0.083927296
137	0x3d822f53	0.06356683
138	0x3ce42f75	0.02785466
139	0x3d61bd51	0.055112187
140	0xbd76eb66	-0.060283087
141	0xbd8068a0	-0.06269956
142	0xbd0edab3	-0.034876537
143	0xbda0af47	-0.078459315
144	0xbd9c7198	-0.07638854
145	0xbd5c2d9b	-0.05375443
146	0xbd0e40ad	-0.03472965
147	0xbd03e65d	-0.032202113
148	0xbd56a526	-0.05240359
149	0xbdafb752	-0.085798874
150	0x3ce8b880	0.028408289
151	0xbd8e34b3	-0.06943645
152	0xbd8a8c0e	-0.067649946
153	0xbc61ff67	-0.013793803
154	0x3dbdc225	0.09265546
155	0xbda462c0	-0.080266476
156	0x3d2d8b1b	0.04236899
157	0xbda97345	-0.08273939
158	0xbccf4574	-0.025301673
159	0xbccbb143	-0.024864798
160	0xbd343d8f	-0.04400402
161	0xbdc612d8	-0.09671563
162	0x3c70e462	0.014702888
163	0x3d6f3077	0.05839583
164	0x3b124741	0.0022320303
165	0x3cf3c1f7	0.029755576
166	0x3d023845	0.031791944
167	0xbc2a6a10	-0.010401264
168	0xbdae5df6	-0.085140154
169	0xbd7e69a6	-0.062112473
170	0x3ae441cf	0.0017414632
171	0xbdb065c0	-0.08613157
172	0x3cc8aa71	0.024495335
173	0x3c94eae8	0.018178418
174	0x3d94540b	0.072425924
175	0xbd92c7fe	-0.07167052
176	0xbd837f94	-0.06420818
177	0x3c2770a9	0.010219731
178	0xbdc89259	-0.097935386
179	0x3d65eb2f	0.05613249
180	0xbc47c0a6	-0.012191927
181	0x3dba5f73	0.09100237
182	0xbd30f575	-0.043202836
183	0xbd9d19b8	-0.07670921
184	0x3dc487bc	0.09596202
185	0xbd182d8b	-0.03715281
186	0xbd29bbe4	-0.041438952
187	0xbd60f435	-0.054920394
188	0x3d982e2e	0.07430683
189	0xbc91699a	-0.01775055
190	0x3d57f2c6	0.05272176
191	0x3d26e4f0	0.040745676
192	0x3d153da9	0.036435757
193	0xbdbe02b7	-0.092778616
194	0x3ab7a2e8	0.0014010342
195	0x3d884900	0.06654549
196	0xbcf00dfc	-0.029303543
197	0xbdb11a9f	-0.08647656
198	0x3d9d8313	0.07691016
199	0x3d417534	0.047230914
200	0x3d6855c4	0.056722417
201	0xbc3b5ebf	-0.011436163
202	0xbdcb17ff	-0.09916686
203	0xbd5c6d89	-0.0538154
204	0xbd798528	-0.060918003
205	0x3d9afb19	0.07567424
206	0xbd571bd4	-0.052516773
207	0xbd52b863	-0.051445376
208	0xbdbaddfd	-0.09124372
209	0x3d145a95	0.0362192
210	0xbd784fcc	-0.060622975
211	0x3d91e935	0.07124559
212	0x3dc8316a	0.0977505
213	0x3d61dc95	0.055142004
214	0x3cd0957d	0.025461907
215	0x3d31257a	0.04324863
216	0x3d781171	0.06056351
217	0xbdc1b9a7	-0.094592385
218	0xbb9d8b71	-0.0048078825
219	0xbdbbf235	-0.09177057
220	0xbdca10c2	-0.098664775
221	0xbdc922b1	-0.0982107
222	0xbdb563a8	-0.088568985
223	0xbc4c799e	-0.012480168
224	0xbb955a67	-0.004557896
225	0x3d2e19fc	0.04250525
226	0xbc672dd2	-0.0141100455
227	0x3db2f991	0.08739007
228	0x3d781048	0.060562402
229	0x3d9296cd	0.07157669
230	0x3d63dc77	0.055630174
231	0x3ccd7797	0.025081439
232	0x3d8d8214	0.06909576
233	0xbc9b186e	-0.018932547
234	0xbda7a08e	-0.0818492
235	0xbd1a7cef	-0.037716802
236	0x3cd7a0e1	0.02632183
237	0x3d83cd3d	0.064356305
238	0x3d8b1a73	0.06792154
239	0x3da65d84	0.081233054
240	0xbd9eb1ec	-0.0774878
241	0x3baf02c6	0.005340907
242	0xbdcb795b	-0.09935256
243	0x3d3e0e1e	0.046400182
244	0xbda075cc	-0.07834968
245	0x3d23ffd8	0.040038913
246	0x3d6ce5b9	0.057836268
247	0xbdb1c537	-0.08680194
248	0xbc957199	-0.018242644
249	0x3cafaf15	0.02144579
250	0xbd9fd068	-0.07803422
251	0x3c67def1	0.0141522745
252	0xbd31e40c	-0.043430373
253	0xbd94a861	-0.07258678
254	0x3db98c81	0.09060002
255	0x3d61845c	0.05505787

conv2.bias f4 [8]
0	0xbd9bfa12	-0.076160565
1	0x3dc8292f	0.0977348
2	0xbc194cf9	-0.009356731
3	0xbd4f3303	-0.050585758
4	0xbd9c5630	-0.076336265
5	0xb8d6a945	-0.00010235844
6	0xbd4c59bd	-0.04989027
7	0x3db7b619	0.08970279

norm2.weight f4 [8]
0	0x3f7ffb7d	0.99993116
1	0x3f8004ad	1.0001427
2	0x3f80005f	1.0000113
3	0x3f7ff131	0.99977404
4	0x3f7ff738	0.999866
5	0x3f8009f0	1.0003033
6	0x3f8000a3	1.0000194
7	0x3f7ffc62	0.9999448

norm2.bias f4 [8]
0	0xb855277c	-5.081993e-05
1	0x38bc45ce	8.977541e-05
2	0xb81b0e56	-3.696823e-05
3	0xb73e790e	-1.1353068e-05
4	0x386d34af	5.655427e-05
5	0x390819b6	0.00012979549
6	0xb88c704d	-6.696638e-05
7	0x38908812	6.8918e-05

norm2.running_mean f4 [8]
0	0x3e2ae3eb	0.16688506
1	0xbe4ef38a	-0.2021009
2	0xbbd014c3	-0.0063501312
3	0x3d8935ab	0.066996895
4	0xbe43bc98	-0.19114912
5	0x3e3b0ee7	0.18267404
6	0xbdd39dc6	-0.10332827
7	0x3dcc58f2	0.099779025

norm2.running_var f4 [8]
0	0x3d4bf210	0.049791396
1	0x3d7ab1e8	0.06120482
2	0x3c93323e	0.017968293
3	0x3cc8a517	0.024492783
4	0x3c9468ac	0.018116318
5	0x3c9f2351	0.01942602
6	0x3c1d6195	0.009605785
7	0x3cd2a3cd	0.025712872

conv3.weight f4 [16, 8, 6, 6]
0	0xbc79fd6f	-0.015258177
1	0x3d237ea5	0.0399157
2	0xbcef204a	-0.029190201
3	0xbb833428	-0.0040040202
4	0xbcb2d8d2	-0.021831904
5	0xbd41e7c6	-0.047340177
6	0x3c448411	0.011994378
7	0x3d30f336	0.043200694
8	0x3d39c65b	0.045355182
9	0xbbc44670	-0.005989842
10	0xbd054308	-0.03253463
11	0x3c94becb	0.018157383
12	0xbb4ed905	-0.003156246
13	0x3d50a767	0.050940897
14	0xbd4c43e4	-0.049869433
15	0x3d41b73d	0.04729389
16	0x3c7f57da	0.01558491
17	0x3c6a2369	0.014290669
18	0x3b64e8f1	0.0034928883
19	0xbcd8caf3	-0.026463961
20	0xbd152b0a	-0.036418
21	0xbc158807	-0.00912667
22	0xbb8705c4	-0.0041205604
23	0x3d534996	0.05158385
24	0xbb481a5c	-0.003053329
25	0xbd00c178	-0.031434506
26	0x3ca57e1d	0.020201737
27	0x3cdded55	0.027090708
28	0xbb10614a	-0.0022030645
29	0x3d4fefb9	0.050765727
30	0x3cb9daa9	0.022687273
31	0xbd4886a9	-0.048956547
32	0xbd2c8819	-0.04212198
33	0xbd387c40	-0.04504037
34	0xbd0bcdae	-0.0341317
35	0xbcca3d8f	-0.024687557
36	0x3d364067	0.044495013
37	0xbd602fc5	-0.054733057
38	0x3d30ff08	0.043211967
39	0x3ba23da0	0.004951194
40	0xbd270b20	-0.040782094
41	0x3d1e5437	0.038654532
42	0xbcb49dcb	-0.022047898
43	0xbcf0a002	-0.029373173
44	0x3c7aa10f	0.015297188
45	0xbc8fca4f	-0.017552523
46	0xbc72fc12	-0.014830606
47	0xbd5a7efb	-0.053343754
48	0x3cb66358	0.022264168
49	0x3d2d81ef	0.042360242
50	0x3d0f6f16	0.03501805
51	0x3c5b8640	0.013398707
52	0x3bf3c53d	0.007439284
53	0xbcce52f5	-0.025186041
54	0x3d56f14b	0.05247621
55	0x3cd3db42	0.025861386
56	0x3bf16bfa	0.007367608
57	0x3d195341	0.037432913
58	0x3d317ddf	0.04333293
59	0x3d3e2a3d	0.046427
60	0xbbac934b	-0.005266582
61	0x3cc2c728	0.023776606
62	0x3d1bf486	0.038074993
63	0x3d589547	0.052876737
64	0x3d02dd99	0.031949613
65	0xbce65733	-0.028117752
66	0x3b88e1ed	0.004177323
67	0x3cc8a9c4	0.024495013
68	0x3cca5471	0.024698468
69	0xbd4e00b6	-0.050293647
70	0x3ca8d8e7	0.02061124
71	0xbd230046	-0.039795183
72	0x3cea66c3	0.028613454
73	0x3c343681	0.010999323
74	0x3b97b8b0	0.0046301708
75	0x3cabd3d4	0.020975031
76	0xbd521ceb	-0.05129711
77	0x3d1f989b	0.038963895
78	0xbc9fcc75	-0.019506672
79	0x3c05a65e	0.008157341
80	0xbcef65b6	-0.029223304
81	0xbd093aef	-0.03350347
82	0x3d6e12a8	0.05812326
83	0x3c26a9eb	0.010172348
84	0x3d4c7eee	0.049925737
85	0x3ae2867e	0.0017282513
86	0x3c8ef066	0.017448615
87	0x3d51ee43	0.051252615
88	0xbd02d247	-0.031938817
89	0x3c516d57	0.012782416
90	0x3cd91336	0.026498418
91	0x3cd9a7b4	0.026569225
92	0x3d02cbc7	0.03193262
93	0x3d33df64	0.043914214
94	0xbcd6a7c5	-0.026203046
95	0xb9f520dc	-0.00046754524
96	0x3cb159e7	0.021649314
97	0x3cedd233	0.029030895
98	0xbd2b103a	-0.04176352
99	0x3d596e11	0.053083483
100	0x3d051c51	0.032497708
101	0x3d0983b2	0.03357286
102	0xbd1d936b	-0.038470667
103	0xbd1f88a4	-0.03894867
104	0xbafe8c54	-0.0019420483
105	0xbd713203	-0.058885586
106	0xbd155d37	-0.03646585
107	0x3d11db71	0.035609666
108	0xbce9fd30	-0.028563112
109	0x3cbf369b	0.023341468
110	0xbb8f3210	-0.0043699816
111	0x3d1d7623	0.038442742
112	0x3d093172	0.03349442
113	0xbb6f14a3	-0.0036480806
114	0x3c84f3e0	0.01622957
115	0x3d4c0915	0.04981335
116	0x3c1b0227	0.009460962
117	0x3c9de17a	0.019272555
118	0x3d0dd5e2	0.034627803
119	0x3cf206d6	0.029544275
120	0x3c04e4fc	0.008111235
121	0x3c9108f1	0.017704459
122	0x3d308d82	0.043103702
123	0x3d3da50b	0.046299975
124	0x3d3e461e	0.046453588
125	0xbccb6fcc	-0.024833582
126	0x3d5ad744	0.05342795
127	0xbd4b0018	-0.049560636
128	0x3bf19de3	0.007373558
129	0x3d666f47	0.056258466
130	0x3aaf914f	0.0013394746
131	0x3d246e41	0.04014421
132	0x3d471e71	0.048613016
133	0x3af94654	0.0019018152
134	0x3cb9e1cc	0.022690676
135	0xbd40cd3b	-0.047070723
136	0x3c385cd7	0.0112526035
137	0xbc5f8c74	-0.0136443265
138	0xbd0caf95	-0.034347136
139	0xbd32de11	-0.04366881
140	0x3d1ea135	0.038727958
141	0xbc4af6ee	-0.012387974
142	0xbd6a4274	-0.05719228
143	0xbc973ca8	-0.01846154
144	0x3d133c86	0.03594639
145	0xbc6cf8c5	-0.014463608
146	0x3ce7b1c7	0.028283013
147	0xbc2a7e3e	-0.010406075
148	0x3d3f4c1b	0.04670344
149	0x3d489bb9	0.048976634
150	0xbd4ef307	-0.050524738
151	0xbcf63222	-0.030053202
152	0xbd655ca0	-0.055996537
153	0xbd63c482	-0.055607326
154	0xbceeef21	-0.02916676
155	0x3cc59cae	0.024122562
156	0x3be85a41	0.007090837
157	0x3d13ddef	0.036100324
158	0xbd604e81	-0.054762367
159	0x3c7e3daf	0.015517636
160	0x3c94b905	0.01815463
161	0xbc1f7359	-0.009732091
162	0x3c7cdfa6	0.015434181
163	0x3d1a8c93	0.03773172
164	0x3d32e7a2	0.043677934
165	0xbd16664d	-0.036718655
166	0x3c9859c8	0.018597499
167	0xbcb05161	-0.02152318
168	0x3d51afc6	0.05119302
169	0x3c11368d	0.008863104
170	0xbcd5a8fd	-0.026081556
171	0xbb475448	-0.0030415226
172	0x3d2bb167	0.04191723
173	0xbd683452	-0.05669052
174	0x3ca65c43	0.020307666
175	0xbd62790d	-0.055291224
176	0xbb454d67	-0.003010595
177	0x3cc92296	0.024552625
178	0xbd2c7458	-0.04210314
179	0x3a82cb3f	0.0009978785
180	0xbc8d9615	-0.017283479
181	0xbbed10ca	-0.0072346674
182	0xbb88ca85	-0.004174533
183	0xbcd127ee	-0.025531735
184	0x3c58aaa0	0.013224274
185	0xbcfa5f97	-0.030563159
186	0xbd51f68c	-0.051260516
187	0x3d3c7585	0.046010513
188	0x3d23d239	0.039995406
189	0xbc51ebaa	-0.012812534
190	0x3ce22522	0.027605597
191	0xbcab576b	-0.020915708
192	0xbd1e08f5	-0.03858276
193	0xbb7bdd33	-0.0038431406
194	0xbcbe9db1	-0.023268552
195	0xbd37ef24	-0.044905797
196	0xbcb9ed96	-0.022696298
197	0xbcf7aab4	-0.030232765
198	0xbbf89732	-0.0075863833
199	0x3cecb343	0.028894072
200	0x3d37ed06	0.044903778
201	0x3cdc4936	0.026890378
202	0x3d3953e7	0.04524603
203	0x3d569ac0	0.052393675
204	0xbbc3d726	-0.0059765754
205	0xbcab85fd	-0.020937914
206	0xbd055c97	-0.032559004
207	0xbd532913	-0.051552843
208	0xbd3be8cd	-0.045876313
209	0x3cba3cd4	0.022734083
210	0x3d396603	0.0452633
211	0xbd418d85	-0.047254104
212	0xbd0ff55f	-0.035146113
213	0xbce7bb2b	-0.02828749
214	0xbd29b55a	-0.041432716
215	0xbc8a4a17	-0.016881032
216	0xbc18ed5c	-0.009333935
217	0xbd5e7b82	-0.054317005
218	0xbd540dd4	-0.051771
219	0xbc99cb72	-0.018773768
220	0x3ceba889	0.028766887
221	0xbd162799	-0.036658857
222	0xbd243604	-0.040090576
223	0x3cfb0182	0.030640367
224	0xbd323436	-0.043506823
225	0xbd566869	-0.052345667
226	0x3cf454d8	0.029825613
227	0x3d09a856	0.033607803
228	0x3cbec2fd	0.023286337
229	0x3d3ee57e	0.04660558
230	0xbb923783	-0.004462184
231	0x3cea6ca6	0.02861626
232	0x3c83156f	0.016001431
233	0xbc9f954f	-0.019480376
234	0x3d703be0	0.05865085
235	0xbd416c8e	-0.047222666
236	0xbd2acb4b	-0.04169778
237	0x3ca2dac7	0.019879712
238	0xbd23d988	-0.040002376
239	0x3c0dac85	0.008647089
240	0xbaa673b1	-0.0012699274
241	0xbd2f7e1c	-0.042844877
242	0x3d2f73a0	0.042834878
243	0x3d18291d	0.037148584
244	0xb9a39c72	-0.00031206344
245	0x3cbbd063	0.022926515
246	0xbb99a485	-0.0046888017
247	0x3d39480f	0.045234736
248	0xbb42066e	-0.0029605883
249	0x37c5966f	2.3554281e-05
250	0xbd12d4fd	-0.035847653
251	0x3d0cc15e	0.034364097
252	0xbd3881a3	-0.045045506
253	0xbd3facf4	-0.0467958
254	0x3d15c692	0.036566325
255	0xbd517283	-0.051134598

conv3.bias f4 [16]
0	0x3d4adbd7	0.049526062
1	0x3d126f4b	0.03575067
2	0xbcb755ee	-0.022379842
3	0x3c2b8fec	0.010471325
4	0x3cf23862	0.029567901
5	0x3d1196e7	0.035544302
6	0x3cb38fa6	0.021919083
7	0x3d3a4ac5	0.045481462
8	0xbb9acd60	-0.0047241896
9	0xbc954406	-0.018220913
10	0xbd344bb2	-0.0440175
11	0xbd503382	-0.05083037
12	0xbcd98714	-0.026553668
13	0x3d068429	0.03284088
14	0xbb445300	-0.0029956698
15	0x3d4d91a9	0.05018774

norm3.weight f4 [16]
0	0x3f7fff95	0.9999936
1	0x3f800692	1.0002005
2	0x3f7ffc36	0.9999422
3	0x3f8002e6	1.0000885
4	0x3f800237	1.0000676
5	0x3f800505	1.0001532
6	0x3f800304	1.000092
7	0x3f80011c	1.0000339
8	0x3f800471	1.0001355
9	0x3f7ffbd4	0.99993634
10	0x3f7ffbe6	0.9999374
11	0x3f8000a7	1.0000199
12	0x3f7ff932	0.99989617
13	0x3f7ffaee	0.99992263
14	0x3f7ff6c2	0.999859
15	0x3f800a1f	1.0003089

norm3.bias f4 [16]
0	0xb77fdef7	-1.52510975e-05
1	0x38e4fcf6	0.00010919005
2	0xb7983f06	-1.814916e-05
3	0x37e70241	2.7538395e-05
4	0x38674f24	5.5148397e-05
5	0x3907ba5b	0.00012944026
6	0x38234b9f	3.8932656e-05
7	0x372a5d04	1.01544465e-05
8	0x391f7c88	0.00015209813
9	0xb8341b5c	-4.2940825e-05
10	0xb903fe6d	-0.00012587915
11	0x38efac31	0.00011428481
12	0xb92ad4ab	-0.00016291688
13	0xb8ac6b33	-8.2215665e-05
14	0xb919b83b	-0.00014659848
15	0x3904c151	0.00012660517

norm3.running_mean f4 [16]
0	0x3e911429	0.28335693
1	0x3eb30e1c	0.34971702
2	0x3e607d38	0.21922767
3	0x3ec822f9	0.39089182
4	0xbd8d75e1	-0.06907249
5	0xbe27eed2	-0.16399696
6	0x3f041249	0.515904
7	0x3e14ce2c	0.14531773
8	0xbf09b064	-0.53784776
9	0x3e1cf6be	0.153285
10	0xbec2375a	-0.37932855
11	0xbc8887bb	-0.016666284
12	0x3d62ac8b	0.05534033
13	0x3ed62468	0.4182465
14	0x3e92c593	0.28666362
15	0x3eb13d8b	0.34617266

norm3.running_var f4 [16]
0	0x3e8145e7	0.25248644
1	0x3dfa7ad2	0.12230457
2	0x3e80d22d	0.2516035
3	0x3e5c4daa	0.21514001
4	0x3e3e722d	0.18598242
5	0x3e690062	0.22754052
6	0x3e280157	0.16406761
7	0x3e4e1d18	0.20128286
8	0x3e63fffb	0.22265618
9	0x3e7b7009	0.24554457
10	0x3e97d812	0.29657036
11	0x3e4ddc5a	0.20103589
12	0x3e48dce5	0.19615515
13	0x3e842229	0.25807312
14	0x3e4c6fa8	0.19964468
15	0x3e97c6bc	0.2964381

lin1.weight f4 [64, 768]
0	0xbc59ba32	-0.013289021
1	0x3d0bcd1d	0.03413116
2	0x3ae7fe42	0.0017699676
3	0x3bd0787d	0.0063620196
4	0xbb134af8	-0.0022475105
5	0xbcc72434	-0.024309255
6	0x3c725c2a	0.014792481
7	0xbc3a7d17	-0.011382363
8	0xbced987d	-0.029003376
9	0x3c4dd156	0.012562117
10	0xba83193e	-0.001000203
11	0x3d029c70	0.03188747
12	0x3c271497	0.01019778
13	0x3cd3f4a6	0.025873493
14	0xbd0838be	-0.03325724
15	0x3d060275	0.032717187
16	0x3cb66d9b	0.02226906
17	0x3b335bdc	0.0027367985
18	0x3d090de0	0.033460498
19	0xbca5109b	-0.02014952
20	0x3d049829	0.032371674
21	0x3b052f54	0.00203224
22	0x3c8cac19	0.017171906
23	0x3c989707	0.018626703
24	0x3c6cfde3	0.014464828
25	0xbc097a11	-0.008390919
26	0x3b67879d	0.0035328635
27	0x3bf2f9f0	0.007415049
28	0x3c9fe6bc	0.019519202
29	0xbcc339ce	-0.023831274
30	0x3d1073a5	0.035266537
31	0xbceedf9b	-0.029159358
32	0x3b8f2a73	0.004369074
33	0x3ce97b4d	0.028501177
34	0xbc1876ab	-0.009305636
35	0xba96c0d9	-0.0011501565
36	0xbd067bd2	-0.032832928
37	0x3ce5eafb	0.028066149
38	0x3cc3479e	0.02383786
39	0x3cec34c1	0.028833749
40	0x3bae5e05	0.0053212666
41	0xbcc0c0e5	-0.02352948
42	0xbc824de1	-0.015906276
43	0x3c01c6d4	0.0079209395
44	0x3c5e48b1	0.013567136
45	0xbcefea25	-0.029286454
46	0xbca6f937	-0.020382507
47	0x3cf2e05e	0.029648002
48	0xbcf65b24	-0.030072756
49	0xbd03ac43	-0.032146703
50	0x3cbd47c2	0.023105506
51	0x3d09684a	0.033546723
52	0x3c3a41ab	0.0113681955
53	0xbbed3aa6	-0.0072396575
54	0x3cb92cb6	0.022604328
55	0xbcb440c1	-0.022003533
56	0x3c53f9bc	0.012937959
57	0x3cb336f4	0.02187679
58	0xbb86a5db	-0.004109127
59	0xbd06e2f3	-0.03293128
60	0x3ce2ea98	0.027699754
61	0xbce3ed00	-0.027822971
62	0x3c864e81	0.016394855
63	0xbcf1d7c5	-0.029521832
64	0xbcf37f8b	-0.029723903
65	0xbca354bf	-0.019937871
66	0xbce06b85	-0.02739502
67	0x3c878c9a	0.016546536
68	0xbc36f800	-0.011167526
69	0xbc9ed1b0	-0.019387096
70	0x3ba10be0	0.0049147457
71	0x3cd3b853	0.025844729
72	0xbcba5027	-0.022743298
73	0x3d01a863	0.031654727
74	0x3d090f92	0.033462115
75	0x3c409958	0.01175531
76	0x3ce0ead2	0.027455721
77	0x3d1264b9	0.035740588
78	0xbcc04f4b	-0.02347531
79	0xbcca867d	-0.024722332
80	0xbb8ef9dc	-0.0043632817
81	0xbd0d8ebd	-0.034559954
82	0x3bf5b6d9	0.007498604
83	0xbcebc505	-0.02878047
84	0xbc00646e	-0.007836444
85	0xba7d1ce2	-0.0009655488
86	0xbd12b3ea	-0.03581611
87	0xbc31c05a	-0.010849083
88	0x3c438b70	0.0119351
89	0x3cbf3f0a	0.023345489
90	0x3d015fe9	0.031585608
91	0x3ca9a86b	0.02071019
92	0xbbdf7e0a	-0.006820445
93	0x3c009274	0.007847417
94	0x3bc86748	0.0061158277
95	0x3cde0107	0.0271001
96	0xbcff7233	-0.031182384
97	0x3c67bc0e	0.014143957
98	0xbc9b6693	-0.01896981
99	0xbbbb9067	-0.005724001
100	0x3c4cd20c	0.012501251
101	0x3cf07f5c	0.029357605
102	0xbc818eb6	-0.01581512
103	0x3cfeed88	0.031119123
104	0x3c048ebe	0.008090673
105	0xbc5f5bdb	-0.01363274
106	0xbbee0cab	-0.0072646937
107	0x3c6e9319	0.014561438
108	0x3c9755fd	0.01847362
109	0xbc7d7bec	-0.01547144
110	0x3cacdce6	0.021101426
111	0x3d0c9a3d	0.03432678
112	0xbc2357c8	-0.009969659
113	0xb91fa621	-0.0001522531
114	0x3bb0ee4e	0.005399502
115	0x3bf8add0	0.0075890794
116	0x3cc77f72	0.024352763
117	0xbcf422cc	-0.029801749
118	0xba8d7d9b	-0.001079488
119	0xbcd42f42	-0.02590144
120	0xbcf6ab91	-0.030111106
121	0x3d05a295	0.032625753
122	0xbc8533ce	-0.016260054
123	0x3c901276	0.017586928
124	0xbccdd31b	-0.025125077
125	0xbbb02368	-0.0053753145
126	0xbb288ad1	-0.0025717507
127	0x3d0a24ec	0.033726618
128	0x3a528339	0.0008030418
129	0x3cf04bf7	0.029333098
130	0x3cbdd998	0.023175046
131	0x3cc954b7	0.024576528
132	0xb9110ce1	-0.00013833075
133	0xbbfd03de	-0.0077214083
134	0xbd06c7e1	-0.032905463
135	0x3d0271b7	0.03184673
136	0x3bc2757a	0.0059344145
137	0x3cfc42df	0.030793605
138	0x3c319e3c	0.010840949
139	0x3c873301	0.016503813
140	0xbcf749e4	-0.030186601
141	0xbc39a7ac	-0.01133148
142	0xbc721cb4	-0.014777351
143	0xba24541f	-0.00062686385
144	0x3d0364c0	0.032078505
145	0x3cce70d3	0.025200283
146	0xbcfa1bf7	-0.030530913
147	0x3ce47152	0.027886067
148	0x3a8169d1	0.0009873455
149	0x3cb4087c	0.021976702
150	0x3ccb82fd	0.024842734
151	0xbc05d7a1	-0.008169086
152	0x3c955330	0.018228143
153	0xbc62ce0e	-0.013843073
154	0xbcda7d49	-0.026671069
155	0x3bc4ff66	0.006011891
156	0x3d10580f	0.03524023
157	0xbcc92277	-0.024552567
158	0xbc201678	-0.009770982
159	0xbcd2f070	-0.025749415
160	0x3c27c42b	0.010239641
161	0xbc66436d	-0.0140541615
162	0x3bf30221	0.0074160253
163	0xbb100fea	-0.0021982142
164	0xbc46b5c5	-0.012128298
165	0xbc359c8b	-0.011084686
166	0x3d067b62	0.03283251
167	0x3d05d175	0.032670457
168	0x3a12ccd1	0.0005599978
169	0xbcdbb5b2	-0.026820038
170	0x3be1003a	0.006866482
171	0x3c8d245d	0.017229253
172	0x3cc27660	0.023738086
173	0xbcb0e297	-0.021592421
174	0xba2e0f71	-0.0006639874
175	0x3bcd9022	0.0062732855
176	0x3cdf50e6	0.027260255
177	0xb9934b19	-0.00028093977
178	0xbc9f6739	-0.0194584
179	0x3bb484d1	0.005508997
180	0x3cb169d5	0.02165691
181	0x3c769c56	0.015051922
182	0x3d0215a7	0.03175893
183	0x3ce43db6	0.027861457
184	0x3caa6a4e	0.020802643
185	0xbce0ba14	-0.027432479
186	0x3cc5d5dd	0.02414983
187	0x3c98840c	0.018617652
188	0xbc10d7f1	-0.008840547
189	0x3ccf8ec5	0.025336633
190	0x3cca6b41	0.024709346
191	0x3ca82be3	0.02052874
192	0xbc7a14b2	-0.015263723
193	0xbc8ecf34	-0.017432787
194	0x3b254c59	0.0025222509
195	0xbb7a8e35	-0.0038231735
196	0xbca9bacb	-0.020718953
197	0xbd0abe35	-0.0338728
198	0xbaef91c4	-0.0018277694
199	0xbcdffa21	-0.02734095
200	0xbc88a1f1	-0.016678782
201	0xbc454afc	-0.012041803
202	0xbc317534	-0.010831166
203	0x3ca4d457	0.020120783
204	0xbd121555	-0.035664875
205	0xbcddea4a	-0.027089257
206	0x3cbf7dee	0.023375478
207	0x3d0c1541	0.034199957
208	0x3cb31d3f	0.021864532
209	0xbc89a411	-0.016801866
210	0x3cf33568	0.029688552
211	0x3cb23f73	0.02175877
212	0xbc8b8642	-0.017031793
213	0xbccf03d5	-0.025270382
214	0xbc36587e	-0.011129497
215	0xbc878e6c	-0.016547404
216	0x3ce80de8	0.028326944
217	0x3c51d7bb	0.012807782
218	0x3cb220ab	0.021744093
219	0xbcb12d74	-0.021628119
220	0x3d00fbf7	0.031490292
221	0xbc1875e3	-0.00930545
222	0xbc08d43a	-0.00835138
223	0x3b2b633d	0.002615168
224	0xbabbeb64	-0.001433712
225	0xbcebb7b1	-0.028774114
226	0xbcc197fa	-0.023632038
227	0xbcd18318	-0.025575206
228	0xbd130cd3	-0.035900902
229	0xbcf934a9	-0.030420618
230	0xbcb33e83	-0.021880394
231	0xbcde490c	-0.02713444
232	0x39611699	0.0002146609
233	0x3ccfb3af	0.025354235
234	0xbcf7882c	-0.030216299
235	0x3c71a531	0.014748857
236	0x3c03ac53	0.008036691
237	0x3bb955b9	0.005655971
238	0xbcb3d7d7	-0.021953506
239	0xbd014c2a	-0.031566776
240	0xbcfcad9c	-0.030844502
241	0x38e65cd8	0.00010984548
242	0x3c596686	0.013269072
243	0xbb5ce984	-0.0033708522
244	0xbc352c88	-0.01105798
245	0x3c2df751	0.010618047
246	0x3d0f92a6	0.035051964
247	0x3cc68b9d	0.024236495
248	0x3d0d8b45	0.034556646
249	0xbcf6ba2f	-0.030118076
250	0x3cc99b2c	0.024610125
251	0xbc864d74	-0.016394354
252	0x3cd18d63	0.025580114
253	0x3bd194d5	0.006395916
254	0x3cbeae7e	0.023276564
255	0x3b0e4fdc	0.002171508

lin1.bias f4 [64]
0	0xbced26ba	-0.02894913
1	0xbb810710	-0.0039376095
2	0x3c521df0	0.0128245205
3	0xbbc5c084	-0.0060349125
4	0xbcda972e	-0.026683416
5	0xbd0cc96e	-0.034371786
6	0xbc8fe818	-0.017566726
7	0x3bcfd965	0.006343054
8	0xbc8e1c2f	-0.017347423
9	0xba86bca0	-0.0010279603
10	0xbc66d7d6	-0.014089545
11	0x3b86c1d0	0.0041124597
12	0xbd09ab01	-0.033610348
13	0xbbab9c4f	-0.0052371393
14	0xbcb64309	-0.022248762
15	0x3cdf1052	0.027229462
16	0xbc477bed	-0.012175542
17	0xbd128236	-0.03576871
18	0xbca8885b	-0.020572832
19	0x39f30d82	0.00046358636
20	0xbcfe2180	-0.031021833
21	0x3d044083	0.032288086
22	0x3c92d792	0.017925058
23	0xbcbc0e22	-0.022955958
24	0xbb92d9e4	-0.004481541
25	0xbc1a6c47	-0.009425229
26	0x3cbe9b89	0.023267524
27	0xbccd3c03	-0.02505303
28	0x3cb13689	0.02163245
29	0x3cf09d23	0.029371804
30	0x3c5e6671	0.013574229
31	0xbc879265	-0.016549299
32	0x3c9a8a21	0.018864693
33	0x3c49ed8a	0.0123247
34	0x3d05a9e6	0.03263273
35	0xbca1dc05	-0.019758234
36	0x3ba86b91	0.005139776
37	0xbcfef703	-0.031123644
38	0x3bf81ca0	0.0075717717
39	0xbd125787	-0.035728004
40	0x3c9c7d27	0.019102646
41	0x3ce0da36	0.027447801
42	0xbbe3e697	-0.0069549787
43	0xbcd46112	-0.025925193
44	0x3c312708	0.010812528
45	0x3c807d5d	0.015684778
46	0x3cb68d87	0.022284282
47	0x3ca58f48	0.020209923
48	0x3a119d8d	0.0005554788
49	0xba4545e8	-0.00075253705
50	0xbc01da11	-0.007925526
51	0x3b320470	0.002716329
52	0x3c8768d8	0.016529486
53	0x3c78817d	0.015167591
54	0xbcf412ff	-0.029794214
55	0xba99da97	-0.0011738118
56	0x3d13533d	0.035968054
57	0x3c48c82e	0.012254758
58	0x38cbae79	9.7122924e-05
59	0x3b906b5d	0.00440733
60	0xbbcb6bbb	-0.006207911
61	0x3cda7c76	0.026670676
62	0x3c89c004	0.016815193
63	0xbcaa9b42	-0.020825986

lin2.weight f4 [16, 64]
0	0x3dcf948a	0.101357535
1	0xbc652c33	-0.013987589
2	0x3d8216ee	0.0635203
3	0x3d9da44d	0.076973535
4	0xbcd39000	-0.0258255
5	0xbd99d310	-0.0751096
6	0x3db6b63a	0.08921476
7	0x3d169e0d	0.036771823
8	0xbd829793	-0.06376567
9	0x3d825d3f	0.063654415
10	0x39908c9e	0.00027570588
11	0xbd9b63b3	-0.075873755
12	0xbd8e4135	-0.06946031
13	0x3da95bd4	0.08269468
14	0x3dcbafbf	0.0994563
15	0x3dd26ce0	0.102746725
16	0xbdbcd1e1	-0.09219719
17	0x3df008fd	0.117204644
18	0xbc08af64	-0.008342598
19	0x3da2e2ea	0.07953437
20	0xbd4a9dad	-0.049466778
21	0x3d16e3fc	0.036838517
22	0xbda4d885	-0.0804911
23	0xbddd81a2	-0.10815741
24	0xbce272e0	-0.027642667
25	0x3bc896b9	0.006121483
26	0xbdb24795	-0.087050594
27	0xbd3d0191	-0.046144072
28	0x3db5e603	0.08881762
29	0xbcca3a9c	-0.02468615
30	0xbc28f573	-0.010312426
31	0x3dd8264f	0.10554182
32	0x3cc2de72	0.02378771
33	0x3c4cfcac	0.012511414
34	0xbd855998	-0.06511229
35	0xbd8b111c	-0.06790373
36	0xbdc69059	-0.09695501
37	0x3d6657a2	0.056235917
38	0xbce73023	-0.028221196
39	0x3dfb598e	0.122729406
40	0xbde02f81	-0.10946561
41	0xbd123746	-0.035697244
42	0x3b9aee0e	0.0047280854
43	0xbda46b5f	-0.08028292
44	0xbba5478a	-0.0050439285
45	0x3d901f46	0.07037215
46	0xbde6a9d7	-0.11262863
47	0xbd0e32d2	-0.034716435
48	0x3c6d3cb4	0.014479805
49	0xbd200a43	-0.039072286
50	0x3dc12a74	0.094319254
51	0x3ceee178	0.029160246
52	0xbdc1992c	-0.09453043
53	0x3df2746d	0.11838613
54	0x3dfa6401	0.122261055
55	0xbd2d061b	-0.04224215
56	0x3db5924d	0.08865795
57	0x3d372af4	0.044718698
58	0x3d3f03a6	0.04663434
59	0x3c53a521	0.012917788
60	0x3ced8991	0.02899626
61	0xbc966b98	-0.018361852
62	0xbdf2b2a4	-0.11850479
63	0x3d31426a	0.043276228
64	0xbd66b3d0	-0.056323826
65	0x3d66e514	0.05637081
66	0x3d8f79c8	0.0700565
67	0x3db0789c	0.086167544
68	0x3d30cae0	0.043162227
69	0x3a21a9da	0.00061669725
70	0x3d49f7f5	0.049308736
71	0x3dda8d1a	0.10671444
72	0xbcf45610	-0.029826194
73	0x3ca09ed7	0.01960699
74	0xbd180efd	-0.03712367
75	0xbcac1bbb	-0.021009317
76	0xbdd6f6f0	-0.10496318
77	0x3da593ba	0.08084817
78	0x3d1a79da	0.037713863
79	0xbc00c870	-0.007860288
80	0xbcf3af8b	-0.029746791
81	0xbdb73f73	-0.08947649
82	0x3d03fd92	0.032224245
83	0xbdfc215f	-0.123110525
84	0x3bd71c0b	0.0065646223
85	0x3c77988e	0.015112055
86	0x3dcb30d6	0.09921424
87	0xbdd94100	-0.10608101
88	0x3d83e134	0.064394385
89	0xbd807412	-0.06272139
90	0xbddfb801	-0.10923768
91	0xbd3cf159	-0.046128605
92	0xbdec3686	-0.11533837
93	0x3d0775a4	0.033071175
94	0xbdb8bc53	-0.09020295
95	0xbdc86776	-0.097853586
96	0xbda798c8	-0.081834376
97	0xbdf8c117	-0.12146204
98	0xbdc75175	-0.097323336
99	0xbd14af30	-0.036299884
100	0x3da9180f	0.08256542
101	0xbddbeca8	-0.10738498
102	0xbdd2a861	-0.10286022
103	0x3d804017	0.06262224
104	0xbde8706a	-0.11349566
105	0xbd2e143c	-0.042499766
106	0xbb7e2fba	-0.0038785771
107	0xbd049a51	-0.03237373
108	0x3c652ff0	0.01398848
109	0x3daca811	0.084304936
110	0x3d446f44	0.047957674
111	0xbd370b64	-0.044688597
112	0xbdd06d24	-0.10177067
113	0x3d750ff5	0.05982967
114	0x3df7a287	0.120915465
115	0x3db5b7af	0.088729255
116	0xbc2d4dbc	-0.010577615
117	0xbd20b294	-0.039232805
118	0xbccccc1f	-0.024999676
119	0x3c956fb5	0.018241743
120	0xbce36343	-0.027757293
121	0xbd9f62d4	-0.07782522
122	0x3d424746	0.047431253
123	0xbdf179f5	-0.117908396
124	0x3b8a14a6	0.0042138873
125	0x3d8ca7c0	0.06867933
126	0x3c11b9f2	0.0088944305
127	0x3dec0260	0.115238905
128	0xbd7af097	-0.0612646
129	0x3d573255	0.052538235
130	0x3db32efe	0.087491974
131	0xbde842d5	-0.11340872
132	0xbc267e74	-0.010161985
133	0xbdb97aae	-0.090566024
134	0xbccf1c16	-0.025281947
135	0x3d99ee8c	0.07516202
136	0x3d736fd4	0.05943282
137	0x3ca377bc	0.019954555
138	0xbdc6aa1c	-0.097004145
139	0xbd5cddcf	-0.05392247
140	0x3df07de2	0.1174276
141	0x3defb025	0.11703519
142	0xbcffe0dc	-0.031235151
143	0x3cab7c81	0.020933392
144	0x3d840376	0.064459726
145	0xbbab0e8e	-0.005220241
146	0x3db0b82f	0.0862888
147	0xbd0abb25	-0.03386988
148	0xbcf3538d	-0.029702926
149	0xbca9af82	-0.020713571
150	0xbdcc2bb9	-0.09969277
151	0xbdc1e0d8	-0.09466714
152	0xbb9dff91	-0.0048217257
153	0xbd9fabce	-0.07796441
154	0xbd7d1501	-0.06178761
155	0xbd67e631	-0.056616012
156	0x3cb50f52	0.022102032
157	0x3d98d080	0.07461643
158	0xbcb955e9	-0.022623973
159	0x3dbf0082	0.09326269
160	0xbdecb3f2	-0.11557759
161	0xbdf8d192	-0.12149347
162	0xbd56a997	-0.052407827
163	0x3d609cbf	0.054836985
164	0x3d8aaaf0	0.06770885
165	0x3dfdd932	0.12394942
166	0x3d86b484	0.065773994
167	0xbc094035	-0.008377125
168	0xbde08bbd	-0.10964153
169	0x3c513c30	0.0127706975
170	0x3d0647d9	0.032783363
171	0x3da76fc2	0.08175613
172	0x3a0ae674	0.00052986224
173	0xbde94779	-0.113905855
174	0xbd28f854	-0.04125245
175	0xbdfc95c2	-0.123332515
176	0x3dd43b8c	0.1036292
177	0x3d7f3970	0.062310636
178	0xbd889f78	-0.06671041
179	0xbd517c65	-0.051144022
180	0xbba0111e	-0.004884853
181	0xbde7fee3	-0.11327913
182	0xbc81d7df	-0.015850006
183	0xbb6e61d8	-0.0036374237
184	0xbcfea421	-0.031084122
185	0x3dbd6c8d	0.0924922
186	0xbd1bc9b9	-0.038034175
187	0x3da091d2	0.07840313
188	0xbc99fb8b	-0.018796703
189	0x3dc36db4	0.095424086
190	0x3c6c1d7f	0.014411329
191	0xbc34c4e0	-0.011033267
192	0xbdffb2f5	-0.12485305
193	0x3d793120	0.060837865
194	0x3d732a58	0.059366554
195	0x3db5116d	0.08841214
196	0xbd51d833	-0.051231574
197	0x3c512771	0.012765751
198	0x3d3f3234	0.046678737
199	0xbc82d7b8	-0.015972003
200	0xbdb7a892	-0.08967699
201	0xbd2454f4	-0.04012008
202	0x3dbba634	0.0916256
203	0xbd28a408	-0.041172057
204	0x3d4d2eff	0.050093647
205	0xbdbfd08e	-0.093659505
206	0xbd526fac	-0.05137603
207	0xbdcb93e6	-0.09940319
208	0xbdb04a09	-0.08607871
209	0xbc5fa8a5	-0.013651048
210	0x3df03408	0.11728674
211	0xbdde39eb	-0.10850891
212	0xbbbc9203	-0.0057547106
213	0x3df15db3	0.1178545
214	0xbdb8f7b6	-0.09031622
215	0xbcfe54f0	-0.03104636
216	0xbdde3886	-0.10850625
217	0x3cd10730	0.025516123
218	0x3d186382	0.037204273
219	0x3c94d2ad	0.018166864
220	0xbdde3875	-0.10850612
221	0x3d4f57d7	0.05062088
222	0xbd00fcc2	-0.03149105
223	0xbd93e5bc	-0.07221553
224	0xbc78b2aa	-0.015179316
225	0xbd92d7ee	-0.071700916
226	0xbdac3264	-0.08408049
227	0x3c488b19	0.012240195
228	0x3c9281eb	0.017884215
229	0xbd2ab4dc	-0.041676387
230	0xbd9c2049	-0.076233454
231	0x3d2d312a	0.042283215
232	0x3d14c1b0	0.036317527
233	0xbd45f198	-0.048326105
234	0x3b669a6c	0.0035187257
235	0xbdb1b5d0	-0.08677256
236	0xbd211358	-0.03932509
237	0xbdfe47b8	-0.12416023
238	0x3ae27580	0.0017277449
239	0xbcdd8ce9	-0.02704473
240	0xbdafce91	-0.08584321
241	0xbdeb3392	-0.11484446
242	0xbdbd42b8	-0.09241241
243	0xbd13f5ea	-0.036123194
244	0xbca10f76	-0.019660693
245	0x3b223f80	0.0024757087
246	0xbdc7a9f0	-0.0974921
247	0xbd64cbe0	-0.055858493
248	0x3de30aa2	0.110860124
249	0x3d1b7fd4	0.037963703
250	0xbce3bf40	-0.027801156
251	0xbd094d77	-0.03352114
252	0xbc5aa7c7	-0.013345665
253	0xbcd95fa0	-0.026534855
254	0x3c535b38	0.012900166
255	0xbd954ead	-0.07290397

lin2.bias f4 [16]
0	0x3d2017b1	0.039085094
1	0xbdad3f81	-0.08459378
2	0x3cbef019	0.023307847
3	0x3d9b1041	0.075714596
4	0xbdd42dbe	-0.10360287
5	0x3e01c908	0.12674344
6	0x3d74df74	0.059783414
7	0xbcdd3001	-0.02700043
8	0xbc566914	-0.013086576
9	0xbd670049	-0.056396756
10	0x3c23db32	0.010000991
11	0xbd9df2d9	-0.07712335
12	0x3d947885	0.0724955
13	0xbdedd36d	-0.11612592
14	0x3d795431	0.060871307
15	0x3dd9533b	0.10611578

lin3.weight f4 [3, 16]
0	0x3d0d307a	0.03447006
1	0xbe5a93cf	-0.21345447
2	0xbdc1e8a2	-0.09468199
3	0xbd254d96	-0.040357195
4	0x3dcce011	0.10003675
5	0x3da539a5	0.080676354
6	0x3e2ab7fd	0.16671748
7	0xbdade9a7	-0.08491831
8	0x3dc79de6	0.097469136
9	0x3e1cc4ec	0.15309495
10	0xbda14204	-0.078739196
11	0x3d075cd2	0.033047505
12	0x3e3ff847	0.18747054
13	0x3e7af0d2	0.24505928
14	0xbe0ae7ec	-0.13565034
15	0x3df6dc10	0.12053692
16	0x3e61166d	0.21981211
17	0x3dfc554c	0.123209566
18	0xbd1f1293	-0.038836073
19	0xbe2836ff	-0.1642723
20	0x3df23f5b	0.1182849
21	0x3e3f6a0a	0.18692794
22	0x3e5da2a7	0.21644078
23	0x3e7c55d9	0.24642123
24	0xbc0e5dc5	-0.008689349
25	0x3d871fa7	0.06597834
26	0x3dd66591	0.10468591
27	0x3dfa995e	0.12236284
28	0x3daf9aaa	0.08574422
29	0x3e53d2a2	0.20685819
30	0x3e1c0c9f	0.1523919
31	0xbe6f6162	-0.23376992
32	0x3d3d574e	0.04622584
33	0xbe12e1ea	-0.14343992
34	0xbc0bb469	-0.0085269
35	0x3db7a363	0.089667104
36	0xbe22f94a	-0.15915409
37	0xbe0ed54c	-0.13948554
38	0x3e13fab9	0.14451112
39	0xbe4e0ad2	-0.20121315
40	0xbe5c9105	-0.21539696
41	0x3db1ddd3	0.08684888
42	0xbd32f0ff	-0.043686863
43	0xbe4577ce	-0.19283983
44	0xbdfe32fe	-0.1241207
45	0x3e6855bc	0.22688955
46	0x3e280047	0.16406356
47	0x3ccfee98	0.025382325

lin3.bias f4 [3]
0	0xbe091014	-0.1338504
1	0x3e51b07f	0.20477484
2	0x3dad5184	0.084628135
