dagger_models/model_0.pth (torch, 231749 bytes, 24 tensors)

conv1.weight f4 [4, 1, 5, 5]
0.16023253 0.0066930354 0.1845936 -0.06599113 0.18005757 -0.17380162 0.07137884 0.11169948
0.021248773 -0.018493503 -0.16031389 0.046002656 -0.138683 -0.10627022 -0.12596071 0.11676194
-0.07662421 -0.12671667 -0.000751704 -0.122730374 0.08897717 0.19884364 -0.015347689 0.031475946
-0.13687918 -0.049854234 0.16904731 -0.0753886 0.1448703 0.06688608 -0.17912558 0.05481957
-0.17856805 0.05176826 0.17248248 0.07127516 -0.12253692 0.109756306 -0.024332926 -0.16111441
0.13767864 -0.10957048 0.17501326 0.09859337 -0.13895562 -0.15006173 0.09132247 -0.010689348
-0.1149859 0.011530966 0.0499634 -0.0035324097 -0.047937006 -0.1234833 -0.08608127 0.08065204
-0.071959406 0.13590969 -0.15881546 -0.16722377 0.05831851 -0.059808403 -0.016769528 -0.10771775
0.07238151 0.09525733 0.102139845 -0.18263732 0.18110122 -0.0926554 0.13428508 -0.18870853
-0.14932354 -0.07805317 0.16603725 -0.08982737 0.15224989 -0.18710788 0.118238285 0.0037821084
0.19465365 0.12521078 -0.16575582 0.020178482 0.18308325 0.05748792 -0.1745504 -0.002907604
-0.18364035 0.093388215 -0.16362448 -0.15321204 -0.038176656 -0.09370177 -0.024492308 0.11193304
0.034361765 0.16174378 0.10513227 0.081594184
00000000: ff13 243e 4051 db3b 1b06 3d3e 5c26 87bd
00000010: 0361 383e 0df9 31be 122f 923d b2c2 e43d
00000020: e811 ae3c b07f 97bc 5329 24be 486d 3c3d
00000030: eb02 0ebe 33a4 d9bd d8fb 00be e220 ef3d
00000040: 27ed 9cbd 04c2 01be 000e 45ba 105a fbbd
00000050: aa39 b63d ab9d 4b3e e074 7bbc ecec 003d
00000060: 0e2a 0cbe f433 4cbd bd1a 2d3e 5765 9abd
00000070: e158 143e 92fb 883d b26c 37be 7c8a 603d
00000080: 8bda 36be f40a 543d 3f9f 303e b6f8 913d
00000090: a3f4 fabd eac7 e03d d855 c7bc 2dfb 24be
000000a0: a1fb 0c3e 7d66 e0bd ad36 333e 52eb c93d
000000b0: 624a 0ebe c8a9 19be 4607 bb3d 6022 2fbc
000000c0: ba7d ebbd 60ec 3c3c 6ca6 4c3d 0080 67bb
000000d0: 9859 44bd d0e4 fcbd 604b b0bd e62c a53d
000000e0: 745f 93bd e92b 0b3e 85a0 22be b53c 2bbe
000000f0: 64df 6e3d a8f9 74bd 4060 89bc 209b dcbd
00000100: c23c 943d 4616 c33d b22e d13d 4705 3bbe
00000110: 9972 393e 1dc2 bdbd 0782 093e cf3c 41be
00000120: 45e8 18be 57da 9fbd ab05 2a3e 6af7 b7bd
00000130: 65e7 1b3e 3599 3fbe ea26 f23d 40dd 773b
00000140: 4953 473e 4137 003e e5bb 29be 584d a53c
00000150: 2d7a 3b3e 7478 6b3d 57bd 32be 808d 3ebb
00000160: 370c 3cbe 5242 bf3d 2d8d 27be 9ee3 1cbe
00000170: 205f 1cbd b7e6 bfbd 18a4 c8bc 263d e53d
00000180: ecbe 0c3d 29a0 253e 964f d73d da1a a73d

conv1.bias f4 [4]
-0.04588504 0.17413376 0.17175479 0.11215077
00000000: f4f1 3bbd 1f50 323e 7de0 2f3e 4eaf e53d

norm1.weight f4 [4]
1.0 1.0 1.0 1.0
00000000: 0000 803f 0000 803f 0000 803f 0000 803f

norm1.bias f4 [4]
0.0 0.0 0.0 0.0
00000000: 0000 0000 0000 0000 0000 0000 0000 0000

norm1.running_mean f4 [4]
0.0 0.0 0.0 0.0
00000000: 0000 0000 0000 0000 0000 0000 0000 0000

norm1.running_var f4 [4]
1.0 1.0 1.0 1.0
00000000: 0000 803f 0000 803f 0000 803f 0000 803f

conv2.weight f4 [8, 4, 5, 5]
0.0994286 0.04419946 0.0724928 -0.045176078 -0.089390926 -0.09329813 -0.07312928 0.022654258
0.072643794 0.017478645 0.037752457 0.0018913373 0.093822576 -0.05963136 0.08753044 -0.012368873
0.08374574 0.056758888 0.035753153 -0.0042371154 -0.05390339 0.081144474 -0.089379765 0.055496596
0.002615273 0.052614637 -0.071880415 -0.055761065 0.01923798 0.01150541 0.06355267 0.09012217
-0.0013267025 0.0074903592 0.08102652 0.046861105 0.0046259165 -0.003962256 -0.08775462 -0.04784788
0.09297993 0.00012235343 0.03750927 -0.009530343 0.030050047 0.0016030073 -0.0473696 0.006565228
-0.0975612 0.041664906 0.023641847 -0.05779009 -0.03221961 0.049104206 -0.083042584 0.050395764
-0.052696943 0.060274474 -0.06410223 -0.08698765 -0.07588067 0.03221249 0.08929563 0.078274675
-0.0056133494 0.004213214 0.079617165 0.022009313 0.039109834 0.09720033 0.017325565 -0.07144129
-0.046266794 0.014940217 0.055444755 -0.085130155 -0.08968424 -0.0076426044 -0.056176353 -0.07131879
0.0690229 0.012394309 -0.015218899 -0.03763318 0.018100046 -0.09115427 0.061775185 -0.058965195
0.03772492 0.01657182 0.058427 0.08630859 0.01505927 -0.03261225 0.060731463 0.07194253
-0.034236237 0.05451683 -0.026491985 0.03510601 -0.061206486 -0.028358236 0.07808577 -0.095812
-0.021438941 -0.055403054 -0.011213161 0.083093055 0.036215983 -0.08322976 -0.08741529 -0.003469944
0.029843383 -0.09151918 -0.079854175 0.060953684 -0.0135931745 -0.037647843 0.0902713 -0.031463668
-0.052470054 -0.08766847 0.09297206 0.009852901 0.043587916 0.08473072 -0.018879816 0.02031207
0.07249618 0.02212967 0.06545211 -0.0052352995 -0.088849604 0.045864902 0.052678637 -0.052028704
0.08739955 0.021469131 0.09275501 -0.04139775 0.031828694 0.07231512 0.0056558996 0.050329663
0.04055264 -0.08126161 0.040516518 0.045682795 -0.098137274 -0.06823529 -0.014031485 0.0048140734
-0.035778843 0.07974548 0.027230628 0.008197129 0.0067981035 -0.079074726 -0.015085593 0.053502746
0.0080539435 -0.018478833 -0.06777313 0.008663014 0.0056723207 -0.097752295 -0.09273832 0.092508145
0.00038496405 0.07622362 0.056713827 -0.057871737 0.015514493 -0.06280871 0.042129494 0.012472607
-0.05590502 0.078580536 0.022689499 -0.03244494 -0.045292962 -0.07787607 0.0013949648 -0.09497609
-0.054030634 0.039500616 -0.013248205 0.0013213903 0.09185786 0.012305245 -0.009149 -0.054492544
-0.01913409 0.004236914 -0.013075486 0.014800206 0.01977519 0.07152013 -0.09431092 0.07073619
-0.026155293 -0.02514653 -0.07629138 -0.066235974 0.060613044 0.044681735 -0.057586696 -0.03183665
-0.06253408 0.0314228 0.06868612 -0.06430623 0.044490047 -0.03154379 0.098289214 -0.0040486455
-0.0770911 -0.05000582 -0.040369775 -0.056373753 -0.0851407 0.060583077 -0.088043906 -0.047176838
0.091332085 -0.034373686 0.05936063 -0.08245973 0.015809573 -0.099026434 -0.06439705 -0.011086866
0.009901464 0.04859557 0.008219443 0.09795608 -0.079421505 0.06977411 -0.00944984 0.024216436
0.039424963 0.050395377 -0.0651992 -0.08268235 -0.0587801 0.07066355 -0.020009652 0.025942571
-0.09518241 -0.089137666 0.0009842739 -0.0075714737 0.027232893 -0.021852873 -0.043834507 0.012366012
00000000: 39a1 cb3d 7e0a 353d 1b77 943d 8d0a 39bd
00000010: 9712 b7bd 1713 bfbd cec4 95bd 6c95 b93c
00000020: 45c6 943d 602f 8f3c 52a2 1a3d c0e6 f73a
00000030: 0d26 c03d 0340 74bd 2943 b33d d0a6 4abc
00000040: e382 ab3d 027c 683d e671 123d 80d7 8abb
00000050: cdc9 5cbd 132f a63d bd0c b7bd 6650 633d
00000060: 0065 2b3b 7282 573d 0a36 93bd b765 64bd
00000070: f898 9d3c 3081 3c3c e727 823d f991 b83d
00000080: c0e4 adba b071 f53b 3bf1 a53d 6ef1 3f3d
00000090: 0095 973b d0d5 81bb b2b8 b3bd 23fc 43bd
000000a0: 436c be3d 004c 0039 52a3 193d 2825 1cbc
000000b0: 842b f63c 001c d23a a006 42bd 2021 d73b
000000c0: 2bce c7bd d2a8 2a3d 8cac c13c 4db5 6cbd
000000d0: b6f8 03bd 7e21 493d 3b12 aabd ca6b 4e3d
000000e0: c0d8 57bd 5ee2 763d 0848 83bd 9526 b2bd
000000f0: 5367 9bbd 3ef1 033d a1e0 b63d 794e a03d
00000100: 30f0 b7bb 000f 8a3b 530e a33d e04c b43c
00000110: a231 203d f710 c73d 58ee 8d3c d04f 92bd
00000120: 4082 3dbd d0c7 743c 0a1a 633d b858 aebd
00000130: 5fac b7bd d06e fabb 2d19 66bd 960f 92bd
00000140: e15b 8d3d 8011 4b3c b058 79bc 4025 1abd
00000150: 8c46 943c 17af babd fa07 7d3d 7d85 71bd
00000160: 7285 1a3d a0c1 873c 2651 6f3d 8fc2 b03d
00000170: 28bb 763c 6c94 05bd 8ec1 783d 9b56 933d
00000180: 4c3b 0cbd 0a4d 5f3d b805 d9bc 52cb 0f3d
00000190: a7b3 7abd 884f e8bc 6feb 9f3d 1539 c4bd
000001a0: b8a0 afbc 50ee 62bd 68b7 37bc b12c aa3d
000001b0: 3657 143d 5d74 aabd ca06 b3bd 0068 63bb
000001c0: 1c7a f43c 686e bbbd 968a a3bd 92aa 793d
000001d0: e8b5 5ebc a034 1abd 29e0 b83d 0ce0 00bd
000001e0: d7ea 56bd 878b b3bd 2368 be3d 106e 213c
000001f0: 3e89 323d 4d87 ad3d d8a9 9abc 8065 a63c
00000200: e178 943d 4849 b53c c10b 863d e08c abbb
00000210: c8f6 b5bd d6dc 3b3d 8ec5 573d 0d1c 55bd
00000220: 89fe b23d 08e0 af3c 57f6 bd3d b090 29bd
00000230: ce5e 023d f319 943d 2055 b93b 7a26 4e3d
00000240: 861a 263d 7d6c a6bd a6f4 253d e21d 3b3d
00000250: 32fc c8bd f2be 8bbd 50e4 65bc 60bf 9d3b
00000260: d68c 12bd 9951 a33d c412 df3c 404d 063c
00000270: a0c2 de3b eef1 a1bd 9029 77bc b225 5b3d
00000280: b0f4 033c ec60 97bc a4cc 8abd 50ef 0d3c
00000290: e0de b93b 5b32 c8bd 97ed bdbd e974 bd3d
000002a0: 00d5 c939 211b 9c3d c24c 683d ea0a 6dbd
000002b0: 8030 7e3c daa1 80bd fa8f 2c3d e859 4c3c
000002c0: aafc 64bd d5ee a03d 54df b93c fce4 04bd
000002d0: 1d85 39bd 7d7d 9fbd 40d7 b63a d382 c2bd
000002e0: 3a4f 5dbd 66cb 213d 000f 59bc 8032 ad3a
000002f0: f91f bc3d f09b 493c b0e5 15bc 9333 5fbd
00000300: 18bf 9cbc d0d5 8a3b 903a 56bc 907c 723c
00000310: 94ff a13c 2579 923d 1526 c1bd 23de 903d
00000320: a043 d6bc 1800 cebc a83e 9cbd baa6 87bd
00000330: 6245 783d 3204 373d 07e0 6bbd 2667 02bd
00000340: de11 80bd 32b5 003d 4fab 8c3d fcb2 83bd
00000350: 323b 363d 1034 01bd db4b c93d 80aa 84bb
00000360: f0e1 9dbd e7d2 4cbd c75a 25bd 2ae8 66bd
00000370: 3f5e aebd f625 783d 5d50 b4bd 803c 41bd
00000380: 510c bb3d 6ccb 0cbd 2224 733d a6e0 a8bd
00000390: 1483 813c 5fce cabd 9ae2 83bd b0a5 35bc
000003a0: c039 223c 260c 473d d8aa 063c 339d c83d
000003b0: bea7 a2bd bbe5 8e3d 80d3 1abc 8c61 c63c
000003c0: 127c 213d 626b 4e3d 2887 85bd 5d55 a9bd
000003d0: 67c3 70bd 0db8 903d 48eb a3bc 8485 d43c
000003e0: ffee c2bd cf8d b6bd c002 813a 201a f8bb
000003f0: 8417 df3c cc04 b3bc d08b 33bd d09a 4a3c

conv2.bias f4 [8]
0.077208646 -0.088626735 -0.071076535 0.015297927 -0.087226085 0.06243939 0.0381869 -0.00929372
00000000: 911f 9e3d ef81 b5bd 9390 91bd 28a4 7a3c
00000010: 97a3 b2bd 72c0 7f3d de69 1c3d b044 18bc

norm2.weight f4 [8]
1.0 1.0 1.0 1.0 1.0 1.0 1.0 1.0
00000000: 0000 803f 0000 803f 0000 803f 0000 803f
00000010: 0000 803f 0000 803f 0000 803f 0000 803f

norm2.bias f4 [8]
0.0 0.0 0.0 0.0 0.0 0.0 0.0 0.0
00000000: 0000 0000 0000 0000 0000 0000 0000 0000
00000010: 0000 0000 0000 0000 0000 0000 0000 0000

norm2.running_mean f4 [8]
0.0 0.0 0.0 0.0 0.0 0.0 0.0 0.0
00000000: 0000 0000 0000 0000 0000 0000 0000 0000
00000010: 0000 0000 0000 0000 0000 0000 0000 0000

norm2.running_var f4 [8]
1.0 1.0 1.0 1.0 1.0 1.0 1.0 1.0
00000000: 0000 803f 0000 803f 0000 803f 0000 803f
00000010: 0000 803f 0000 803f 0000 803f 0000 803f

conv3.weight f4 [16, 8, 6, 6]
0.0280389 0.008855272 0.043665577 -0.015077859 -0.040896535 -0.037149653 0.030191962 -0.030909438
0.025432546 -0.028033324 -0.022793226 -0.033650346 -0.02633461 -0.011525527 0.020187628 -0.049265064
-0.010420669 0.05372793 0.02257416 0.03801896 0.02233513 -0.04402671 0.05802832 0.031066474
0.0018042587 0.009110812 -0.047101356 -0.0017822646 -0.026868328 0.03673042 -0.04074373 -0.05456653
-0.03994323 -0.05252405 -0.03205373 0.014056165 -0.006841015 0.05468485 0.01709574 -0.0059058145
-0.010928251 -0.0024653599 -0.02843902 -0.030814601 0.015121084 0.04024985 0.01683708 -0.054931324
-0.049121935 -0.058633115 -0.008672416 -0.019644253 0.0006381236 -0.032226108 0.012195129 0.058491807
-0.0057392344 0.02846488 -0.012268998 0.038971286 -0.01742341 0.03925394 -0.020025548 0.046475317
0.0076065846 -0.045560524 -0.028132172 -0.035174012 0.052860398 0.023411993 -0.04580726 -0.05093079
-0.035594117 -0.01683272 0.013202984 0.056586202 -0.03836009 -0.03827526 0.032513905 0.05473342
-0.055508852 0.04508895 -0.008526433 0.040277693 -0.058515918 -0.019674908 0.0118537955 0.019496243
0.038354713 -0.051235016 -0.026980612 0.009582717 -0.022239797 -4.6417117e-05 0.027632881 -0.016269948
0.0053478293 0.05273995 -0.034394264 0.049052242 -0.004325349 -0.03291973 -0.02919857 0.027971607
-0.048565913 -0.052289095 -0.02726907 0.030576762 0.004342731 0.03345223 0.02426343 0.042048495
-0.01886969 0.016697373 0.021522988 -0.02795779 0.044961307 -0.008268762 0.058844697 0.056104187
0.0048835613 0.05674753 -0.036523513 0.023962628 0.028181825 -0.026250608 -0.047520593 0.014611591
0.013540331 -0.007123336 -0.045768388 0.056026813 -0.016442426 0.023186442 0.029542957 0.03320041
-0.0282309 0.027909447 0.019242886 -0.021053031 -0.007700771 0.011036526 -0.019040346 0.0479458
0.025424074 -0.013353806 0.035297457 0.020608876 0.0055602826 -0.021179304 0.041200515 0.020080354
0.04558194 -0.04710884 -0.042046487 -0.02753061 0.024254154 0.035435427 -0.017094832 -0.004204739
-0.049516317 0.038663503 0.029236306 0.021444459 0.031524647 -0.026660532 0.037217256 0.048797358
0.009636324 0.009382028 0.029667336 -0.018260684 -0.032510206 -0.040033877 0.043800388 -0.016180076
-0.023669172 0.0031937957 0.039429244 -0.037603166 0.009232942 -0.038811304 0.029457036 0.054306295
-0.048229694 0.04579312 0.0055924244 0.057036106 0.031939644 0.02101836 0.042525385 0.039571334
0.04948863 -0.0029253438 0.009035628 0.05694018 -0.055988196 -0.025626056 -0.043715686 0.02652194
0.0074138977 -0.009026449 0.043205593 0.056482214 -0.010193221 0.027769629 -0.041777834 -0.036458492
-0.025594749 0.04010762 0.03646673 -0.05788838 -0.01526219 0.0060410537 -0.012506466 0.022026803
-0.054421254 -0.022308018 0.023076598 -0.03013187 -0.003197182 -0.032535136 -0.049808037 -0.057460554
0.04258519 -0.039672464 0.041697506 0.021254357 -0.01433545 0.044634353 -0.010620009 -0.01574307
-0.02264154 0.050532628 -0.005218286 -0.03194774 0.04559532 -0.027204055 0.05866306 0.039016183
-0.010741439 -0.023189202 -0.029449204 0.019535225 0.00966179 -0.04733604 0.05719438 0.032342482
-0.04727049 -0.046136767 0.04940548 0.019339915 -0.053372014 0.0157017 0.021869149 -0.052446023
00000000: d6b1 e53c b415 113c adda 323d 2009 77bc
00000010: 2083 27bd 3c2a 18bd 2255 f73c ca35 fdbc
00000020: ea57 d03c 24a6 e5bc dcb8 babc f2d4 09bd
00000030: aebb d7bc 90d5 3cbc 8660 a53c 2aca 49bd
00000040: 74bb 2abc d111 5c3d 72ed b83c c5b9 1b3d
00000050: 2af8 b63c 5a55 34bd 1baf 6d3d 1e7f fe3c
00000060: e07c ec3a 8445 153c 5aed 40bd e09a e9ba
00000070: f81a dcbc a372 163d e6e2 26bd 2781 5fbd
00000080: 839b 23bd 7523 57bd c64a 03bd d44b 663c
00000090: 982a e0bb 39fd 5f3d 5e0c 8c3c 9085 c1bb
000000a0: 680c 33bc e091 21bb f3f8 e8bc e76e fcbc
000000b0: 6cbe 773c 07dd 243d eaed 893c abff 60bd
000000c0: 1534 49bd 4729 70bd c016 0ebc fcec a0bc
000000d0: c047 273a 86ff 03bd 14ce 473c 1b95 6f3d
000000e0: 3010 bcbb 2e2f e93c e803 49bc 5ba0 1f3d
000000f0: 8abb 8ebc bdc8 203d 9e0c a4bc e75c 3e3d
00000100: a840 f93b ac9d 3abd 7175 e6bc a012 10bd
00000110: 2584 583d 82ca bf3c 65a0 3bbd ce9c 50bd
00000120: 23cb 11bd c6e4 89bc 5451 583c efc6 673d
00000130: 781f 1dbd 85c6 1cbd 4d2d 053d 2730 603d
00000140: 405d 63bd 31af 383d 74b2 0bbc 39fa 243d
00000150: 63ae 6fbd 462d a1bc 6c36 423c 96b6 9f3c
00000160: d519 1d3d cfdb 51bd 7206 ddbc d400 1d3c
00000170: 3c30 b6bc 00b0 42b8 5a5e e23c 8e48 85bc
00000180: d83c af3b d905 583d 00e1 0cbd 01eb 483d
00000190: a8bb 8dbb d7d6 06bd d731 efbc b624 e53c
000001a0: 0ded 46bd 172d 56bd 6263 dfbc 1e7c fa3c
000001b0: 784d 8e3b 3505 093d 1ac4 c63c 0b3b 2c3d
000001c0: 9c94 9abc eec8 883c fa50 b03c bc07 e5bc
000001d0: 5929 383d b479 07bc 2307 713d 81cd 653d
000001e0: 4806 a03b 1970 683d ae99 15bd 464d c43c
000001f0: 92dd e63c 840b d7bc f4a4 42bd 7465 6f3c
00000200: 44d8 5d3c e06a e9bb a277 3bbd 5f7c 653d
00000210: 44b2 86bc 7ef1 bd3c 1204 f23c 27fd 073d
00000220: 7d44 e7bc 5aa2 e43c 42a3 9d3c 6877 acbc
00000230: c056 fcbb 8cd2 343c 80fa 9bbc d162 443d
00000240: 2646 d03c ecc9 5abc 1194 103d f2d3 a83c
00000250: 0833 b63b 3880 adbc dfc1 283d 8e7f a43c
00000260: 21b4 3a3d 33f5 40bd f038 2cbd e087 e1bc
00000270: a6b0 c63c bd24 113d 760a 8cbc e8c7 89bb
00000280: 9fd1 4abd 9f5d 1e3d fa80 ef3c 4aac af3c
00000290: fd1f 013d 3067 dabc 1f71 183d bddf 473d
000002a0: ace1 1d3c 14b7 193c ea08 f33c 6e97 95bc
000002b0: 6c29 05bd 90fa 23bd 0968 333d 148c 84bc
000002c0: dae5 c1bc 004f 513b 8f80 213d c705 1abd
000002d0: c445 173c 9af8 1ebd e24f f13c 4770 5e3d
000002e0: 808c 45bd 9191 3b3d a840 b73b b19e 693d
000002f0: 25d3 023d b22e ac3c 192f 2e3d 8d15 223d
00000300: 97b4 4a3d 20b7 3fbb 2c0a 143c 1b3a 693d
00000310: e153 65bd bced d1bc 380f 33bd 8a44 d93c
00000320: 48f0 f23b ace3 13bc 59f8 303d e559 673d
00000330: 7801 27bc 227d e33c 3c1f 2bbd 8055 15bd
00000340: 14ac d1bc e347 243d 235e 153d 5e1c 6dbd
00000350: 440e 7abc 08f4 c53b ece7 4cbc 8e71 b43c
00000360: d2e8 5ebd 4ebf b6bc 220b bd3c 1dd7 f6bc
00000370: d087 51bb 9043 05bd 8303 4cbd c25b 6bbd
00000380: cf6d 2e3d 987f 22bd 01cb 2a3d 9e1d ae3c
00000390: 3cdf 6abc 83d2 363d 8cff 2dbc 9cf7 80bc
000003a0: c07a b9bc 4dfb 4e3d 28fe aabb a2db 02bd
000003b0: 29c2 3a3d 0adb debc ad48 703d 6fcf 1f3d
000003c0: dcfc 2fbc 48f7 bdbc 753f f1bc 5608 a03c
000003d0: 7c4c 1e3c 6fe3 41bd a744 6a3d 8d79 043d
000003e0: b49e 41bd e8f9 3cbd 675d 4a3d be6e 9e3c
000003f0: 9d9c 5abd daa0 803c ee26 b33c a4d1 56bd

conv3.bias f4 [16]
0.029759984 -0.0040218346 -0.011152413 -0.045321174 0.023118425 0.004406411 0.0022306778 -0.004051309
-0.004682809 -0.019861352 0.04311054 3.8802624e-05 0.032186154 0.05481079 -0.014378201 -0.010460306
00000000: 36cb f33c 98c9 83bb 9cb8 36bc b2a2 39bd
00000010: da62 bd3c a863 903b 9030 123b d8c0 84bb
00000020: 4072 99bb 46b4 a2bc ad94 303d 00c0 2238
00000030: a1d5 033d 4781 603d 8c92 6bbc b461 2bbc

norm3.weight f4 [16]
1.0 1.0 1.0 1.0 1.0 1.0 1.0 1.0
1.0 1.0 1.0 1.0 1.0 1.0 1.0 1.0
00000000: 0000 803f 0000 803f 0000 803f 0000 803f
00000010: 0000 803f 0000 803f 0000 803f 0000 803f
00000020: 0000 803f 0000 803f 0000 803f 0000 803f
00000030: 0000 803f 0000 803f 0000 803f 0000 803f

norm3.bias f4 [16]
0.0 0.0 0.0 0.0 0.0 0.0 0.0 0.0
0.0 0.0 0.0 0.0 0.0 0.0 0.0 0.0
00000000: 0000 0000 0000 0000 0000 0000 0000 0000
00000010: 0000 0000 0000 0000 0000 0000 0000 0000
00000020: 0000 0000 0000 0000 0000 0000 0000 0000
00000030: 0000 0000 0000 0000 0000 0000 0000 0000

norm3.running_mean f4 [16]
0.0 0.0 0.0 0.0 0.0 0.0 0.0 0.0
0.0 0.0 0.0 0.0 0.0 0.0 0.0 0.0
00000000: 0000 0000 0000 0000 0000 0000 0000 0000
00000010: 0000 0000 0000 0000 0000 0000 0000 0000
00000020: 0000 0000 0000 0000 0000 0000 0000 0000
00000030: 0000 0000 0000 0000 0000 0000 0000 0000

norm3.running_var f4 [16]
1.0 1.0 1.0 1.0 1.0 1.0 1.0 1.0
1.0 1.0 1.0 1.0 1.0 1.0 1.0 1.0
00000000: 0000 803f 0000 803f 0000 803f 0000 803f
00000010: 0000 803f 0000 803f 0000 803f 0000 803f
00000020: 0000 803f 0000 803f 0000 803f 0000 803f
00000030: 0000 803f 0000 803f 0000 803f 0000 803f

lin1.weight f4 [64, 768]
-0.00899663 -0.026477214 -0.0002487339 0.028588422 0.025889285 -0.03475813 0.030055024 0.017371345
-0.011093244 0.0026901886 -0.028337315 0.03328471 0.013951633 -0.0022791736 -0.0028167367 -0.0031465255
-0.0031295232 -0.006026117 0.029416867 0.0022388026 -0.0017216653 -0.0030799285 0.01387449 0.012172017
0.026856892 -0.0032585412 0.019393053 0.021452807 -0.00050829723 0.002289731 -0.0011363998 0.006706111
-0.013209246 0.034919336 0.03386075 0.015841458 -0.008748222 0.020083204 0.009635758 -0.035529923
0.023365475 0.0024910867 0.022546168 -0.0033467002 0.006634213 0.018882051 -0.034956925 -0.02950157
0.019293744 0.022931084 -0.0007469021 0.0056425817 -0.016921476 0.03403788 0.035280257 -0.03026081
0.017168645 0.017412912 0.017531134 -0.027037965 0.02642478 0.024132453 -0.006199738 -0.016672224
0.03222674 -0.030905701 -0.009261651 -0.01887874 0.03227997 -0.024832994 -0.01351306 -0.03177424
-0.016057216 0.03600567 0.033543393 0.025025155 0.007356763 0.016776126 0.02601261 0.0034969635
0.03309726 -0.002466973 0.014998201 -0.013533827 -0.0060691237 0.022796094 0.03482893 -0.03402979
-0.030040057 0.02462618 0.008875266 0.0016407147 0.0059848987 -0.014142912 -0.010885358 0.014166303
0.00076280907 -0.0208651 -0.011929639 -0.007859599 -0.0357697 -0.030305281 -0.00978158 -0.020938013
-0.019950444 -0.0009935722 -0.012991138 0.01742113 0.023312088 -0.014891725 0.002769325 0.0020954274
-0.02680407 -0.03033703 0.02755849 -0.017549392 -0.0025753416 0.004471332 -0.01967228 -0.001139164
-0.020937916 -0.031801328 -0.018416543 -0.013346154 0.021233764 -0.034470942 -0.0075893123 0.008023877
-0.012342587 0.012841206 0.021339692 0.012230065 -0.033598322 0.0016704239 -0.0070369747 0.027845114
0.016495306 -0.0031946301 -0.027898539 0.017582454 0.03003873 -0.02839178 0.026376352 -0.0018229
-0.021909453 0.024405342 0.009041686 0.0026617683 0.019481588 0.01991798 -0.02821013 0.020341516
-0.012842411 -0.017841052 0.007815156 0.025406808 -0.03590719 0.009917323 -0.0044666305 -0.01166725
-0.035569973 0.030635506 -0.013551073 0.03091351 0.017352924 -0.017151736 0.008482352 0.027422749
0.021164618 0.0017393418 0.027613223 0.0025179759 0.014701083 -0.018421806 -0.025176901 0.019531917
-0.032026812 -0.018635739 0.027472794 -0.024511527 0.027477123 0.019917242 -0.019237768 -0.008419052
-0.028040789 -0.015599677 0.016567819 0.026863277 -0.022868048 0.025480345 -0.030308269 -0.02089408
0.021114122 -0.025965836 -0.02192913 -0.0152506195 -0.008731307 -0.005130749 -0.031060938 0.000962846
0.025374569 0.011153858 -0.029892452 0.034127973 -0.027062032 -0.004733395 -0.009048155 0.03195683
0.0038497671 0.020270154 -0.0011620633 0.011877675 0.010979317 -0.024826529 0.009994738 -0.008731997
0.03569141 0.010236166 -0.023087915 -0.01500617 -0.03261591 0.020013552 -0.011112671 -0.03366989
0.018715773 -0.0005818717 -0.0255623 -0.0046468824 0.0021660216 0.026585594 0.006622255 -0.024785861
-0.03584898 0.0026390292 -0.03494391 0.0067666695 -0.014351418 0.0032656528 0.021109357 -0.010783121
-0.027202893 -0.018072104 0.019298222 -0.02495944 0.01832468 0.033684 0.0059479326 0.007064987
-0.029126523 -0.015835714 0.017165191 -0.020627923 0.0072676875 -0.030130997 0.003264498 -0.028892774
00000000: 9a66 13bc bee6 d8bc 8068 82b9 4432 ea3c
00000010: c415 d43c 8a5e 0ebd f435 f63c 5a4e 8e3c
00000020: 70c0 35bc e04d 303b a823 e8bc 8c55 083d
00000030: 6495 643c 305e 15bb 0099 38bb f035 4ebb
00000040: b018 4dbb bc76 c5bb a4fb f03c e0b8 123b
00000050: 80a9 e1ba a0d8 49bb d451 633c 246d 473c
00000060: fc02 dc3c 408d 55bb 2ede 9e3c ccbd af3c
00000070: 403f 05ba 500f 163b 40f3 94ba f0be db3b
00000080: 986b 58bc 9407 0f3d 92b1 0a3d f2c5 813c
00000090: b454 0fbc 8885 a43c 4cdf 1d3c d387 11bd
000000a0: f468 bf3c 8041 233b beb2 b83c 5054 5bbb
000000b0: d063 d93b 88ae 9a3c fe2e 0fbd 47ad f1bc
000000c0: ea0d 9e3c f8d9 bb3c c0cb 43ba 68e5 b83b
000000d0: e89e 8abc 4e6b 0b3d 0882 103d 85e5 f7bc
000000e0: 42a5 8c3c 86a5 8e3c 749d 8f3c b97e ddbc
000000f0: c878 d83c 6cb1 c53c 2c27 cbbb 3094 88bc
00000100: 3000 043d f42d fdbc 2ebe 17bc 96a7 9abc
00000110: 0038 043d 906e cbbc e265 5dbc b525 02bd
00000120: 6c8a 83bc ae7a 133d cc64 093d 8e01 cd3c
00000130: 0011 f13b 166e 893c 6618 d53c 502d 653b
00000140: fe90 073d f0ac 21bb 04bb 753c fcbc 5dbc
00000150: 80df c6bb e0be ba3c c8a8 0e3d d262 0bbd
00000160: 9116 f6bc d8bc c93c 9069 113c 400d d73a
00000170: f81c c43b acb7 67bc 8058 32bc c819 683c
00000180: 40f7 473a 49ed aabc 8874 43bc 8cc5 00bc
00000190: 4083 12bd c842 f8bc ec42 20bc 3286 abbc
000001a0: 1d6f a3bc c03a 82ba c8d8 54bc c2b6 8e3c
000001b0: fef8 be3c 6cfc 73bc 907d 353b 7053 093b
000001c0: 3694 dbbc 5d85 f8bc 58c2 e13c bec3 8fbc
000001d0: 10c7 28bb 4084 923b c327 a1bc 0050 95ba
000001e0: fe85 abbc 1c42 02bd 4ade 96bc d4a9 5abc
000001f0: 6ef2 ad3c 6731 0dbd c4af f8bb 9476 033c
00000200: 9038 4abc ec63 523c 94d0 ae3c 9c60 483c
00000210: 659e 09bd 20f2 da3a 6c96 e6bb 701b e43c
00000220: 2a21 873c 005d 51bb 7a8b e4bc 1409 903c
00000230: c813 f63c e195 e8bc 3813 d83c 60ee eeba
00000240: 747b b3bc b6ed c73c 9423 143c 1071 2e3b
00000250: da97 9f3c 082b a33c ee18 e7bc 40a3 a63c
00000260: fa68 52bc 6627 92bc 240b 003c f021 d03c
00000270: 6b13 13bd 447c 223c d05c 92bb fe27 3fbc
00000280: d2b1 11bd 50f7 fa3c 5205 5ebc 543e fd3c
00000290: b827 8e3c cc81 8cbc 90f9 0a3c aca5 e03c
000002a0: 6c61 ad3c a0fa e33a 2035 e23c a004 253b
000002b0: d0dc 703c 54e9 96bc ca3f cebc 6601 a03c
000002c0: 8c2e 03bd faa9 98bc a00e e13c 66cc c8bc
000002d0: b417 e13c 7c29 a33c 8698 9dbc 10f0 09bc
000002e0: ccb5 e5bc ca95 7fbc 3cb9 873c 6010 dc3c
000002f0: c655 bbbc 28bc d03c 0c49 f8bc 102a abbc
00000300: 86f7 ac3c 4eb6 d4bc b8a4 b3bc bcdd 79bc
00000310: c20d 0fbc d81f a8bb 8273 febc 8067 7c3a
00000320: 54de cf3c acbe 363c 04e1 f4bc c6c9 0b3d
00000330: 32b1 ddbc 981a 9bbb b63e 14bc 2ae5 023d
00000340: 604c 7c3b 980d a63c 6050 98ba 949a 423c
00000350: 98e2 333c 0161 cbbc f8c0 233c a610 0fbc
00000360: 2831 123d 98b5 273c de22 bdbc 70dc 75bc
00000370: 4398 05bd 76f3 a33c ec11 36bc 70e9 09bd
00000380: d251 993c c088 18ba 0768 d1bc e044 98bb
00000390: d0f3 0d3b 08ca d93c 80ff d83b b80b cbbc
000003a0: 61d6 12bd 90f3 2c3b 5821 0fbd f0ba dd3b
000003b0: 3622 6bbc 9004 563b 88ed ac3c b0ab 30bc
000003c0: 9ad8 debc f30b 94bc 4e17 9e3c bd77 ccbc
000003d0: a41d 963c 3cf8 093d e0e6 c23b 6881 e73b
000003e0: bf9a eebc e6b9 81bc 049e 8c3c e4fb a8bc
000003f0: c825 ee3b 48d5 f6bc 30f1 553b 8ab0 ecbc

lin1.bias f4 [64]
0.0036270842 0.025480948 0.028945878 0.0004924163 0.03421825 0.024496071 -0.00991435 -0.022172406
0.026099216 0.020934314 -0.024251414 0.008444052 0.029328108 -0.018576616 0.034947477 0.030020215
-0.007662352 0.017513279 -0.03599565 0.023625765 -0.017568022 0.03140931 -0.002728656 -0.009313602
-0.009899784 -0.015541941 -0.0035546944 0.028625362 0.013384145 0.014803171 0.029849403 -0.015372604
0.009988293 -0.015032442 0.009326816 -0.033101782 -0.023109462 -0.009726193 -0.029403146 0.014385674
-0.017245695 -0.005590072 -0.029262066 0.013652563 0.018848184 0.0055901892 -0.006856475 0.0065883324
-0.033617955 -0.019167617 0.016088206 -0.01564813 0.008363906 0.0018577129 0.026929542 0.015719142
0.016495358 -0.023378208 0.005829554 0.022477068 0.03329213 -0.015567161 -0.0034384206 0.010769326
00000000: 60b4 6d3b 6cbd d03c e81f ed3c 8015 013a
00000010: 7028 0c3d fcab c83c cc6f 22bc e8a2 b5bc
00000020: 06ce d53c 707e ab3c e7aa c6bc ec58 0a3c
00000030: 8041 f03c fd2d 98bc 1625 0f3d f4ec f53c
00000040: 7814 fbbb 0278 8f3c 2d70 13bd d28a c13c
00000050: d0ea 8fbc 0ca7 003d 40d3 32bb 1498 18bc
00000060: b432 22bc a0a3 7ebc e0f5 68bb bc7f ea3c
00000070: 2c49 5b3c 0089 723c bc86 f43c 60dd 7bbc
00000080: f0a5 233c a24a 76bc 80cf 183c bc95 07bd
00000090: 0e50 bdbc 9c5a 1fbc dede f0bc e4b1 6b3c
000000a0: d846 8dbc ec2c b7bb 00b7 efbc 00af 5f3c
000000b0: 8267 9a3c e82d b73b 48ac e0bb f0e2 d73b
000000c0: fbb2 09bd 6805 9dbc 6acb 833c 8230 80bc
000000d0: c408 093c 807e f33a 589b dc3c 6ec5 803c
000000e0: 4621 873c a883 bfbc d805 bf3b d421 b83c
000000f0: 545d 083d 680d 7fbc 2057 61bb d471 303c

lin2.weight f4 [16, 64]
0.008715332 0.010677829 -0.101371795 0.08941084 -0.017807603 -0.048150703 -0.025365278 0.09460546
-0.010023519 0.03566231 0.041869074 -0.08609755 0.001123026 -0.00017377734 0.10090941 -0.0056099594
0.007863849 -0.045275256 -0.03552796 0.07325016 -0.047332793 0.11064948 0.04192829 0.08949058
0.07389803 0.019418389 0.07033083 0.11785661 0.09716655 0.013792247 -0.05483164 0.066379264
0.039957955 -0.021042854 -0.050899357 -0.10837935 0.026552856 -0.008268893 0.06332448 -0.04168643
0.0989079 -0.095789626 0.11340651 0.103600726 -0.12064019 0.10362288 0.061675385 0.05805689
-0.05795251 0.023336738 -0.0034010112 0.0008136034 0.00020730495 -0.065565884 -0.021881118 0.05778858
0.115143776 0.04099156 -0.05404313 0.027461246 -0.06474325 -0.08542554 0.07085091 0.1220063
-0.013339788 0.12143728 0.00557822 -0.0041950345 0.121523604 -0.086798966 -0.028736666 -0.0450273
0.11630267 -0.003669843 0.030944616 -0.040718332 0.02634406 -0.12154958 0.03102836 -0.019031614
-0.12370081 0.09160775 -0.12338452 -0.090891495 0.09396057 0.020916715 0.07697515 0.057918683
0.09373358 0.10594137 0.084843904 0.06528051 -0.05771348 0.123530924 -0.06642954 0.026278839
-0.095729426 -0.04371336 -0.07715291 0.114415914 0.0033424944 -0.04100126 0.106100604 -0.05842434
-0.02432765 -0.11230092 -0.0571329 0.042007044 0.019107759 0.009948254 0.08604114 -0.034258023
-0.002853468 -0.109693095 -0.09711172 0.058151603 -0.0044172257 -0.010138497 0.10268341 -0.04456328
0.059346482 0.06158392 0.06340183 0.037376404 0.016872033 0.06635605 0.106726065 -0.12499341
-0.06871486 0.035293713 0.08804418 -0.052926943 0.009118587 0.057036757 -0.04964818 -0.089860395
0.08068313 -0.0065024793 -0.049775437 0.068545476 -0.06440304 0.016483143 -0.054794505 0.06744985
-0.0311068 0.107870415 -0.10528013 -0.03609413 0.07504746 0.09259814 -0.016729966 0.027300969
-0.109978765 0.038021043 -0.009341538 0.057003513 0.05891481 -0.09399909 0.019736856 0.10499133
0.09526412 0.12447335 -0.034298226 -0.11893128 0.029700354 0.01849188 0.044798538 -0.12147549
-0.07559095 -0.111663505 0.009703442 -0.04566841 0.100706175 -0.10881823 0.037106857 0.10214205
-0.0637192 0.0049128532 -0.018787593 -0.08028123 0.05650945 0.015605286 0.073614046 0.10364659
0.06383644 -0.06598346 -0.05851361 -0.020572767 0.042494476 -0.08206065 0.05129707 0.05173935
-0.025994718 0.104102746 -0.09748277 0.055777192 0.08994728 0.05496703 -0.07694201 -0.12405081
0.12244822 -0.029084519 0.08040264 -0.04118173 -0.0075292885 -0.051469058 0.11912812 -0.03141266
0.09162223 0.088354856 -0.060919434 -0.02648668 -0.10873997 -0.11185779 0.07438788 0.102987304
-0.090066954 -0.06558032 -0.09452999 -0.060123637 0.022997484 -0.0055229515 -0.11732228 0.11134419
-0.116947845 0.0021202862 0.06893821 -0.11621165 -0.09455532 -0.002950713 -0.035828277 0.09188421
-0.047891065 0.073767036 0.10534331 0.028051957 -0.10692477 -0.10966037 -0.044478104 -0.10947314
-0.029494032 -0.042838484 -0.0636037 0.05747898 -0.04811956 -0.060582817 0.044153243 0.021093205
-0.007656321 -0.074552 0.07286236 -0.073048055 -0.05787599 0.09919724 -0.11255139 -0.078177825
00000000: c0ca 0e3c 10f2 2e3c 049c cfbd 081d b73d
00000010: 40e1 91bc ac39 45bd d8ca cfbc 82c0 c13d
00000020: b039 24bc a412 123d e87e 2b3d ea53 b0bd
00000030: 8032 933a 0038 36b9 98a9 ce3d c0d3 b7bb
00000040: 60d7 003c 8c72 39bd c485 11bd 2e04 963d
00000050: 08e0 41bd 329c e23d 00bd 2b3d d646 b73d
00000060: da57 973d 5013 9f3c 9c09 903d ce5e f13d
00000070: 42ff c63d e0f8 613c 2497 60bd daf1 873d
00000080: f4aa 233d 1062 acbc d87b 50bd fef5 ddbd
00000090: 6085 d93c 407a 07bc 44b0 813d 64bf 2abd
000000a0: 3a90 ca3d 5a2d c4bd ac41 e83d 9e2c d43d
000000b0: 3412 f7bd 3c38 d43d 549f 7c3d 10cd 6d3d
000000c0: 9c5f 6dbd b02c bf3c 80e3 5ebb 0048 553a
000000d0: 0060 5939 6847 86bd 0840 b3bc b8b3 6c3d
000000e0: 80d0 eb3d c4e6 273d 545c 5dbd 68f6 e03c
000000f0: 1c98 84bd 96f3 aebd 481a 913d 70de f93d
00000100: 208f 5abc 1cb4 f83d 80c9 b63b 8076 89bb
00000110: 5ee1 f83d a8c3 b1bd 2869 ebbc 8c6e 38bd
00000120: 1830 ee3d c081 70bb 907f fd3c 44c8 26bd
00000130: 80cf d73c fcee f8bd 302f fe3c 30e8 9bbc
00000140: da56 fdbd d89c bb3d 06b1 fcbd 5225 babd
00000150: 666e c03d 8859 ab3c 26a5 9d3d 243c 6d3d
00000160: 64f7 bf3d caf7 d83d a4c2 ad3d cab1 853d
00000170: f864 6cbd c8fd fc3d 360c 88bd b846 d73c
00000180: ca0d c4bd c80c 33bd 5802 9ebd e452 ea3d
00000190: c00d 5b3b f0f0 27bd 464b d93d 5c4e 6fbd
000001a0: c84a c7bc 06fe e5bd 3004 6abd 940f 2c3d
000001b0: e087 9c3c 00fe 223c 5636 b03d 2452 0cbd
000001c0: 4001 3bbb c6a6 e0bd 82e2 c6bd 6030 6e3d
000001d0: 60be 90bb f01b 26bc ae4b d23d fc87 36bd
000001e0: 4c15 733d 6c3f 7c3d d2d8 813d 0018 193d
000001f0: 3837 8a3c aee5 873d 3293 da3d 8cfc ffbd
00000200: 60ba 8cbd 2490 103d 8250 b43d ecc9 58bd
00000210: 2066 153c 609f 693d e45b 4bbd ba08 b8bd
00000220: 323d a53d c012 d5bb 54e1 4bbd 9261 8c3d
00000230: bee5 83bd a807 873c 3470 60bd 2623 8a3d
00000240: b0d3 febc 2aeb dc3d 1c9d d7bd 70d7 13bd
00000250: 7cb2 993d 18a4 bd3d 480d 89bc 48a6 df3c
00000260: 8c3c e1bd f4bb 1b3d 400d 19bc 847c 693d
00000270: a850 713d 9882 c0bd 30af a13c b205 d73d
00000280: d619 c33d e2eb fe3d 4c7c 0cbd 3e92 f3bd
00000290: 284e f33c 487c 973c ac7e 373d 24c8 f8bd
000002a0: 6ecf 9abd d6af e4bd 30fb 1e3c cc0e 3bbd
000002b0: 0a3f ce3d 18dc debd 5cfd 173d da2f d13d
000002c0: 367f 82bd 00fc a03b 70e8 99bc 7c6a a4bd
000002d0: 7476 673d 50ad 7f3c f6c2 963d aa44 d43d
000002e0: aebc 823d 5622 87bd f8ab 6fbd 3888 a8bc
000002f0: b00e 2e3d 6a0f a8bd e01c 523d a4ec 533d
00000300: e0f2 d4bc d233 d53d 0ca5 c7bd a076 643d
00000310: 4836 b83d 1c25 613d c693 9dbd 5a0e febd
00000320: 22c6 fa3d a842 eebc 24aa a43d 2cae 28bd
00000330: 40b8 f6bb 38d1 52bd 72f9 f33d 90aa 00bd
00000340: 70a4 bb3d 64f3 b43d a886 79bd 98fa d8bc
00000350: 10b3 debd b215 e5bd ac58 983d 02eb d23d
00000360: 0675 b8bd fa4e 86bd f098 c1bd 3444 76bd
00000370: 3865 bc3c e0f9 b4bb aa46 f0bd 6c08 e43d
00000380: 5a82 efbd 80f4 0a3b 7a2f 8d3d 6000 eebd
00000390: 38a6 c1bd c060 41bb acc0 12bd ca2d bc3d
000003a0: 6c29 44bd 2c13 973d 3cbe d73d 38cd e53c
000003b0: 60fb dabd 9e95 e0bd ac2e 36bd 7433 e0bd
000003c0: 789d f1bc 6877 2fbd a842 82bd 146f 6b3d
000003d0: 0419 45bd b025 78bd 08da 343d a8cb ac3c
000003e0: e0e1 fabb b8ae 98bd dc38 953d 389a 95bd
000003f0: 600f 6dbd ec27 cb3d 5881 e6bd b21b a0bd

lin2.bias f4 [16]
-0.09206681 -0.010243669 -0.11702339 0.10526496 0.063104674 0.05907862 0.07967271 -0.04919356
-0.046059415 -0.07599567 0.0154167265 0.08501008 0.07508941 -0.070830196 0.05275169 0.05193934
00000000: 868d bcbd 10d5 27bc f6a9 efbd 2895 d73d
00000010: 063d 813d 6cfc 713d 722b a33d 307f 49bd
00000020: cca8 3cbd 9ea3 9bbd 7096 7c3c c419 ae3d
00000030: 7ac8 993d 6c0f 91bd 2812 583d 58be 543d

lin3.weight f4 [3, 16]
-0.11164212 -0.14219522 0.014214516 -0.23424911 0.22371432 -0.11535105 -0.12480673 0.010684609
0.23399296 -0.16566202 -0.0730834 -0.1298309 -0.13728043 0.22829497 -0.13733631 -0.22874275
0.018493503 -0.039701045 -0.13661778 0.01745084 -0.21999395 0.17350593 0.19941995 0.21621647
-0.24123365 -0.16538495 -0.21887332 0.023653895 0.17499533 -0.15946561 -0.12542436 -0.11399382
0.0033182204 -0.052335083 0.069218725 0.07356319 -0.23188627 0.14140773 -0.12444371 -0.009128183
0.20630679 -0.24755278 0.023171693 -0.06649873 -0.13802704 0.05233422 -0.015628427 0.24271774
00000000: a0a4 e4bd a09b 11be 00e4 683c 00df 6fbe
00000010: 5e15 653e 2c3d ecbd ac9a ffbd 800e 2f3c
00000020: da9b 6f3e 4ea3 29be c0ac 95bd 64f2 04be
00000030: 3e93 0cbe 28c6 693e e4a1 0cbe 8a3b 6abe
00000040: b07f 973c 909d 22bd 88e5 0bbe 10f5 8e3c
00000050: 1846 61be 8aab 313e be34 4c3e da67 5d3e
00000060: f405 77be ac5a 29be 5420 60be d0c5 c13c
00000070: fa31 333e f44a 23be 3e6f 00be 9875 e9bd
00000080: 8076 593b 505d 56bd 8cc2 8d3d 4ca8 963d
00000090: 9873 6dbe 30cd 103e 58dc febd 608e 15bc
000000a0: 1642 533e 7a7e 7dbe 90d2 bd3c 7c30 88bd
000000b0: f656 0dbe 685c 563d 3007 80bc 008b 783e

lin3.bias f4 [3]
-0.24368364 0.089527845 0.15123323
00000000: 3488 79be 605a b73d e2dc 1a3e
