dagger_models/model_3.pth (torch, 231749 bytes, 24 tensors)

conv1.weight f4 [4, 1, 5, 5]
0.17730659 0.026404906 0.13178018 -0.15127116 -0.019303448 -0.10762819 0.0135846855 -0.080389276
0.16179988 -0.19911334 0.109428935 0.06569966 0.070512734 0.14555003 -0.20050943 -0.024959354
-0.04664208 -0.007853833 0.17068271 -0.16052802 0.12108929 -0.16005285 -0.15980083 -0.16975288
-0.10649307 0.00061402423 0.15433659 -0.035920758 0.16465987 0.11959637 0.0678999 0.053437456
0.19152471 -0.015039628 0.1448883 -0.021541279 -0.0962906 -0.14642294 -0.051282633 0.020230204
-0.06388491 -0.043438964 0.15972234 0.13054761 -0.030668775 -0.17518166 0.021563038 -0.11305029
0.10810654 0.03258016 0.068424255 0.05932909 -0.07295401 0.12415381 -0.1944394 0.042756062
-0.08692928 0.17306201 -0.080867164 -0.08208228 -0.061508317 -0.19273156 -0.041772354 -0.06083399
-0.06869771 -0.062388327 -0.08534339 0.10745359 0.12945528 0.08883408 0.08181374 -0.18848647
0.11454109 -0.11696152 0.18325868 -0.19195418 0.023436699 0.04605373 0.13999607 -0.13073985
-0.11362059 0.031821616 0.031810123 0.0033695193 -0.10373236 -0.052204255 -0.09184613 -0.13208508
-0.14963315 0.055548877 0.16554227 -0.1594254 -0.03738352 -0.06386492 0.055069495 -0.16861509
0.026841095 0.12020882 -0.01874837 -0.09746627
00000000: dc8f 353e 1a4f d83c 62f1 063e d4e6 1abe
00000010: 4422 9ebc 2b6c dcbd 4d92 5e3c 22a3 a4bd
00000020: deae 253e 5ee4 4bbe 471c e03d 8b8d 863d
00000030: fb68 903d 110b 153e 5852 4dbe 8f77 ccbc
00000040: c40b 3fbd 5dad 00bc 73c7 2e3e 7561 24be
00000050: a9fd f73d e5e4 23be d4a2 23be b3d3 2dbe
00000060: 0a19 dabd 78f6 203a 690a 1e3e a521 13bd
00000070: 999c 283e f1ee f43d 1a0f 8b3d 3ce1 5a3d
00000080: 0e1f 443e c668 76bc 995d 143e 5677 b0bc
00000090: 0234 c5bd e5ef 15be bd0d 52bd d0b9 a53c
000000a0: 17d6 82bd 0eed 31bd 418e 233e 46ae 053e
000000b0: 153d fbbc d262 33be f8a4 b03c e986 e7bd
000000c0: f666 dd3d c672 053d 0422 8c3d 0f03 733d
000000d0: e968 95bd 5a44 fe3d 1f1b 47be fb20 2f3d
000000e0: fa07 b2bd 2b37 313e af9d a5bd c11a a8bd
000000f0: 25f0 7bbd 6c5b 45be 7d19 2bbd 102d 79bd
00000100: 63b1 8cbd e78a 7fbd 84c8 aebd a110 dc3d
00000110: ed8f 043e a4ee b53d f68d a73d 9902 41be
00000120: 8594 ea3d 8589 efbd 2aa8 3b3e a38f 44be
00000130: 52fe bf3c d6a2 3c3d 215b 0f3e abe0 05be
00000140: e9b1 e8bd 6257 023d 554b 023d 27d3 5c3b
00000150: a271 d4bd 21d4 55bd d319 bcbd 5041 07be
00000160: 6f39 19be 3887 633d ea83 293e 6940 23be
00000170: 761f 19bd 9ccb 82bd 8d90 613d 6fa9 2cbe
00000180: dbe1 db3c 0b30 f63d 2f96 99bc 659c c7bd

conv1.bias f4 [4]
-0.17936857 -0.19094582 -0.01942602 0.13388796
00000000: 65ac 37be 4d87 43be 5123 9fbc ed19 093e

norm1.weight f4 [4]
0.9992771 1.0000532 0.99996555 1.0006868
00000000: a0d0 7f3f be01 803f befd 7f3f 8116 803f

norm1.bias f4 [4]
0.00032526962 0.00041451573 -0.00014360937 0.0004552761
00000000: f388 aa39 5c53 d939 d995 16b9 20b2 ee39

norm1.running_mean f4 [4]
-63.941757 91.63705 -35.537754 -129.05927
00000000: 5cc4 7fc2 2b46 b742 a926 0ec2 2c0f 01c3

norm1.running_var f4 [4]
248.06274 414.516 69.814514 691.1452
00000000: 1010 7843 0c42 cf43 08a1 8b42 4bc9 2c44

conv2.weight f4 [8, 4, 5, 5]
-0.054355115 -0.020478481 -0.032230314 0.020103358 0.024285194 0.043073475 0.026232 -0.04693772
-0.0018708068 -0.01700715 0.050675824 -0.07995592 -0.040240776 0.014442976 0.0825384 0.03236383
0.072350524 -0.074177 -0.045853667 0.06383294 -0.0028087194 0.07506152 -0.008966597 -0.07574556
0.07611912 0.017646672 -0.09281135 -0.071527496 0.07690931 -0.061360106 0.047652677 0.05953732
0.08499021 0.056960836 0.056990378 -0.014148385 0.08628798 0.090779215 0.010339557 0.06892979
0.032956593 -0.03741154 0.06288192 -0.007874329 0.006408364 -0.080804475 0.0057565495 0.08857064
0.040560063 0.07856489 -0.095125616 0.0054877703 -0.006506039 -0.07713867 0.003761027 0.06917097
-0.021247003 0.04003148 -0.06525947 0.074504174 0.069395095 0.018357167 0.043799862 -0.01885406
0.06990759 -0.03923694 -0.06701596 0.065559 -0.004671232 -0.0031932367 0.052936226 -0.0134730805
0.048500974 0.0484396 -0.03011078 0.07786594 0.098254755 -0.0721546 -0.087470576 -0.04529733
0.08625122 -0.037429553 -0.0042185923 -0.0066437135 0.051522642 -0.03849741 -0.08974175 -0.086948864
-0.015170916 -0.028899325 -0.030530162 -0.09422129 0.078826606 0.06024931 -0.0009880038 0.001420151
0.0456019 0.05475047 0.04618946 0.0073758466 -0.00010350127 -0.060661957 -0.03820202 -0.035689995
0.013002617 -0.050927915 0.01558109 -0.03681932 -0.07119662 0.08923478 0.029391274 0.019702926
-0.07440997 -0.04857772 0.012506235 -0.09834646 0.040921908 -0.048434537 -0.06516911 -0.02806887
0.026394082 0.057925858 0.05655752 0.021261238 0.035055175 -0.078891575 0.060589477 -0.045824457
0.038489684 -0.028873675 0.09397026 0.078156814 -0.024690257 -0.05427754 -0.03226479 0.013225338
0.024378194 0.0232029 -0.020000486 -0.08020449 0.0993572 0.00883113 -0.029730769 0.053544324
-0.028683629 0.071960635 -0.023723241 0.005190617 0.05482162 -0.09599764 -0.0606484 -0.012917752
0.044710804 -0.05999907 0.06812411 0.027441828 -0.09703907 0.025447361 0.043354947 0.08959093
-0.043248728 -0.06523129 -0.035507783 0.002170743 -0.057251062 0.0782505 0.07679575 0.044372812
0.017057564 0.10024154 0.063434325 0.072358064 -0.04375766 -0.09036732 0.04498546 0.017872155
0.028822264 0.0575605 -0.03677873 0.064362615 -0.020931676 0.023482602 -0.028951412 0.03431163
0.090599544 -0.03817897 0.0060871015 0.08622537 -0.06679738 0.04759128 -0.0072726677 0.09302586
-0.029986506 0.01754847 0.07968874 0.09193494 0.023577549 0.05187659 0.044221558 -0.00433045
0.03457545 -0.09486179 0.026276505 0.048986465 0.022681728 -0.017489308 -0.038795225 0.09539695
-0.040354356 -0.04218436 -0.08016203 -0.08897481 -0.004786266 0.060922246 -0.07686759 -0.09376812
-0.07996637 0.029057465 0.0303593 0.035316765 0.07988187 -0.09649627 0.0692352 0.04877062
0.093062945 0.0020362516 0.037924863 0.02741374 -0.061451025 -0.011854586 0.075100064 -0.08620007
0.009746069 -0.006340623 -0.05440988 0.011596315 -0.08081282 -0.044982016 0.07891564 -0.069692016
0.067468084 0.02991292 -0.08593925 -0.017849203 0.07226766 -0.03441821 0.059648063 0.047864713
-0.050008938 -0.08686796 -0.090710334 -0.051180523 0.0062699523 -0.016562965 0.008423636 0.015928084
00000000: 78a3 5ebd 7dc2 a7bc ef03 04bd ccaf a43c
00000010: bef1 c63c d06d 303d 7ee4 d63c c441 40bd
00000020: dc35 f5ba 9452 8bbc 7491 4f3d eebf a3bd
00000030: 83d3 24bd 3ba2 6c3c e509 a93d ef8f 043d
00000040: 832c 943d 1cea 97bd 0ed1 3bbd d8ba 823d
00000050: 7e12 38bb dbb9 993d a2e8 12bc 7d20 9bbd
00000060: 57e4 9b3d c18f 903c e113 bebd 027d 92bd
00000070: a182 9d3d bc54 7bbd 742f 433d 68dd 733d
00000080: 590f ae3d c44f 693d be6e 693d a1ce 67bc
00000090: c1b7 b03d 74ea b93d 3f67 293c 102b 8d3d
000000a0: 7efd 063d d83c 19bd 3cc8 803d 5403 01bc
000000b0: 41fd d13b d17c a5bd 70a1 bc3b 8664 b53d
000000c0: 4f22 263d a1e6 a03d 38d1 c2bd c1d2 b33b
000000d0: 9c30 d5bb e1fa 9dbd 907b 763b 82a9 8d3d
000000e0: 320e aebc 0df8 233d c2a6 85bd a595 983d
000000f0: 041f 8e3d c561 963c 7c67 333d d473 9abc
00000100: b62b 8f3d eab6 20bd aa3f 89bd cc43 863d
00000110: 2211 99bb 9f45 51bb a8d3 583d 32be 5cbc
00000120: f5a8 463d 9a68 463d e2aa f6bc 2e78 9f3d
00000130: ca39 c93d cac5 93bd c623 b3bd b189 39bd
00000140: 7ba4 b03d bb4f 19bd 1e3c 8abb 82b3 d9bb
00000150: 6809 533d 76af 1dbd 86ca b7bd 3f12 b2bd
00000160: 6f8f 78bc 47be ecbc 641a fabc 17f7 c0bd
00000170: d86f a13d fbc7 763d e87f 81ba 5c24 ba3a
00000180: 0fc9 3a3d 0742 603d 2931 3d3d 16b1 f13b
00000190: d20e d9b8 ac78 78bd b979 1cbd ac2f 12bd
000001a0: ee08 553c ca99 50bd d447 7f3c dbcf 16bd
000001b0: 89cf 91bd b9c0 b63d f8c5 f03c 0868 a13c
000001c0: 4164 98bd 6ef9 46bd f4e6 4c3c de69 c9bd
000001d0: bb9d 273d 4b63 46bd 6277 85bd b0f0 e5bc
000001e0: 6738 d83c aa43 6d3d dca8 673d 0c2c ae3c
000001f0: 0496 0f3d e891 a1bd ac2c 783d 6db2 3bbd
00000200: 5ca7 1d3d 7c88 ecbc 7b73 c03d ae10 a03d
00000210: 3943 cabc 2052 5ebd 1628 04bd 17af 583c
00000220: c7b4 c73c 0214 be3c 0fd8 a3bc 4042 a4bd
00000230: ca7b cb3d 72b0 103c f18d f3bc 4b51 5b3d
00000240: eef9 eabc 1960 933d 3e57 c2bc 0d16 aa3b
00000250: a38c 603d 699a c4bd 756a 78bd fba4 53bc
00000260: ad22 373d 96c1 75bd a784 8b3d afcd e03c
00000270: 6cbc c6bd fc76 d03c f594 313d 737b b73d
00000280: 9425 31bd fc97 85bd 9c70 11bd 0643 0e3b
00000290: 1780 6abd cc41 a03d 1747 9d3d 44c0 353d
000002a0: 4ebc 8b3c 704b cd3d dbe9 813d 7730 943d
000002b0: 3b3b 33bd 8012 b9bd ac42 383d a068 923c
000002c0: ab1c ec3c 8fc4 6b3d 4ba5 16bd 8cd0 833d
000002d0: e878 abbc 965e c03c 832b edbc 5a8a 0c3d
000002e0: 418c b93d 8d61 1cbd 4f76 c73b ed96 b03d
000002f0: 11cd 88bd 13ef 423d 8f4f eebb 5884 be3d
00000300: 43a6 f5bc cfc1 8f3c da33 a33d 6348 bc3d
00000310: b425 c13c 8c7c 543d aa21 353d 73e6 8dbb
00000320: fd9e 0d3d e646 c2bd d341 d73c 08a6 483d
00000330: 08cf b93c bd45 8fbc bee7 1ebd 7a5f c33d
00000340: 9c4a 25bd 82c9 2cbd fe2b a4bd 6d38 b6bd
00000350: 1cd6 9cbb 9b89 793d c16c 9dbd 8009 c0bd
00000360: 68c5 a3bd ec09 ee3c 11b4 f83c 50a8 103d
00000370: 1b99 a33d d69f c5bd 2fcb 8d3d b4c3 473d
00000380: c997 be3d a272 053b 1a57 1b3d c892 e03c
00000390: 12b4 7bbd bd39 42bc 10ce 993d aa89 b0bd
000003a0: faad 1f3c 00c5 cfbb e5dc 5ebd 78fe 3d3c
000003b0: 3181 a5bd 103f 38bd 869e a13d b0ba 8ebd
000003c0: b52c 8a3d f10b f53c eb00 b0bd 7e38 92bc
000003d0: 1101 943d 1cfa 0cbd 8751 743d ca0d 443d
000003e0: 2cd6 4cbd d4e7 b1bd 57c6 b9bd aba2 51bd
000003f0: 2c74 cd3b 0eaf 87bc 4a03 0a3c 9d7b 823c

conv2.bias f4 [8]
-0.066239044 0.0061067054 -0.09086031 -0.0196403 0.06742602 0.05244541 0.085703425 0.0955162
00000000: 56a8 87bd c21a c83b f814 babd b2e4 a0bc
00000010: a716 8a3d 00d1 563d 4785 af3d ff9d c33d

norm2.weight f4 [8]
1.0004598 1.0007923 1.0001001 1.0012429 0.99924 1.0009073 0.99843514 0.9987828
00000000: 110f 803f f619 803f 4803 803f ba28 803f
00000010: 31ce 7f3f bb1d 803f 7299 7f3f 3bb0 7f3f

norm2.bias f4 [8]
7.196386e-05 0.00053600984 -4.6654455e-05 0.00078737875 -0.00051639683 0.00055864104 -0.00064217503 -0.00071435084
00000000: 4eeb 9638 0383 0c3a d7ae 43b8 1868 4e3a
00000010: ce5e 07ba c471 123a a357 28ba 4643 3bba

norm2.running_mean f4 [8]
0.3133233 0.3463386 -0.51254535 0.42236963 0.36531168 0.05069779 0.3376416 0.21859482
00000000: e96b a03e 4b53 b13e 2c36 03bf d540 d83e
00000010: 220a bb3e 7ca8 4f3d 5cdf ac3e 52d7 5f3e

norm2.running_var f4 [8]
0.07334645 0.1940082 0.4313489 0.49203646 0.1057938 0.074840575 0.08950205 0.24583894
00000000: aa36 963d 16aa 463e c3d9 dc3e 34ec fb3e
00000010: 6baa d83d 0446 993d da4c b73d 34bd 7b3e

conv3.weight f4 [16, 8, 6, 6]
-0.011995371 0.0063182074 0.008688435 -0.008958051 -0.043982454 -0.04301739 -0.040508226 -0.05237242
-0.05087069 -0.016195321 -0.041139618 0.058351148 0.031093197 0.0283738 -0.038745314 0.048141483
0.022507284 0.03675898 0.055880696 -0.02563315 0.011679691 -0.04502701 -0.022099016 -0.025653614
0.027622636 0.01999077 0.0031302609 -0.0563758 0.02706855 0.047399383 -0.04815371 -0.028774286
-0.030482894 0.022327792 0.0103452485 0.046261698 -0.004981977 0.050210327 0.057698153 0.008055345
0.0060000513 0.027966553 0.021726903 0.0210413 -0.018147582 0.030054102 0.03181557 0.04956367
0.04683274 0.056656886 0.008970566 -0.056389313 0.0024710367 0.046708107 -0.030534776 0.0026873113
0.0019990252 -0.035335217 -0.026158962 0.019990679 -0.005309627 0.040825073 0.032200538 -0.023508964
0.024463521 -0.003998329 -0.007201185 -0.045425393 0.037661213 -0.055677895 0.028249772 -0.033573303
0.009465924 0.020207498 -0.027016424 -0.017194161 0.047889452 -0.0076184394 -0.013083799 -0.05497461
-0.03647388 0.012036313 0.040584724 -0.047022726 0.025716245 -0.022830866 -0.015826914 0.036207113
-0.03941813 0.019384697 -0.046406746 0.014042568 0.053133085 -0.048006732 -0.052924946 -0.030258073
0.05605635 -0.023030417 -0.046433363 -0.000717543 0.041700687 0.04382724 -0.041793346 0.0135540655
0.057786778 0.03531087 0.019090634 0.038289715 0.05453732 0.038867686 0.012286011 0.025413612
0.010619994 0.017207587 0.03560768 -0.0043127327 0.04630647 0.03384653 -0.018351518 0.04971692
-0.014905579 0.043544993 0.03548067 0.030935796 0.039315462 -0.011122994 -0.015666813 -0.0041101975
0.02039323 -0.055378567 0.01888109 -0.0111238845 0.02880584 0.041010015 -0.031215554 0.0002532853
-0.008357751 -0.052318152 -0.050782233 -0.048826627 0.033973128 -0.0100406045 0.0050024595 0.035293076
-0.006719918 0.0022423565 -0.025140371 0.05909385 -0.053099893 -0.0026172816 -0.0103845075 -0.0013801582
-0.022951297 0.020023588 0.0034505108 0.045931 0.05761335 -0.055294573 0.0489316 -0.05163726
-0.03424055 0.018170338 0.051186472 -0.051003747 0.028559254 -0.008397086 0.017519848 -0.019677453
-0.04120027 -0.02935315 0.004198937 0.030026382 -0.044040613 -0.0055577587 -0.043591682 -0.04797808
-0.026349356 -0.04618803 0.059602574 0.05838304 -0.040942382 0.030560087 -0.029648455 0.02932599
-0.03809859 -0.016816191 -0.0502062 -0.040305343 0.045836262 -0.03955234 -0.03945852 -0.044057127
-0.024090568 -0.027403299 0.037220858 -0.02272241 -0.02676348 0.04908705 -0.043553375 -0.013651789
-0.0037752353 -0.046945017 -0.043766603 -0.05024024 0.008684594 0.02091583 0.001181948 -0.011325219
0.040739816 0.050013807 0.013785873 0.036388543 -0.025006695 0.016756682 -0.009138205 0.04225753
-0.02570908 -0.010947407 -0.035055995 -0.020767767 0.026376968 -0.044419803 -0.016984506 -0.037585553
0.027256684 -0.046570078 0.0018216682 -0.038029566 0.056381095 0.027405517 -0.053767804 -0.035249453
-0.010070745 -2.7490112e-05 0.047733624 0.055224452 -0.0025508015 -0.014185817 0.041289605 -0.033348877
-0.0026956503 -0.054474983 0.025403438 -0.010139715 0.052869584 0.0291113 -0.031362046 0.007388522
-0.020654455 -0.05028224 -0.007338265 -0.023240063 -0.041961562 0.021558484 -0.05512429 0.018539827
00000000: 3c88 44bc f708 cf3b f059 0e3c cac4 12bc
00000010: f226 34bd 0133 30bd f4eb 25bd 7684 56bd
00000020: c95d 50bd 0dac 84bc 0482 28bd 9d01 6f3d
00000030: 29b7 fe3c 2c70 e83c 68b3 1ebd 0130 453d
00000040: 3261 b83c 9690 163d 28e3 643d 9dfc d1bc
00000050: 2d5c 3f3c 3e6e 38bd ff08 b5bc 8727 d2bc
00000060: de48 e23c afc3 a33c 1025 4d3b 50ea 66bd
00000070: ddbe dd3c db25 423d d33c 45bd 0db8 ebbc
00000080: 43b7 f9bc c6e8 b63c 1e7f 293c e87c 3d3d
00000090: da3f a3bb 58a9 4d3d e654 6c3d 91fa 033c
000000a0: 149c c43b 1d1a e53c 9efc b13c ce5e ac3c
000000b0: 3daa 94bc 0534 f63c 0b51 023d 4603 4b3d
000000c0: b0d3 3f3d 0d11 683d 48f9 123c 7bf8 66bd
000000d0: 1ef1 213b 0051 3f3d 1124 fabc 9a1d 303b
000000e0: 1402 033b a9bb 10bd 524b d6bc 7ec3 a33c
000000f0: 61fc adbb 3138 273d b6e4 033d df95 c0bc
00000100: b967 c83c 6a04 83bb ebf7 ebbb fa0f 3abd
00000110: a542 1a3d 810e 64bd 116c e73c 2984 09bd
00000120: f716 1b3c 328a a53c 8c51 ddbc c5da 8cbc
00000130: bb27 443d 1aa4 f9bb 6e5d 56bc 0f2d 61bd
00000140: a365 15bd f533 453c 2b3c 263d e79a 40bd
00000150: e0aa d23c cc07 bbbc 72a7 81bc e94d 143d
00000160: e874 21bd a8cc 9e3c 0015 3ebd cd12 663c
00000170: 14a2 593d b5a2 44bd d4c7 58bd c7df f7bc
00000180: 589b 653d 49aa bcbc e930 3ebd 7f19 3cba
00000190: 57ce 2a3d 3184 333d 802f 2bbd df11 5e3c
000001a0: d4b1 6c3d 21a2 103d f663 9c3c add5 1c3d
000001b0: 8662 5f3d b933 1f3d 444b 493c 3530 d03c
000001c0: 7cff 2d3c edf6 8c3c 5cd9 113d d351 8dbb
000001d0: daab 3d3d a9a2 0a3d ec55 96bc f8a3 4b3d
000001e0: 8836 74bc 3c5c 323d 2e54 113d 116d fd3c
000001f0: 4009 213d 383d 36bc b057 80bc d6ae 86bb
00000200: b40f a73c a3d4 62bd 84ac 9a3c f440 36bc
00000210: 3afa eb3c 1efa 273d c3b7 ffbc 61cb 8439
00000220: f3ee 08bc 8f4b 56bd 0801 50bd 6efe 47bd
00000230: 6827 0b3d 5981 24bc aceb a33b 798f 103d
00000240: c232 dcbb 80f4 123b 2ef3 cdbc 650c 723d
00000250: 467f 59bd b386 2bbb c823 2abc 6de6 b4ba
00000260: 5c04 bcbc 8208 a43c f721 623b 2522 3c3d
00000270: fafb 6b3d 907c 62bd 806c 483d 9781 53bd
00000280: d23f 0cbd f6d9 943c e8a8 513d 4ee9 50bd
00000290: 19f5 e93c ee93 09bc c985 8f3c 9c32 a1bc
000002a0: 9dc1 28bd 0476 f0bc 3d97 893b e3f9 f53c
000002b0: ee63 34bd dc1d b6bb 318d 32bd aa84 44bd
000002c0: 9bda d7bc a92f 3dbd d421 743d 0e23 6f3d
000002d0: 33b3 27bd 2659 fa3c 51e1 f2bc 0f3d f03c
000002e0: 440d 1cbd 1cc2 89bc 04a5 4dbd 3717 25bd
000002f0: cebe 3b3d a201 22bd 429f 21bd 3f75 34bd
00000300: 9559 c5bc e27c e0bc e674 183d 5924 babc
00000310: 163f dbbc 810f 493d 0665 32bd c1ab 5fbc
00000320: f069 77bb 6b49 40bd 9c44 33bd b6c8 4dbd
00000330: d449 0e3c ad57 ab3c 98eb 9a3a 698d 39bc
00000340: cbde 263d 47db 4c3d 24de 613c 270c 153d
00000350: d7da ccbc 4f45 893c 69b8 15bc 3b16 2d3d
00000360: d99b d2bc c15c 33bc e096 0fbd 2a21 aabc
00000370: 8314 d83c 8af1 35bd 1723 8bbc 4ff3 19bd
00000380: 6949 df3c 44c0 3ebd 0bc5 ee3a e4c4 1bbd
00000390: ddef 663d 8981 e03c a13b 5cbd bb61 10bd
000003a0: c4ff 24bc 919a e6b7 5584 433d 0933 623d
000003b0: 592b 27bb a16b 68bc 4a1f 293d d598 08bd
000003c0: 82a9 30bb 2921 5fbd df1a d03c 0c21 26bc
000003d0: c78d 583d d27a ee3c 7d75 00bd 6a1b f23b
000003e0: 8833 a9bc c0f4 4dbd d475 f0bb f261 bebc
000003f0: e3df 2bbd 6b9b b03c 02ca 61bd d6e0 973c

conv3.bias f4 [16]
0.05238377 0.015148211 0.027300302 -0.05195444 -0.0319548 0.030696671 -0.026869066 -0.0024756156
-0.04225236 -0.04811917 0.054085884 -0.04914676 -0.056447253 -0.016991656 -0.029826468 0.020319443
00000000: 5d90 563d 3430 783c e2a4 df3c 2ece 54bd
00000010: 09e3 02bd 9677 fb3c 841c dcbc f03d 22bb
00000020: d010 2dbd 9b18 45bd 2989 5d3d 1d4e 49bd
00000030: 3c35 67bd 1632 8bbc a356 f4bc f674 a63c

norm3.weight f4 [16]
1.0007434 1.0011483 1.001702 1.0010815 1.002161 1.0020921 0.99981964 1.0001795
0.9997482 1.0014987 1.000978 1.0008302 1.0021762 1.000721 0.99926025 1.0006201
00000000: 5c18 803f a125 803f c537 803f 7023 803f
00000010: d046 803f 8e44 803f 2ef4 7f3f e205 803f
00000020: 7fef 7f3f 1c31 803f 0c20 803f 341b 803f
00000030: 4f47 803f a017 803f 85cf 7f3f 5214 803f

norm3.bias f4 [16]
0.00036832 0.0008586543 0.001426725 0.00066730526 0.0032589133 0.0013482049 -0.00020082499 0.0002695722
4.1709063e-05 0.0020030548 0.0008216219 0.00034660514 0.0014449287 0.0006620051 5.8002326e-05 0.0005420268
00000000: 131b c139 5117 613a f200 bb3a 19ee 2e3a
00000010: 7e93 553b 40b6 b03a 8c94 52b9 5e55 8d39
00000020: c4f0 2e38 af45 033b 1d62 573a 8eb8 b539
00000030: c363 bd3a 698a 2d3a 8647 7338 ce16 0e3a

norm3.running_mean f4 [16]
0.08617196 -0.04637982 -0.03981218 0.048286375 -0.22173643 0.07272623 0.19418757 0.16479023
-0.40794563 -0.4158998 0.3119427 -0.1417751 0.64298147 -0.011157131 0.14820239 -0.17933837
00000000: ed7a b03d c4f8 3dbd 1912 23bd efc7 453d
00000010: e00e 63be 7df1 943d 1bd9 463e c5be 283e
00000020: 40de d0be d2f0 d4be f4b6 9f3e 7e2d 11be
00000030: 6f9a 243f 66cc 36bc 5ec2 173e 7aa4 37be

norm3.running_var f4 [16]
0.19126895 0.41945994 0.22720145 0.2074463 0.174429 0.11178808 0.15126558 0.11261006
0.18144864 0.17171828 0.20893186 0.12390611 0.420354 0.22838598 0.224619 0.21996492
00000000: 02dc 433e 74c3 d63e 7fa7 683e ce6c 543e
00000010: 849d 323e 26f1 e43d 5de5 1a3e 1aa0 e63d
00000020: accd 393e ebd6 2f3e 3cf2 553e 7dc2 fd3d
00000030: a438 d73e 04de 693e 8602 663e 7c3e 613e

lin1.weight f4 [64, 768]
0.020903848 0.030537035 0.021078855 -0.03134144 0.018541116 -0.021990428 -0.022771303 0.017708693
-0.019314794 -0.027342463 0.032476097 -0.008398609 -0.023905667 -0.02497025 -0.0045476304 -0.025848495
-0.011330142 0.016354065 -0.009425007 0.004211683 0.010122251 0.00701361 0.011483356 0.0011932165
0.010439742 0.02254166 0.026560983 0.018688513 -0.0066526076 -0.00082717586 0.012604373 -0.0047172736
-0.030364683 0.024466198 0.024492014 0.0021810287 -0.016919686 0.0061234063 -0.03458381 -0.016570069
0.0045785713 0.022496775 0.025452344 -0.025386712 -0.008413646 0.0072023086 -0.023109378 -0.017541064
-0.02849334 0.03143423 0.00023597137 0.002578112 0.034637958 0.018347941 0.033994064 -0.022499692
0.01902068 0.008270537 0.029504763 -0.027578052 0.015604763 0.03591689 0.011827595 0.011592606
-0.017174372 -0.027204433 0.007021244 -0.007517943 -0.014359235 0.018660367 -0.0005755632 0.017785175
0.0014057333 -0.028049773 -0.017836519 -0.002270698 0.008929586 0.004882641 0.016073216 0.021398377
0.017334735 0.019731918 0.012228226 -0.027310783 -0.0074484595 0.031145193 0.009717275 0.026118517
0.00441653 0.0035382288 0.016308252 0.012192766 0.02844266 0.0071977447 -0.022087287 -0.007302824
0.0331822 0.0030633197 -0.007818449 0.0012163701 0.008044472 -0.019610243 0.008990075 -0.010960981
-0.00013331212 0.0015726412 -0.009634851 0.0114944875 -0.018058045 -0.014619279 -0.016002418 -0.0045804423
-0.02223328 -0.010578496 -0.01376268 0.005862731 -0.018168423 0.000563394 -0.028151046 -0.0060107936
-0.004372103 -0.011079691 -0.015513186 -0.0228917 0.00475912 -0.028009389 -0.025234485 0.017907692
-0.026912827 -0.01839825 0.0008930509 -0.033692185 -0.008252292 0.005782973 -0.023902433 -0.018028509
-0.016408192 0.00011714354 -0.0053985766 -0.020425854 0.010773853 0.025467483 0.026040351 -0.017038781
-0.032485843 0.014524693 -0.022620326 0.017856397 0.024349963 -0.031941134 0.0053594057 -0.028666127
-0.027657283 -0.015492812 -0.010431307 -0.0013068705 -0.021608025 -0.023102151 -0.010812745 -0.0037396816
-0.015750052 -0.034368914 0.006734836 0.009230991 -0.03154541 0.022501051 -0.002130001 0.032252364
0.0075652455 0.032362107 0.011095127 -0.031929247 -0.023880223 0.0037020468 -0.0038737785 0.021807482
-0.016290259 0.011468555 -0.020457229 -0.014556823 -0.0075796195 -0.0018925066 0.029357681 -0.018369762
0.01027883 -0.028910082 0.016145512 -0.021209048 0.024184166 -0.013285139 0.024081865 0.020908171
0.018901147 -0.008585364 0.014105532 -0.0036358377 0.03679038 -0.03456928 0.016895805 0.02455022
0.002742371 0.032923665 0.028028032 0.036406998 0.028901763 0.023738429 0.034112297 -0.032972604
-0.013428862 0.015667612 0.0010983191 0.02613178 0.007160403 0.025916683 0.006490421 0.007277706
0.006820175 0.0015982515 -0.02818157 -0.02673003 0.009503748 0.022137668 -7.7227574e-05 0.035701632
-0.027201453 -0.02769277 -0.00907226 0.014151499 0.03662078 -0.032734044 0.012075999 -0.013354645
-0.013967266 -0.0039210455 -0.008880568 -0.028511265 -0.013074699 0.01090906 0.03493862 0.027813604
-0.01649293 -0.024084324 0.012036366 0.026581366 -0.0025190313 0.025352065 -0.019379394 0.021297842
0.026050499 -0.03159261 0.02918031 -0.034394827 -0.011401092 -0.028068896 -0.008115117 0.01688649
00000000: 8c3e ab3c ce28 fa3c 90ad ac3c e25f 00bd
00000010: 8ae3 973c 4525 b4bc e28a babc d211 913c
00000020: 0f3a 9ebc 4dfd dfbc a805 053d 529a 09bc
00000030: d1d5 c3bc 698e ccbc 4a04 95bb 39c0 d3bc
00000040: 0fa2 39bc f6f8 853c 586b 1abc 2802 8a3b
00000050: ccd7 253c 6dd2 e53b b024 3c3c b465 9c3a
00000060: 740b 2b3c 4aa9 b83c 6b96 d93c a718 993c
00000070: 1efe d9bb d5d6 58ba 9282 4e3c 5c93 9abb
00000080: 5bbf f8bc 566d c83c 7aa3 c83c 97ef 0e3b
00000090: 279b 8abc dba6 c83b c1a7 0dbd f4bd 87bc
000000a0: d707 963b 284b b83c 6f81 d03c cbf7 cfbc
000000b0: 64d9 09bc 5801 ec3b e14f bdbc 47b2 8fbc
000000c0: dd6a e9bc 2ec1 003d 156f 7739 8bf5 283b
000000d0: 88e0 0d3d 6c4e 963c 5c3d 0b3d 4651 b8bc
000000e0: 42d1 9b3c 2581 073c f9b3 f13c 5eeb e1bc
000000f0: 1fab 7f3c 971d 133d 87c8 413c eaee 3d3c
00000100: 45b1 8cbc d5db debc 7712 e63b 1459 f6bb
00000110: ff42 6bbc a0dd 983c 64e1 16ba 37b2 913c
00000120: 9540 b83a a3c8 e5bc e41d 92bc fecf 14bb
00000130: 664d 123c 90fe 9f3b faab 833c a64b af3c
00000140: 9301 8e3c d5a4 a13c e658 483c ddba dfbc
00000150: 3512 f4bb 3424 ff3c 3535 1f3c 80f6 d53c
00000160: 8ab8 903b a1e1 673b e298 853c 2bc4 473c
00000170: 9500 e93c 0fdb eb3b 66f0 b4bc 874c efbb
00000180: 0fea 073d fac1 483b f418 00bc 9c6e 9f3a
00000190: f6cc 033c a9a5 a0bc 1c4b 133c b095 33bc
000001a0: b3c9 0bb9 1521 ce3a 7edb 1dbc 6053 3c3c
000001b0: 77ee 93bc b385 6fbc 8117 83bc 8917 96bb
000001c0: 9122 b6bc 6e51 2dbc dd7c 61bc 271c c03b
000001d0: f2d5 94bc bbb0 133a 069d e6bc 31f6 c4bb
000001e0: dc43 8fbb 9887 35bc 052b 7ebc 6087 bbbc
000001f0: 64f2 9b3b f273 e5bc 8db8 cebc 27b3 923c
00000200: 4a78 dcbc edb7 96bc a21b 6a3a d100 0abd
00000210: 9f34 07bc 187f bd3b 09cf c3bc 86b0 93bc
00000220: 796a 86bc f6aa f538 8be6 b0bb 1f54 a7bc
00000230: d184 303c 2fa1 d03c 9352 d53c ea94 8bbc
00000240: e00f 05bd faf8 6d3c 434e b9bc 9447 923c
00000250: 9379 c73c b5d4 02bd f49d af3b 3ad5 eabc
00000260: 8791 e2bc 90d5 7dbc 13e8 2abc 4c4b abba
00000270: 5003 b1bc b940 bdbc f127 31bc 7215 75bb
00000280: 4106 81bc 6bc6 0cbd e6af dc3b 953d 173c
00000290: c335 01bd 2054 b83c 7d97 0bbb 0e1b 043d
000002a0: e1e5 f73b 218e 043d 56c8 353c 3ec8 02bd
000002b0: 75a0 c3bc 0a9e 723b 38df 7dbb 9ba5 b23c
000002c0: 2673 85bc 9be6 3b3c eb95 a7bc be7f 6ebc
000002d0: 755e f8bb fc0d f8ba 857f f03c 2f7c 96bc
000002e0: 8a68 283c d6d4 ecbc 9843 843c 99be adbc
000002f0: df1d c63c e9a9 59bc 5547 c53c 9d47 ab3c
00000300: 94d6 9a3c a0a9 0cbc e41a 673c 3c47 6ebb
00000310: 82b1 163d 8498 0dbd 1269 8a3c 8b1d c93c
00000320: 5ab9 333b f7da 063d 0b9b e53c 811f 153d
00000330: 64c3 ec3c 1877 c23c 56b9 0b3d 480e 07bd
00000340: bb04 5cbc 5d59 803c 79f5 8f3a 5112 d63c
00000350: d0a1 ea3b 394f d43c 99ad d43b d379 ee3b
00000360: c67b df3b 6c7c d13a 09dd e6bc f0f8 dabc
00000370: 9cb5 1b3c 0e5a b53c 3df5 a1b8 e03b 123d
00000380: 95d5 debc f3db e2bc d1a3 14bc b0db 673c
00000390: acff 153d 2214 06bd 69da 453c 71cd 5abc
000003a0: f6d6 64bc 1d7c 80bb cd7f 11bc 7590 e9bc
000003b0: 4337 56bc eabb 323c cc1b 0f3d 5bd9 e33c
000003c0: 2e1c 87bc 7d4c c5bc 2e34 453c 2ac1 d93c
000003d0: 5516 25bb 22af cf3c 89c1 9ebc d078 ae3c
000003e0: db67 d53c 4167 01bd 8c0b ef3c 97e1 0cbd
000003f0: a5cb 3abc bef0 e5bc 45f5 04bc 8955 8a3c

lin1.bias f4 [64]
0.0076211626 -0.0026728432 -0.0036258448 0.029236991 -0.003318455 0.023935253 -0.0075135683 -0.013663574
-0.03534262 -0.027589718 -0.019304264 -0.03447384 -0.027003365 -0.035005484 -0.020314045 0.023903687
0.003121779 -0.03109292 -0.0039044688 -0.0048415367 0.00070947554 0.033385467 0.0128948325 0.014283204
-0.027470054 -0.022724254 0.023522697 -0.034883697 0.019733481 -0.028651666 -0.011612627 -0.03441931
0.004042107 0.02048746 -0.010356898 -0.028182184 -0.022442205 -0.014632308 -0.0073483004 0.021774165
0.018931013 -0.019035403 0.027299168 0.015854409 0.013510005 -0.016496422 0.011908678 -0.0059476513
0.008606986 -0.030637894 -0.035942495 -0.02162447 0.01908599 -0.0014772585 -0.0038805061 -0.025991034
0.012367186 0.008569514 0.03663978 0.023680622 0.013434515 -0.033438392 -0.030956563 0.0022368005
00000000: f2ba f93b de2a 2fbb 959f 6dbb 6a82 ef3c
00000010: 707a 59bb dd13 c43c 6134 f6bb 2fdd 5fbc
00000020: 6cc3 10bd d503 e2bc fa23 9ebc 7134 0dbd
00000030: 2936 ddbc e961 0fbd a469 a6bc aad1 c33c
00000040: c396 4c3b 94b6 febc 1ee2 7fbb c1a5 9ebb
00000050: 19fc 393a 33bf 083d d944 533c 1a04 6a3c
00000060: e108 e1bc 3728 babc acb2 c03c 35e2 0ebd
00000070: 1ca8 a13c e6b6 eabc e342 3ebc 43fb 0cbd
00000080: a773 843b 51d5 a73c fbaf 29bc 53de e6bc
00000090: b7d8 b7bc 59bc 6fbc 03ca f0bb bc5f b23c
000000a0: 3615 9b3c 22f0 9bbc 81a2 df3c 1be1 813c
000000b0: 1159 5d3c 8123 87bc 9e1c 433c 84e4 c2bb
000000c0: 5104 0d3c 52fc fabc 7038 13bd cd25 b1bc
000000d0: 395a 9c3c 92a0 c1ba 1750 7ebb 26eb d4bc
000000e0: bd9f 4a3c 2667 0c3c 9813 163d ddfd c13c
000000f0: 711c 5c3c b2f6 08bd 9e98 fdbc 4997 123b

lin2.weight f4 [16, 64]
-0.017893538 0.10532044 -0.08546556 0.046363555 0.10185914 0.090600215 -0.0769498 -0.00066799705
-0.035321254 0.12826705 0.10061014 -0.014793445 -0.080899656 0.08242396 -0.11760035 0.015431834
0.13833381 0.09784562 -0.0092492895 0.10361127 -0.00079179456 0.10124286 -0.03216276 0.025561228
-0.06793998 0.04455585 0.110714026 -0.112213954 -0.124803014 0.10560268 -0.048005182 0.06863301
0.10372215 0.006507243 -0.108845755 0.10125023 -0.09196907 0.04387557 0.05586939 -0.058245853
-0.0941615 -0.06395351 -0.1215488 -0.062912315 -0.04602523 -0.025531234 -0.080786556 0.011717012
-0.037008215 -0.00015660636 0.07297364 0.028407857 -0.070586264 0.07177274 0.061454136 -0.01097299
-0.11962822 -0.10499157 0.11779746 -0.020393556 -0.039552722 -0.10165631 -0.086003885 0.021597387
0.12724622 0.059606925 0.10001012 0.107849665 -0.027950767 0.10804531 -0.03377205 -0.050642468
-0.08465629 0.03789035 0.12353219 -0.059064936 0.06904925 0.06637064 0.04548047 -0.0736812
0.13064842 0.09356116 -0.090105325 -0.035536066 -0.0924807 -0.03094069 -0.11779469 0.0035407343
0.083264224 -0.06828535 0.0044513354 -0.05270067 -0.052689098 0.01721682 -0.031641133 -0.10006262
-0.04951968 -0.06908326 0.12416368 0.024622789 0.082810245 0.10427078 -0.066703826 0.01561174
0.11119209 0.08148465 -0.08581461 -0.04300886 -0.027176056 -0.12148128 -0.073343605 -0.05724697
0.07944765 0.024793874 0.021159124 0.066124044 0.03957484 -0.07797076 -0.12253199 -0.00056224334
-0.10050643 -0.1130314 -0.02636821 -0.0086207725 -0.014668829 0.08695449 -0.083301574 -0.11315141
0.07316476 0.010577702 -0.044352468 0.11937806 -0.07685788 0.03843729 -0.058142733 -0.07869731
0.063124485 -0.059684277 0.0835036 0.035662457 -0.08150173 -0.09540654 0.042540792 0.05526548
0.06755942 -0.11001842 0.06608173 0.0131553905 0.0726614 -0.0028844017 -0.11886823 0.0147140045
0.1299897 0.01719329 0.09962404 0.09444011 -0.04912931 0.11431445 -0.02176744 0.026254341
-0.070793346 -0.080726705 -0.09889082 -0.07643373 0.10334992 0.04177893 -0.030470792 0.0164737
0.10432901 0.027465018 -0.016561637 -0.072671466 0.0031939738 -0.11162479 0.11784953 -0.0064535094
-0.015404204 0.118626684 0.07284681 -0.055137165 0.029316865 0.025684005 0.088021435 -0.102259494
-0.12387838 0.070919424 0.11225976 0.03821502 -0.07286923 0.10778042 0.073202625 -0.064711705
-0.039255187 0.011872792 -0.029600557 -0.07412839 -0.07412175 0.06291523 -0.033885762 -0.08664073
-0.07116131 0.122047074 0.08772846 -0.059601855 0.059655607 -0.1189266 -0.014651647 -0.007898108
0.00074574025 0.051700767 0.033126317 0.05388873 0.043358352 0.012970065 -0.03851878 -0.04391287
-0.09848382 -0.1173439 0.057292957 -0.11065144 -0.07045068 0.023970675 0.04460921 -0.05279288
0.059175774 -0.079265945 -0.0023475348 -0.014668947 -0.0884309 0.12362311 -0.015214546 0.081539005
-0.08502043 -0.07564489 -0.08525665 -0.12069036 -0.1022343 0.11607471 -0.1042014 -0.062670305
-0.035743553 0.067016914 -0.1177788 -0.013007125 0.12497259 0.031151962 -0.036425985 -0.1056716
0.05874413 -0.04114719 -0.124212526 0.030496487 -0.09348268 -0.011245364 0.036943622 0.054965902
00000000: 7895 92bc 3eb2 d73d 9108 afbd b6e7 3d3d
00000010: 869b d03d 9b8c b93d db97 9dbd 861c 2fba
00000020: 05ad 10bd 7058 033e b00c ce3d 3560 72bc
00000030: b8ae a5bd e5cd a83d 74d8 f0bd ced5 7c3c
00000040: 61a7 0d3e 4963 c83d 558a 17bc 2532 d43d
00000050: 6f90 4fba 6b58 cf3d 19bd 03bd c865 d13c
00000060: 1e24 8bbd 3280 363d 09be e23d 6ed0 e5bd
00000070: b998 ffbd 3846 d83d 15a1 44bd 778f 8c3d
00000080: 476c d43d b63a d53b 86ea debd 485c cf3d
00000090: 485a bcbd dfb6 333d 4dd7 643d 3493 6ebd
000000a0: bfd7 c0bd 0ffa 82bd 94ee f8bd 2cd8 80bd
000000b0: f484 3cbd e126 d1bc 6c73 a5bd b6f8 3f3c
000000c0: ed95 17bd b336 24b9 3473 953d 98b7 e83c
000000d0: 888f 90bd 96fd 923d 55b7 7b3d 0ec8 33bc
000000e0: a4ff f4bd d205 d7bd cb3f f13d 6310 a7bc
000000f0: 0902 22bd 2f31 d0bd ce22 b0bd 01ed b03c
00000100: d54c 023e 6426 743d 1bd2 cc3d 49e0 dc3d
00000110: 02f9 e4bc dc46 dd3d 9054 0abd 7a6e 4fbd
00000120: 4760 adbd e932 1b3d 72fe fc3d 13ee 71bd
00000130: b169 8d3d 55ed 873d bb49 3a3d 2be6 96bd
00000140: b3c8 053e fe9c bf3d 2489 b8bd 448e 11bd
00000150: 8566 bdbd 5477 fdbc 583e f1bd aa0b 683b
00000160: 6f86 aa3d 31d9 8bbd 82dc 913b a8dc 57bd
00000170: 86d0 57bd 4a0a 8d3c 229a 01bd a2ed ccbd
00000180: 26d5 4abd 867b 8dbd 8749 fe3d bbb5 c93c
00000190: 6b98 a93d eb8b d53d 049c 88bd 62c8 7f3c
000001a0: aeb8 e33d 6de1 a63d 92bf afbd 0f2a 30bd
000001b0: 52a0 debc 2dcb f8bd 2c35 96bd cc7b 6abd
000001c0: 73b5 a23d 861c cb3c e655 ad3c 0b6c 873d
000001d0: 3a19 223d 22af 9fbd 0df2 fabd 8363 13ba
000001e0: 51d6 cdbd 027d e7bd 2502 d8bc 243e 0dbc
000001f0: 8755 70bc 3215 b23d 049a aabd edbb e7bd
00000200: 68d7 953d 194e 2d3c efaa 35bd 7c7c f43d
00000210: aa67 9dbd 6b70 1d3d 1327 6ebd 0e2c a1bd
00000220: 6947 813d 8077 74bd ef03 ab3d cc12 123d
00000230: 61ea a6bd 8164 c3bd 413f 2e3d 0e5e 623d
00000240: 985c 8a3d 5651 e1bd dc55 873d b589 573c
00000250: 80cf 943d 3b08 3dbb 3071 f3bd 0213 713c
00000260: 051c 053e f1d8 8c3c b007 cc3d d169 c13d
00000270: d13b 49bd b21d ea3d a151 b2bc 5813 d73c
00000280: 1afc 90bd 0b54 a5bd 4587 cabd 4a89 9cbd
00000290: 1fa9 d33d 6220 2b3d e29d f9bc daf3 863c
000002a0: 73aa d53d 51fe e03c 45ac 87bc c7d4 94bd
000002b0: fd51 513b 8a9b e4bd 185b f13d f677 d3bb
000002c0: ea61 7cbc 8cf2 f23d b530 953d 82d7 61bd
000002d0: ec29 f03c 4367 d23c 9544 b43d 6d6d d1bd
000002e0: f3b3 fdbd 343e 913d 72e8 e53d 5a87 1c3d
000002f0: 763c 95bd fbbb dc3d 42eb 953d 9287 84bd
00000300: 0cca 20bd 1986 423c de7c f2bc a0d0 97bd
00000310: 25cd 97bd b3d9 803d cccb 0abd b270 b1bd
00000320: 05bd 91bd d1f3 f93d fbaa b33d 1321 74bd
00000330: 7059 743d ca8f f3bd 760d 70bc 1167 01bc
00000340: c87d 433a 2fc4 533d 76af 073d 6eba 5c3d
00000350: 8798 313d 6580 543c dec5 1dbd fbdd 33bd
00000360: e3b1 c9bd 0052 f0bd 05ac 6a3d 399d e2bd
00000370: 7248 90bd 265e c43c 26b8 363d 593d 58bd
00000380: 4c62 723d 2f56 a2bd 19d9 19bb 0656 70bc
00000390: 421b b5bd 1d2e fd3d 6e46 79bc ecfd a63d
000003a0: 311f aebd b5eb 9abd 0a9b aebd 822c f7bd
000003b0: 3760 d1bd 94b8 ed3d 8b67 d5bd 4a59 80bd
000003c0: d567 12bd 2a40 893d 0336 f1bd d61b 55bc
000003d0: a1f1 ff3d 6632 ff3c 6a33 15bd 5a6a d8bd
000003e0: af9d 703d f589 28bd 2363 febd c5d3 f93c
000003f0: d973 bfbd 7a3e 38bc 3252 173d ed23 613d

lin2.bias f4 [16]
0.09723457 -0.0664256 0.122068934 0.09498585 0.108834274 -0.07422299 -0.008686982 0.031607468
-0.07536202 -0.10921228 0.050927386 -0.11020758 -0.054324843 -0.1123851 0.036180012 0.048793793
00000000: eb22 c73d 250a 88bd 47ff f93d f187 c23d
00000010: 81e4 de3d 3902 98bd d853 0ebc d576 013d
00000020: 6757 9abd b0aa dfbd 3c99 503d 83b4 e1bd
00000030: ba83 5ebd 292a e6bd 7e31 143d 00dc 473d

lin3.weight f4 [3, 16]
0.070665576 0.14226449 -0.22804548 0.0743354 0.2081715 -0.006207545 -0.109238565 -0.0070895576
0.0035133392 -0.1001097 -0.23088628 -0.041688833 0.15214352 -0.22163866 -0.18277855 -0.036259547
0.23713604 0.23452008 0.0449929 0.035340976 -0.13455787 0.03682118 0.19878387 -0.20251189
-0.1052953 0.022272507 -0.24568695 0.08762892 -0.03372373 0.12369627 -0.17442985 0.068645805
0.071227685 0.24829714 0.0071819504 0.057313185 -0.11128164 -0.17852695 0.10936364 0.21365505
-0.09764163 -0.19870655 0.1571297 -0.12969245 0.094965205 0.14068604 0.08597725 -0.22598886
00000000: 1db9 903d c8ad 113e c184 69be 283d 983d
00000010: e92a 553e a968 cbbb 78b8 dfbd 854f e8bb
00000020: 0d40 663b 5006 cdbd 746d 6cbe e9c1 2abd
00000030: 83cb 1b3e 3ff5 62be 4d2a 3bbe e484 14bd
00000040: cad3 723e 0826 703e 7a4a 383d b3c1 103d
00000050: 8ac9 09be ced1 163d 008e 4b3e 475f 4fbe
00000060: 10a5 d7bd d574 b63c 5c95 7bbe cb76 b33d
00000070: e521 0abd 7854 fd3d bd9d 32be 2c96 8c3d
00000080: d2df 913d 9b41 7e3e 9156 eb3b 3bc1 6a3d
00000090: a1e7 e3bd c5cf 36be 0bfa df3d 64c8 5a3e
000000a0: 56f8 c7bd bb79 4bbe 9ce6 203e 19ce 04be
000000b0: 1e7d c23d 0010 103e d714 b03d a069 67be

lin3.bias f4 [3]
0.032439005 -0.14284602 -0.16753039
00000000: c3de 043d 3a46 12be 168d 2bbe
