dagger_models/model_1.pth (torch, 231749 bytes, 24 tensors)

conv1.weight f4 [4, 1, 5, 5]
0.15019427 0.02266826 0.05359314 0.0005235602 0.18712914 0.17791423 -0.023815755 0.15346567
-0.066307716 0.13427283 -0.040395163 -0.042193495 -0.1683294 -0.027332915 0.17632148 0.19199398
-0.18187808 -0.016099846 -0.016266046 0.17132173 -0.14606735 -0.07628673 -0.12155872 -0.120374076
0.019619234 -0.07053702 0.10706615 0.18251233 -0.024963036 -0.10029539 -0.14515735 -0.081096694
0.15868732 0.17232704 0.05478105 -0.053892974 -0.09407533 -0.13492858 0.0059416154 -0.06117329
-0.05455574 -0.037145406 -0.097272046 0.12152109 0.16115299 -0.10049185 0.13402368 0.14583388
0.008944754 -0.07752238 -0.061003555 0.13239324 -0.07402873 -0.052471086 -0.12554277 -0.19798093
0.14090098 0.011929914 -0.009705974 -0.18496144 0.008147994 -0.16713458 0.0050088284 0.068588994
-0.0691669 -0.12890421 -0.09606178 0.17647108 -0.0991517 -0.18729338 -0.12546001 0.118911736
-0.114725195 0.12176442 0.15006344 -0.039731756 0.1699039 -0.030551316 0.09932804 0.02341812
-0.047329914 -0.0685246 -0.13654247 0.04380788 0.031856894 -0.051591344 -0.09117482 -0.16646552
0.14061418 0.029662205 -0.029994268 0.12533318 0.17073692 -0.1801094 0.15441866 -0.059909638
0.1289655 -0.0039469264 -0.032323185 -0.15660003
00000000: 87cc 193e c9b2 b93c 7b84 5b3d 883f 093a
00000010: c89e 3f3e 262f 363e 4219 c3bc 1b26 1d3e
00000020: 57cc 87bd d17e 093e 6675 25bd 16d3 2cbd
00000030: 8b5e 2cbe 47e9 dfbc 9e8d 343e 129a 443e
00000040: 3f3e 3abe d3e3 83bc 5f40 85bc f76e 2f3e
00000050: ae92 15be 383c 9cbd c7f3 f8bd af86 f6bd
00000060: 84b8 a03c b775 90bd 7f45 db3d 83e4 3a3e
00000070: 487f ccbc ab67 cdbd 21a4 14be 0616 a6bd
00000080: ee7e 223e 8076 303e 1862 603d e1be 5cbd
00000090: 91aa c0bd b82a 0abe e2b1 c23b d890 7abd
000000a0: d775 5fbd c825 18bd 9136 c7bd 0de0 f83d
000000b0: 4a05 253e acce cdbd 813d 093e 7a55 153e
000000c0: 048d 123c 0ec4 9ebd ddde 79bd 1892 073e
000000d0: 609c 97bd eceb 56bd 498e 00be 83bb 4abe
000000e0: 5948 103e b075 433c ce05 1fbc 8866 3dbe
000000f0: 2a7f 053c 5425 2bbe 1921 a43b 6378 8c3d
00000100: 60a7 8dbd 77ff 03be 0abc c4bd d6b4 343e
00000110: 0c10 cbbd d6c9 3fbe 9778 00be ff87 f33d
00000120: 0bf5 eabd a05f f93d 3baa 193e c4bd 22bd
00000130: 4afb 2d3e c146 fabc 806c cb3d 5bd7 bf3c
00000140: 03dd 41bd a056 8cbd cad1 0bbe e46f 333d
00000150: 607c 023d 7251 53bd ddb9 babd f075 2abe
00000160: 2afd 0f3e 27fe f23c 8ab6 f5bc 5757 003e
00000170: a9d5 2e3e 996e 38be ed1f 1e3e cf63 75bd
00000180: 880f 043e 3855 81bb 5165 04bd c25b 20be

conv1.bias f4 [4]
0.123888835 0.17624359 0.17272712 0.17067479
00000000: 6eb9 fd3d 3379 343e 61df 303e 5fc5 2e3e

norm1.weight f4 [4]
0.99943584 1.0002534 1.0000904 1.0002127
00000000: 07db 7f3f 4e08 803f f602 803f f806 803f

norm1.bias f4 [4]
-0.00010063643 0.00044618393 0.0001220957 0.00026579082
00000000: c60c d3b8 cbed e939 d106 0039 d759 8b39

norm1.running_mean f4 [4]
62.55938 19.305447 -120.38341 3.8486803
00000000: ce3c 7a42 8e71 9a41 4ec4 f0c2 c750 7640

norm1.running_var f4 [4]
229.3496 81.25452 598.9581 15.667928
00000000: 7f59 6543 5082 a242 52bd 1544 d5af 7a41

conv2.weight f4 [8, 4, 5, 5]
0.063885175 0.07854824 -0.058111932 -0.04158015 -0.08597918 0.07982931 0.091870785 -0.025697207
-0.017656306 -0.0037987889 -0.08562387 0.06624301 0.09787265 -0.0973947 0.0019585683 -0.0981227
0.06829803 -0.08438959 0.095962055 0.0044106976 -0.051406503 0.078396395 -0.057591993 0.077269696
0.02665141 -0.09399543 -0.03774596 -0.039073247 0.018251741 -0.031910535 -0.037352238 -0.03486119
-0.0790416 0.045416433 0.041472986 0.08173801 -0.055203393 -0.01538543 0.09824412 -0.058392644
0.07297653 0.03796996 0.0067798286 0.07537169 0.08847533 0.09826607 -0.09023671 -0.013267769
-0.0048427344 -0.0011142663 0.009196006 0.044495434 -0.04074289 -0.05156358 0.059941806 0.08792951
-0.062300235 0.026184903 0.059192643 -0.062814645 0.042501476 -0.012055971 -0.010343487 0.09111709
-0.026678504 0.016123775 0.03178382 -0.02148596 0.07686347 -0.07499953 0.04072243 -0.029561117
0.04543202 0.0013546575 -0.004659538 -0.090669475 0.037187535 -0.04146798 0.018680727 -0.0657906
-0.03922189 0.03833885 -0.09493236 -0.036440525 -0.032941762 0.084719196 -0.07323038 -0.047040183
0.03266562 0.03355025 -0.089473836 0.087462194 -0.07241751 -0.08969288 -0.015357848 0.09939621
-0.07433124 -0.016693974 0.020945534 -0.06335183 -0.047086243 -0.031977043 3.7478036e-05 0.0064159036
0.074882254 0.06958925 0.05323917 -0.03486856 0.04453636 0.0287059 -0.001596472 0.040612247
0.061439704 -0.046080012 0.05985744 -0.029045103 0.04487412 0.029773163 -0.047058746 -0.09427654
0.052687615 -0.07108228 -0.09751032 -0.076594636 0.09652034 -0.003877334 0.09111665 0.08385154
0.088435 0.002883858 0.029911892 -0.023918707 0.052647535 -0.02827688 -0.1000683 0.08463952
0.08531772 0.028428031 -0.016217306 -0.06042006 -0.058580667 0.009982291 -0.08241479 -0.03605586
-0.02529681 -0.0070626596 0.0877364 -0.09881826 -0.08125071 -0.02748624 -0.034875065 -0.066854045
-0.083066486 0.08804327 -0.029936763 0.013238672 0.07801394 -0.068747126 -0.02848695 0.06332756
-0.018174969 0.054658987 -0.08681155 -0.06433828 -0.020338017 -0.026032766 0.008342167 -0.09041197
-0.05235152 -0.07776347 0.06550925 -0.06745464 -0.019005382 0.035032142 0.09322897 0.096902214
0.022187015 0.01747585 -0.0013324963 -0.023550455 -0.045020152 -0.08406592 -0.028010923 -0.06992271
-0.057226457 0.022498906 -0.0064162654 0.03795483 0.008560834 0.07096447 -0.062285542 0.03116991
0.04322036 -0.04004963 -0.007938599 -0.0051792287 -0.0798695 -0.0063381996 -0.047116905 -0.03350093
-0.04601648 0.05525056 0.020359298 0.077438615 -0.075613365 -0.0705307 0.070054926 0.041929822
0.06726433 -0.09479235 0.072212055 -0.0064236224 -0.09715126 -0.07047164 0.06684456 -0.0008257135
-0.019500114 -0.014967957 0.0525342 -0.090825856 -2.3428463e-05 0.09231673 0.09573622 -0.0329945
0.07286392 0.033277564 0.07782229 0.081473336 -0.09871823 0.0011153799 0.080657125 -0.08646139
0.08386246 -0.088322975 -0.08030518 -0.005296309 0.008258433 -0.08514274 0.06276112 -0.05278954
0.01904399 0.053200815 -0.0465638 -0.06372239 0.049694724 -0.04705817 0.061806437 -0.09948874
0.043973792 0.0942156 0.037517417 0.016094817 0.0018810877 0.071332775 -0.045301832 -0.09996838
00000000: 3bd6 823d e6dd a03d c706 6ebd f34f 2abd
00000010: da15 b0bd 8d7d a33d c026 bc3d f382 d2bc
00000020: f5a3 90bc 1af5 78bb 915b afbd 6aaa 873d
00000030: 7571 c83d df76 c7bd 535b 003b 8ef4 c8bd
00000040: d6df 8b3d 73d4 acbd c187 c43d 9d87 903b
00000050: a08f 52bd 4a8e a03d 95e5 6bbd 933f 9e3d
00000060: 0f54 da3c ad80 c0bd 829b 1abd 450b 20bd
00000070: ad84 953c 9fb4 02bd a9fe 18bd 9bca 0ebd
00000080: 90e0 a1bd 9506 3a3d 94df 293d 4266 a73d
00000090: f41c 62bd 2c13 7cbc 3734 c93d 202d 6fbd
000000a0: b874 953d 6486 1b3d 5329 de3b 795c 9a3d
000000b0: 8e32 b53d b93f c93d 06ce b8bd 0e61 59bc
000000c0: cdaf 9ebb 930c 92ba d8aa 163c d840 363d
000000d0: 04e2 26bd 5534 53bd 8a85 753d 6314 b43d
000000e0: 882e 7fbd b981 d63c fc73 723d f7a4 80bd
000000f0: 0716 2e3d 6886 45bc bb77 29bc 999b ba3d
00000100: e18c dabc 0216 843c c02f 023d 5303 b0bc
00000110: 986a 9d3d 5b99 99bd 90cc 263d 282a f2bc
00000120: ed16 3a3d c38e b13a 0aaf 98bb ebb0 b9bd
00000130: f551 183d 54da 29bd 5308 993c 39bd 86bd
00000140: 22a7 20bd 3309 1d3d e66b c2bd a942 15bd
00000150: f1ed 06bd 4281 ad3d cff9 95bd 35ad 40bd
00000160: 63cc 053d fd6b 093d 0f3e b7bd 611f b33d
00000170: a24f 94bd e7b0 b7bd 7c9f 7bbc 3d90 cb3d
00000180: fa3a 98bd cdc1 88bc f895 ab3c 9bbe 81bd
00000190: 81dd 40bd 5cfa 02bd bc31 1d38 803c d23b
000001a0: de5b 993d cf84 8e3d 5111 5a3d 56d2 0ebd
000001b0: c26b 363d a328 eb3c b640 d1ba 0759 263d
000001c0: 33a8 7b3d 65be 3cbd 132d 753d ffef edbc
000001d0: edcd 373d d9e6 f33c acc0 40bd 0f14 c1bd
000001e0: f8ce 573d 9693 91bd 7eb3 c7bd a6dd 9cbd
000001f0: 75ac c53d df1a 7ebb 5e9b ba3d 5bba ab3d
00000200: 691d b53d 1cff 3c3b c909 f53c 2af1 c3bc
00000210: f1a4 573d eaa4 e7bc 9cf0 ccbd 7c57 ad3d
00000220: 0fbb ae3d e7e1 e83c 28da 84bc 067b 77bd
00000230: 48f2 6fbd c38c 233c 16c9 a8bd 4faf 13bd
00000240: 413b cfbc e26d e7bb 24af b33d 3a61 cabd
00000250: c666 a6bd d32a e1bc 28d9 0ebd c6ea 88bd
00000260: c31e aabd 0850 b43d f13d f5bc 04e7 583c
00000270: c6c5 9f3d 4bcb 8cbd 775d e9bc e1b1 813d
00000280: ace3 94bc 1ae2 5f3d 41ca b1bd cac3 83bd
00000290: ea9b a6bc ab42 d5bc 96ad 083c e929 b9bd
000002a0: 8c6e 56bd 7442 9fbd b729 863d a925 8abd
000002b0: 2db1 9bbc dd7d 0f3d d5ee be3d ab74 c63d
000002c0: 8bc1 b53c 8429 8f3c 28a7 aeba e2ec c0bc
000002d0: 0d67 38bd c12a acbd 2a77 e5bc a333 8fbd
000002e0: 4a66 6abd a04f b83c 893f d2bb 8676 1b3d
000002f0: be42 0c3c d255 913d 201f 7fbd 0a58 ff3c
00000300: d507 313d 150b 24bd e610 02bc 85b6 a9bb
00000310: 9f92 a3bd acb0 cfbb a8fd 40bd 4538 09bd
00000320: c77b 3cbd 694e 623d 8bc8 a63c 2398 9e3d
00000330: 2edb 9abd 6672 90bd f578 8f3d 9bbe 2b3d
00000340: e2c1 893d 7e22 c2bd eae3 933d 407d d2bb
00000350: 3df7 c6bd 6f53 90bd cde5 883d b274 58ba
00000360: b4be 9fbc 293c 75bc 1a2e 573d e802 babd
00000370: 3e88 c4b7 8e10 bd3d 5a11 c43d 3e25 07bd
00000380: ae39 953d 0e4e 083d 4b61 9f3d 7edb a63d
00000390: c92c cabd f031 923a 902f a53d ab12 b1bd
000003a0: 15c0 ab3d ade2 b4bd 0b77 a4bd a98c adbb
000003b0: 614e 073c 515f aebd e788 803d d839 58bd
000003c0: 2402 9c3c 19e9 593d afb9 3ebd e280 82bd
000003d0: b28c 4b3d 11c0 40bd bf28 7d3d c1c0 cbbd
000003e0: dd1d 343d 1cf4 c03d ddab 193d 47d9 833c
000003f0: d48e f63a eb16 923d 6a8e 39bd 39bc ccbd

conv2.bias f4 [8]
0.0058972775 0.017629482 -0.07347097 -0.009598241 0.03966995 -0.023771172 0.079979785 -0.056990147
00000000: f33d c13b b46b 903c f377 96bd f141 1dbc
00000010: f57c 223d c3bb c2bc 71cc a33d 806e 69bd

norm2.weight f4 [8]
1.0000262 1.0000767 0.99951243 0.99984694 0.99973804 0.9997059 1.0009744 1.0001076
00000000: dc00 803f 8302 803f 0ce0 7f3f f8f5 7f3f
00000010: d5ee 7f3f baec 7f3f ee1f 803f 8703 803f

norm2.bias f4 [8]
2.8180286e-05 0.00020158174 -0.00013084759 -1.0623075e-05 -0.00015735207 -9.169324e-05 0.00016623295 3.562754e-06
00000000: b464 ec37 b05f 5339 2234 09b9 c239 32b7
00000010: e0fe 24b9 6f4b c0b8 d14e 2e39 a617 6f36

norm2.running_mean f4 [8]
0.01773395 -0.21286619 0.039029036 -0.19982459 0.31691346 -0.097302966 0.7137029 -0.18073605
00000000: ca46 913c 98f9 59be e9dc 1f3d d19e 4cbe
00000010: 7b42 a23e c746 c7bd 3cb5 363f df12 39be

norm2.running_var f4 [8]
0.115126535 0.24354735 0.09449836 0.14799656 0.091939494 0.055929743 0.5289931 0.123866774
00000000: 76c7 eb3d 7a64 793e 5b88 c13d 698c 173e
00000010: c64a bc3d 9616 653d 186c 073f ddad fd3d

conv3.weight f4 [16, 8, 6, 6]
-0.012200377 -0.015890924 0.020505397 0.0031540354 0.004016308 -0.01116893 0.038416024 0.019143794
-0.034458656 0.022433052 0.028279599 0.011800653 -0.024634052 0.03315085 0.011352275 -0.04407341
0.057389528 -0.052008525 0.03495811 -0.0032055432 -0.026045907 -0.042475093 -0.008735145 -0.0030467268
0.038577557 0.0109421415 -0.010768116 -0.05676201 -0.019921018 0.027984668 -0.05583633 -0.03302952
0.046699937 -0.006785928 0.037185665 -0.04598309 0.046627533 -0.012268896 0.051343933 0.0032053315
0.038421452 -0.03534058 0.035097867 -0.0021315312 -0.0265777 0.031547137 0.013132293 0.0038125077
0.046185084 0.0137006175 -0.0043455358 -0.034835774 -0.05175835 0.02170592 0.00044212083 -0.004253514
-0.030727752 0.03152958 -0.0051220516 -0.0404873 -0.032514773 -0.024335884 0.037155475 -0.020322723
0.057295717 -0.047764145 0.05247444 -0.006241822 0.026353283 0.019408021 -0.01985461 0.051894948
0.048372734 0.013678168 0.048805263 0.03699815 0.026028566 0.047504716 0.0060028816 0.008755531
-0.0036327904 0.00810704 -0.00946756 -0.022885693 0.02144283 -0.009813136 0.0058959825 0.026547663
-0.014607521 0.052542076 0.044585925 -0.012022442 -0.024812706 -0.05502761 0.0018439362 0.018694483
-0.0187225 0.00321474 0.048946593 -0.003172016 0.0056345863 -0.028843153 -0.02819415 0.05188915
0.04581118 -0.041517276 -0.055669237 0.04610429 -0.03979855 -0.008848716 0.014456017 0.033174068
0.009488491 0.020753274 0.05390083 0.0115758665 -0.00073266163 -0.016130663 0.053421065 -0.033732977
-0.056069594 -0.03171079 -0.029598048 -0.050633308 -0.034276124 -0.00882382 -0.028166994 0.015495847
0.042706843 -0.028615981 0.028259324 -0.012938812 -0.044174857 -0.029211646 -0.012258517 0.025649944
0.035730727 -0.00039106986 0.008626859 0.010421877 -0.016867032 -0.052023962 -0.0050096163 -0.04086281
0.051914047 -0.054573223 0.03991823 -0.042874433 0.037714697 0.053372875 0.017353421 -0.02185701
-0.05736795 -0.054198418 0.04021864 -0.03694258 0.029716486 -0.010276077 0.052676205 -0.026696065
-0.040455233 -0.028206626 -0.015108841 0.044205386 -0.05686805 -0.051680196 0.047604766 -0.04427306
-0.0015869577 0.048150808 0.034383208 -0.008286119 0.055946026 0.02750774 -0.014000667 -0.0178799
-0.035568718 0.03543755 0.049945258 -0.021490842 -0.021349626 0.039355025 -0.03331013 -0.009759436
-0.002670919 0.031733144 0.00025043168 -0.041760832 0.0044511696 0.002220898 0.009903505 0.0146146845
-0.027313367 -0.022099717 0.0066076014 0.049873713 0.0034189245 -0.004667293 0.018348934 -0.04522094
0.03022485 -0.0059376205 0.00013297483 0.04200707 -0.045950446 0.04157394 -0.033273224 0.053795766
0.0024074346 0.012414161 0.004203516 0.05735052 0.036585085 -0.008686342 -0.028255595 -0.015781667
-0.04842676 -0.027998416 -0.027265599 -0.028376695 0.003913848 -0.05723479 -0.0053075105 0.050450794
-0.042324044 0.025082443 -0.04842713 0.060679827 -0.049560077 -0.03276037 0.022610867 0.001675547
-0.0068867374 -0.03182663 -0.00092180824 0.057736956 -0.011440871 0.040854383 0.03433474 -0.0061556445
-0.043262627 -0.02816319 -0.058105726 -0.028095482 -0.030056862 -0.01926804 0.032940686 -0.034172416
0.031710494 0.056432974 -0.044293787 0.01654183 -0.053058967 -0.033197366 0.035049748 -0.04379389
00000000: 17e4 47bc af2d 82bc effa a73c efb3 4e3b
00000010: 3c9b 833b e3fd 36bc 1f5a 1d3d 72d3 9c3c
00000020: 8524 0dbd 85c5 b73c 9eaa e73c 8757 413c
00000030: 5acd c9bc 30c9 073d e4fe 393c 5286 34bd
00000040: 4811 6b3d e406 55bd 3c30 0f3d 1714 52bb
00000050: 3a5e d5bc 5dfa 2dbd db1d 0fbc 98ab 47bb
00000060: 8003 1e3d ab46 333c c16c 30bc 487f 68bd
00000070: 6731 a3bc 1a40 e53c a3b4 64bd f649 07bd
00000080: 6f48 3f3d 7d5c debb ff4f 183d c458 3cbd
00000090: 83fc 3e3d 7b03 49bc 044e 523d 8a10 523b
000000a0: d05f 1d3d 49c1 10bd c8c2 0f3d 29b1 0bbb
000000b0: 7ab9 d9bc 9237 013d d428 573c 44db 793b
000000c0: 922c 3d3d 8e78 603c ff64 8ebb f5af 0ebd
000000d0: 9000 54bd 9dd0 b13c 74cc e739 1061 8bbb
000000e0: c4b8 fbbc 2925 013d e2d6 a7bb 03d6 25bd
000000f0: 362e 05bd 0c5c c7bc 5730 183d d77b a6bc
00000100: eaae 6a3d 56a4 43bd 70ef 563d 3388 ccbb
00000110: d7e2 d73c 92fd 9e3c 23a6 a2bc cc8f 543d
00000120: 7d22 463d 651a 603c 07e8 473d 5f8b 173d
00000130: dc39 d53c 4e94 423d d2b3 c43b 5c73 0f3c
00000140: 1c14 6ebb 64d3 043c d31d 1bbc c77a bbbc
00000150: e0a8 af3c 47c7 20bc 1633 c13b 7c7a d93c
00000160: 6254 6fbc 5c36 573d bb9f 363d c7f9 44bc
00000170: 0444 cbbc a264 61bd 3bb0 f13a 2c25 993c
00000180: ee5f 99bc 63ae 523b 397c 483d 99e1 4fbb
00000190: 56a2 b83b 7a48 ecbc 6bf7 e6bc b889 543d
000001a0: 81a4 3b3d 050e 2abd 6d05 64bd dad7 3c3d
000001b0: ce03 23bd 34fa 10bc eed8 6c3c 88e1 073d
000001c0: 9e75 1b3c c502 aa3c 1ec7 5c3d b4a8 3d3c
000001d0: 1710 40ba 7424 84bc 0cd0 5a3d 972b 0abd
000001e0: 3ba9 65bd 2ce3 01bd 9b77 f2bc df64 4fbd
000001f0: 1f65 0cbd c991 10bc 78be e6bc 4be2 7d3c
00000200: 5fed 2e3d 106c eabc 1980 e73c 50fd 53bc
00000210: b2f0 34bd 434d efbc f2d7 48bc d51f d23c
00000220: 625a 123d 8208 cdb9 ab57 0d3c 85c0 2a3c
00000230: bb2c 8abc 1417 55bd b527 a4bb c35f 27bd
00000240: d3a3 543d 2c88 5fbd 4c81 233d 1a9d 2fbd
00000250: ba7a 1a3d 849d 5a3d c328 8e3c 790d b3bc
00000260: a8fa 6abd 29ff 5dbd 4dbc 243d 1a51 17bd
00000270: fd6f f33c fe5c 28bc 01c3 573d b5b1 dabc
00000280: 63b4 25bd 9511 e7bc 128b 77bc b510 353d
00000290: 79ee 68bd 9dae 53bd 37fd 423d ab57 35bd
000002a0: 7701 d0ba c839 453d 68d5 0c3d 81c2 07bc
000002b0: a927 653d e957 e13c 0e63 65bc de78 92bc
000002c0: 81b0 11bd f726 113d 6693 4c3d 900d b0bc
000002d0: 69e5 aebc bc32 213d 3470 08bd 0be6 1fbc
000002e0: 960a 2fbb 9dfa 013d 5f4c 8339 680d 2bbd
000002f0: 1edb 913b 7c8c 113b 5042 223c 6e72 6f3c
00000300: 48c0 dfbc 770a b5bc 9484 d83b 6148 4c3d
00000310: 0910 603b 17f0 98bb 8150 963c 9839 39bd
00000320: 1b9a f73c 5f90 c2bb 296f 0b39 9b0f 2c3d
00000330: 8936 3cbd 7049 2a3d 8149 08bd f358 5c3d
00000340: 0dc6 1d3b c464 4b3c a6bd 893b 61e8 6a3d
00000350: 3eda 153d 2951 0ebc 4778 e7bc 8e48 81bc
00000360: 235b 46bd ef5c e5bc 1b5c dfbc 3e76 e8bc
00000370: bd3f 803b 076f 6abd a0ea adbb 7ea5 4e3d
00000380: fa5b 2dbd b279 cd3c 875b 46bd 698b 783d
00000390: 82ff 4abd bd2f 06bd 6d3a b93c 079e db3a
000003a0: 24aa e1bb a45c 02bd 81a5 71ba 967d 6c3d
000003b0: 7e72 3bbc ed56 273d 96a2 0c3d 4ab5 c9bb
000003c0: 2734 31bd 7eb6 e6bc 4500 6ebd 7f28 e6bc
000003d0: cf39 f6bc 02d8 9dbc d0ec 063d 60f8 0bbd
000003e0: dde2 013d 4326 673d 676d 35bd bb82 873c
000003f0: 5c54 59bd f6f9 07bd 5390 0f3d 3961 33bd

conv3.bias f4 [16]
-0.054156747 -0.041490793 0.032122757 0.0038746335 0.058681842 -0.043827053 -0.03414917 0.018365782
0.03271504 0.028646227 -0.038651105 0.021564823 -0.007461559 0.023043197 0.052678596 0.034116674
00000000: 77d3 5dbd 40f2 29bd 2793 033d 90ed 7d3b
00000010: 5f5c 703d ff83 33bd 00e0 0bbd d673 963c
00000020: 3500 063d 7eab ea3c 9f50 1ebd b6a8 b03c
00000030: 1880 f4bb 16c5 bc3c 83c5 573d edbd 0b3d

norm3.weight f4 [16]
0.9999067 0.99918216 1.0000885 1.0005587 1.0001482 1.0003972 0.9995334 0.99917203
1.0004501 0.99969125 1.0000056 1.0004991 1.0002779 1.0003642 0.9995997 1.0004007
00000000: e3f9 7f3f 67ca 7f3f e602 803f 4f12 803f
00000010: db04 803f 040d 803f 6ce1 7f3f bdc9 7f3f
00000020: c00e 803f c4eb 7f3f 2f00 803f 5b10 803f
00000030: 1b09 803f ef0b 803f c4e5 7f3f 210d 803f

norm3.bias f4 [16]
0.00014496708 -0.00075919874 0.0004489455 0.0005627823 0.00010734348 0.00044622758 -0.000624395 -0.00048949814
2.6618509e-05 -0.00021785643 -7.3481e-05 0.00059184234 -5.2077605e-05 0.0005418445 -0.00020194039 0.0004929821
00000000: 4e02 1839 f704 47ba 7260 eb39 ae87 133a
00000010: 981d e138 a7f3 e939 70ae 23ba aa51 00ba
00000020: d04a df37 6470 64b9 d019 9ab8 de25 1b3a
00000030: e76d 5ab8 920a 0e3a f6bf 53b9 783b 013a

norm3.running_mean f4 [16]
-0.07633373 0.001378819 -0.050659988 0.29810676 -0.3495594 0.057705678 0.23558389 0.058312796
-0.26149353 0.45154393 -0.034710795 0.14658208 0.12921105 0.8811318 0.18637276 -0.16987792
00000000: dc54 9cbd 7db9 b43a d980 4fbd 73a1 983e
00000010: 73f9 b2be ca5c 6c3d e73c 713e 66d9 6e3d
00000020: 7be2 85be c430 e73e e82c 0ebd 9d19 163e
00000030: e74f 043e db91 613f 80d8 3e3e 7af4 2dbe

norm3.running_var f4 [16]
0.11780336 0.23323452 0.20664439 0.21164925 0.17606388 0.26861376 0.25370285 0.235842
0.4081905 0.39881495 0.30120683 0.16720279 0.510855 0.2111758 0.20716183 0.20425756
00000000: e342 f13d 08d5 6e3e 969a 533e 95ba 583e
00000010: 174a 343e be87 893e 57e5 813e 9180 713e
00000020: 58fe d03e 7931 cc3e c837 9a3e 3537 2b3e
00000030: 65c7 023f 783e 583e 3b22 543e e528 513e

lin1.weight f4 [64, 768]
-0.025399288 0.031883534 0.016577093 0.014229249 -0.033284146 0.0020785243 -0.0116924215 -0.030540053
0.002488924 0.024958258 0.03496527 0.019473527 0.028396778 -0.024928972 0.036265437 -0.0021334938
0.024970751 0.009440493 -0.025860025 -0.025036635 0.0062709083 0.015096243 -0.022770366 -0.00016663005
-0.029274065 -0.025016472 -0.012251681 0.036401626 0.009452784 -0.013555913 -0.014460454 -0.023202129
0.007962703 0.033743396 -0.018116344 -0.022189531 0.0277169 -0.015022931 0.018436862 -0.0068404926
-0.015965836 -0.018257312 0.012422733 0.016246235 0.014303591 0.023124225 0.026747188 0.013407129
-0.0032650803 -0.033114474 0.026036125 -0.018182592 0.03619987 0.028211983 0.0017976243 -0.021153994
0.03158119 0.028795075 -0.029635074 -0.004442151 -0.0057404093 -0.009678926 0.0033091418 0.009429585
0.019972421 -0.010454038 0.010495568 0.015634164 -0.034330018 -0.035148323 0.03209858 0.027621213
-0.0016869009 -0.004408013 -0.032567143 0.017699838 -0.004346616 0.030257476 -0.027383652 -0.01994987
0.016368978 0.023834696 -0.0039692223 -0.02613174 0.022211742 -0.010778629 -0.030496467 -0.03408239
-0.013104007 0.011273347 0.005522088 0.02020173 0.01774766 -0.004424443 0.029028744 0.0028522583
-0.021882826 0.013838994 0.017580805 -0.003566044 0.018937632 -0.0044269357 0.012532937 -0.032035682
0.035183184 0.028711399 0.019730065 0.012206007 0.00932078 -0.0056181373 0.0013954233 0.02166982
0.008536737 -0.01680454 -0.02868304 0.0035363548 -0.008512431 -0.0032899042 0.025891662 -0.015255726
-0.0157756 -0.016409824 -0.024940964 0.009662299 -0.006835125 -0.033090904 0.030260429 0.0038269234
0.021723382 0.033077564 0.004120092 -0.022014614 0.012314917 0.036192738 0.010683925 0.03362056
-0.02303383 -0.031227263 -0.023353813 0.010341076 0.027379502 0.022248013 -0.0181559 -0.03357848
-0.00485494 -0.0231977 0.0049378397 -0.0014998722 0.0030121242 -0.028403703 -0.0030766083 -0.035866514
-0.02752776 0.006852978 -0.022895265 -0.007915777 0.012884962 0.0028705976 0.010007623 0.014586515
0.0004374808 0.029163405 -0.016150149 -0.013962531 -0.027684476 -0.013793311 0.009802365 -0.029612927
-0.010684159 -0.0010835371 -0.006690554 0.013700047 -0.011888525 0.011777789 0.02631407 -0.03105105
-0.00226052 -0.017565263 -0.01717368 -0.008898176 0.016432684 0.020674704 0.031494085 0.008751303
0.03605747 -0.0061121513 0.031027537 0.016478438 0.02557422 0.0063973856 -0.021769151 0.01882666
0.02657784 0.005295163 0.019019337 -0.023567976 0.027073028 -0.013974599 -0.021149816 0.025897518
0.00036611385 0.010861162 0.02441303 0.028067226 -0.022596937 0.02787651 0.032149725 0.029157199
-0.027817892 -0.022904934 -0.00342731 -0.00666833 -0.010807267 0.01913694 -0.012835634 -0.019432198
-0.029390005 -0.016487004 0.007112009 -0.029169144 -0.0041100127 0.02143749 -0.02194126 0.0040401886
-0.0096609 0.022676336 -0.010494906 0.020727964 -0.02732864 0.0126928575 0.019209018 -0.014454764
-0.0037768732 0.018701266 -0.019006325 0.032703727 -0.0044566547 0.021559877 -0.031880375 -0.024342684
-0.027700871 0.00070170447 -0.020579884 -0.02404748 0.022145191 0.025571872 -0.010781202 -0.0042257598
0.03302364 -0.0053895684 -0.013734093 -0.000958613 0.001471331 -0.029287476 -0.009471692 0.014628196
00000000: 2b12 d0bc 4f98 023d afcc 873c cc21 693c
00000010: f554 08bd da37 083b 9291 3fbc 222f fabc
00000020: 371d 233b 4375 cc3c be37 0f3d f286 9f3c
00000030: 5ca0 e83c d837 ccbc 118b 143d 16d2 0bbb
00000040: 768f cc3c 4cac 1a3c 67d8 d3bc a119 cdbc
00000050: 317c cd3b 3b56 773c eb88 babc 6ab9 2eb9
00000060: 2ad0 efbc 58ef ccbc 46bb 48bc df19 153d
00000070: dadf 1a3c 9f19 5ebc 8aeb 6cbc 6412 bebc
00000080: ff75 023c 8436 0a3d ba68 94bc d2c6 b5bc
00000090: 8d0e e33c bd22 76bc e708 973c 3626 e0bb
000000a0: c9ca 82bc 5c90 95bc b888 4b3c d316 853c
000000b0: 9c59 6a3c 046f bd3c eb1c db3c 93a9 5b3c
000000c0: f5fa 55bb 0ba3 07bd b649 d53c a9f3 94bc
000000d0: 5146 143d d11c e73c 439e eb3a 244b adbc
000000e0: 475b 013d a6e3 eb3c 41c5 f2bc 778f 91bb
000000f0: 0b1a bcbb 5c94 1ebc 30de 583b 8c7e 1a3c
00000100: 349d a33c 6a47 2bbc 9af5 2b3c 3813 803c
00000110: a29d 0cbd b0f7 0fbd cd79 033d e245 e23c
00000120: 001b ddba 1871 90bb 2065 05bd 40ff 903c
00000130: 0f6e 8ebb 87de f73c ae53 e0bc e96d a3bc
00000140: 3c18 863c fb40 c33c 4010 82bb 3b12 d6bc
00000150: 66f5 b53c d998 30bc bad3 f9bc fa99 0bbd
00000160: 30b2 56bc d8b3 383c a2f2 b43b 197e a53c
00000170: 8a63 913c ebfa 90bb b0cd ed3c f4ec 3a3b
00000180: 9d43 b3bc f3bc 623c 9f05 903c 4ab4 69bb
00000190: 1823 9b3c d40f 91bb f356 4d3c d937 03bd
000001a0: 3e1c 103d 2b34 eb3c f2a0 a13c b4fb 473c
000001b0: 2fb6 183c 5a18 b8bb a3e6 b63a e884 b13c
000001c0: acdd 0b3c ada9 89bc b2f8 eabc 30c2 673b
000001d0: b977 0bbc 6f9b 57bb c01a d43c 27f3 79bc
000001e0: d53b 81bc e56d 86bc fe50 ccbc 9f4e 1e3c
000001f0: 2ff9 dfbb 548a 07bd b8e4 f73c 1fcd 7a3b
00000200: 3cf5 b13c 577c 073d d601 873b fe57 b4bc
00000210: 81c4 493c d63e 143d a10b 2f3c b6b5 093d
00000220: 71b1 bcbc 51d0 ffbc 7f50 bfbc 9e6d 293c
00000230: fa4a e03c 7741 b63c afbb 94bc 9789 09bd
00000240: 3016 9fbb 1a09 bebc 9acd a13b 5c97 c4ba
00000250: 0f67 453b e2ae e8bc eca0 49bb c4e8 12bd
00000260: e681 e1bc f28e e03b da8e bbbc 2db1 01bc
00000270: 731b 533c a320 3c3b 03f7 233c 47fc 6e3c
00000280: ae5d e539 18e8 ee3c 514d 84bc 1ac3 64bc
00000290: 8eca e2bc 57fd 61bc 199a 203c cf96 f2bc
000002a0: 9c0c 2fbc 7905 8eba 6f3c dbbb 2976 603c
000002b0: 17c8 42bc a1f7 403c 9b90 d73c c65e febc
000002c0: 3b25 14bb 07e5 8fbc d1af 8cbc a8c9 11bc
000002d0: d69d 863c ff5d a93c f1ff 003d a061 0f3c
000002e0: ffb0 133d 7148 c8bb 762d fe3c cafd 863c
000002f0: 0781 d13c 29a1 d13b 3855 b2bc 5e3a 9a3c
00000300: c5b9 d93c 0c83 ad3b 71ce 9b3c a111 c1bc
00000310: 41c8 dd3c b7f5 64bc 6142 adbc 0827 d43c
00000320: f8f2 bf39 04f3 313c d6fd c73c 3ded e53c
00000330: 361d b9bc 475d e43c 6eaf 033d 14db ee3c
00000340: 59e2 e3bc 21a3 bbbc b89c 60bb 0282 dabb
00000350: f710 31bc 12c5 9c3c 8d4c 52bc 4630 9fbc
00000360: 4fc3 f0bc c10f 87bc db0b e93b 21f4 eebc
00000370: 49ad 86bb ad9d af3c 28be b3bc 8f63 843b
00000380: c048 1ebc b9c3 b93c d4f2 2bbc b1cd a93c
00000390: 50e0 dfbc b4f5 4f3c 3b5c 9d3c add3 6cbc
000003a0: 6b85 77bb 6633 993c 27b3 9bbc 58f4 053d
000003b0: 2109 92bb 579e b03c ff94 02bd 4f6a c7bc
000003c0: f0ec e2bc 97f2 373a 2597 a8bc 39ff c4bc
000003d0: d569 b53c 1a7c d13c a4a3 30bc 3e78 8abb
000003e0: cc43 073d fa9a b0bb f604 61bc 6e4b 7bba
000003f0: add9 c03a 4aec efbc 282f 1bbc 1aab 6f3c

lin1.bias f4 [64]
0.008876797 -0.027754717 0.021032128 -0.0060225837 0.0010755026 -0.034480795 0.019640334 -0.013707319
0.0034930313 -0.0037605665 0.01683175 -0.00065226556 0.015520997 -0.0049166144 -0.02977538 0.03162711
0.018397616 -0.01701773 0.020485288 -0.024354678 -0.031311464 -0.03403843 -0.031601086 -0.027872324
0.019489786 -0.010811004 0.016432604 0.03212825 -0.027295524 -0.02601971 -0.002096986 -0.00826502
0.017656935 0.016250366 0.005721816 0.013315917 -0.023684338 -0.003630765 0.034091033 0.024324013
-0.024926236 -0.017610002 0.024539422 -0.035049483 0.0070614307 -0.025564048 0.029258335 -0.020989092
0.00036007326 -0.03064615 -0.018765634 -0.012338417 -0.035543837 0.016362006 0.032895416 -0.0012228457
0.000102788064 0.015310709 -0.0056044008 0.01730364 -0.026422903 0.00536123 0.030579668 0.02973458
00000000: fc6f 113c dc5d e3bc 924b ac3c 1859 c5bb
00000010: e1f7 8c3a bc3b 0dbd c4e4 a03c aa94 60bc
00000020: 57eb 643b d673 76bb bde2 893c cdfc 2aba
00000030: c84b 7e3c 8d1b a1bb 7feb f3bc 6e8b 013d
00000040: 99b6 963c c468 8bbc c3d0 a73c 7683 c7bc
00000050: 7340 00bd e16b 0bbd 2470 01bd 8054 e4bc
00000060: 0ba9 9f3c a320 31bc ab9d 863c e998 033d
00000070: dd9a dfbc 4927 d5bc 966d 09bb 026a 07bc
00000080: 47a5 903c 7d1f 853c 127e bb3b 012b 5a3c
00000090: a805 c2bc 21f2 6dbb 0aa3 0b3d 2743 c73c
000000a0: 1b32 ccbc da42 90bc e606 c93c 0c90 0fbd
000000b0: 9363 e73b b26b d1bc 2daf ef3c 51f1 abbc
000000c0: 37c8 bc39 a20d fbbc 63ba 99bc 1227 4abc
000000d0: 6a96 11bd 9d09 863c 58bd 063d e547 a0ba
000000e0: ec8f d738 c5d9 7a3c 1fa5 b7bb 5dc0 8d3c
000000f0: d874 d8bc 42ad af3b 3682 fa3c ef95 f33c

lin2.weight f4 [16, 64]
0.09878744 -0.019595644 0.01954071 0.12079568 0.07213857 0.0835804 0.047766276 0.09209257
0.055315483 -0.011922399 -0.058855895 0.037643626 0.12406552 -0.06909452 -0.12424329 0.041021843
-0.110932425 -0.071776085 0.04048268 -0.013233786 -0.099926375 -0.048934523 -0.10671522 0.04909692
0.122219 0.0026212921 -0.06754638 0.116560794 0.101686105 -0.09499331 0.052099753 0.0994808
-0.08990847 0.0955882 0.025460392 -0.10782542 -0.09595396 0.017856259 0.02934286 -0.12051429
-0.025626237 -0.110479794 0.017977064 0.096341215 0.019127358 -0.0027034788 -0.003073214 0.041093484
0.027074307 0.10864405 -0.066374354 0.025033766 0.06407629 -0.00050444074 -0.116290934 0.033491988
0.1017662 0.06131009 0.034464125 -0.09579143 -0.022966169 -0.098176636 0.05784574 -0.101157084
-0.07322694 -0.12141575 -0.056085885 0.054396093 -0.06774667 -0.063833594 0.07823947 -0.033743724
-0.071467936 0.03071858 -0.09524244 -0.0715536 0.11507143 0.02822882 0.088086456 -0.07634786
-0.105973706 -0.08430636 -0.10775946 -0.08494346 -0.02057898 -0.049275547 -0.086550534 0.043081045
-0.044178754 0.11328688 0.051038623 0.0068352222 -0.030935735 -0.12217572 -0.008853018 -0.023288056
0.06499572 -0.007145226 -0.10268724 0.03887807 -0.032211974 0.10182384 0.050655246 -0.023045972
0.081510454 -0.09661943 0.07024078 -0.044175923 -0.06873515 -0.062388346 -0.12490861 -0.026820704
0.08217913 0.011517882 0.03185028 -0.09155084 0.07766642 -0.101222634 -0.07194081 0.012260273
-0.08503047 0.10714124 0.0582629 0.07258956 -0.025444642 0.07759552 -0.022838831 0.04945588
-0.08994853 -0.076592244 0.08356666 0.09319399 -0.08991533 0.08698276 -0.044563953 -0.08083765
0.0049049314 0.08155134 -0.025868185 -0.040630538 0.07836162 -0.0591711 0.004455406 -0.041629266
0.11274596 -0.047261726 0.0534449 0.0021087937 -0.04960162 0.082580954 0.07592625 -0.06762717
0.023619715 0.08913767 0.050560184 0.08996152 0.0021724063 0.0016121878 0.10275542 0.03891193
0.019238936 0.11579975 0.013021335 -0.03822228 0.122119084 0.015456175 0.05410292 0.07738033
-0.06543276 -0.07498944 0.051062573 -0.06867766 -0.0640918 0.031048736 0.043228015 -0.018958792
-0.075676315 -0.03727636 0.019655276 0.021430168 -0.07992266 -0.10103363 0.03005913 0.021338964
0.094073914 0.122263886 -0.05841663 -0.03060957 0.069996215 -0.04797517 0.052727994 -0.06811648
0.009443065 0.111142255 -0.09707617 0.10214353 -0.034565978 -0.12069295 0.0063669872 0.10189781
-0.039409533 0.021573132 -0.051404256 0.109252155 0.07239082 0.105998635 -0.05071928 0.011001299
-0.09054326 -0.100092635 0.07812379 0.035499264 0.09714618 -0.052708283 0.061364815 -0.12013288
-0.050732605 -0.0171183 -0.06451022 0.08679669 -0.08816154 -0.08206164 0.054716095 0.04325417
-0.08779229 0.08043661 -0.04196699 0.002593655 0.01639757 -0.09508319 0.1000965 0.1185881
0.035370972 0.016598707 -0.017505268 -0.03184151 -0.06519385 0.00366833 0.07223734 -0.089002304
-0.017266575 -0.059081767 0.05215249 -0.0047824937 -0.018527636 0.079409935 0.06496176 -0.01405022
0.09277746 -0.113282554 0.08834146 0.049518608 -0.045484368 0.08563361 0.052953444 -0.043916173
00000000: 1251 ca3d 0b87 a0bc d713 a03c ba63 f73d
00000010: 63bd 933d 332c ab3d 92a6 433d 089b bc3d
00000020: 7d92 623d 2a56 43bc e112 71bd 3430 1a3d
00000030: 1016 fe3d 6d81 8dbd 4473 febd 8506 283d
00000040: 8a30 e3bd 57ff 92bd 2bd1 253d 86d2 58bc
00000050: 33a6 ccbd 916f 48bd 828d dabd da19 493d
00000060: f44d fa3d fcc9 2b3b c255 8abd 6db7 ee3d
00000070: ce40 d03d da8b c2bd 8d66 553d 97bc cb3d
00000080: ef21 b8bd bfc3 c33d 5092 d03c 93d3 dcbd
00000090: 8383 c4bd 4a47 923c 7060 f03c 32d0 f6bd
000000a0: 1dee d1bc 3b43 e2bd a344 933c 8b4e c53d
000000b0: fab0 9c3c d92c 31bb fa67 49bb a451 283d
000000c0: f0ca dd3c c680 de3d 47ef 87bd 9d13 cd3c
000000d0: 6e3a 833d 723c 04ba f129 eebd e52e 093d
000000e0: cc6a d03d 4a20 7b3d 412a 0d3d 4c2e c4bd
000000f0: 8c23 bcbc d510 c9bd a8ef 6c3d 722b cfbd
00000100: 02f8 95bd d2a8 f8bd 50ba 65bd 70ce 5e3d
00000110: c4be 8abd 30bb 82bd 043c a03d dc36 0abd
00000120: c85d 92bd 88a5 fb3c 780e c3bd b28a 92bd
00000130: 92aa eb3d 2040 e73c ac66 b43d 445c 9cbd
00000140: be08 d9bd d0a8 acbd feb0 dcbd d6f6 adbd
00000150: 4095 a8bc 28d5 49bd 6841 b1bd c075 303d
00000160: c8f4 34bd f402 e83d e00d 513d 00fa df3b
00000170: f06c fdbc 4437 fabd 400c 11bc 98c6 bebc
00000180: 7a1c 853d 8022 eabb b04d d2bd 9c3e 1f3d
00000190: b4f0 03bd 0489 d03d e07b 4f3d e8ca bcbc
000001a0: f4ee a63d 68e0 c5bd 66da 8f3d d0f1 34bd
000001b0: 04c5 8cbd ec8a 7fbd 16d0 ffbd 18b7 dbbc
000001c0: 884d a83d 80b5 3c3c 7075 023d 027f bbbd
000001d0: 920f 9f3d d04d cfbd b455 93bd 50df 483c
000001e0: 7424 aebd de6c db3d 14a5 6e3d d6a9 943d
000001f0: 4871 d0bc 66ea 9e3d 8018 bbbc 4092 4a3d
00000200: ef36 b8bd 65dc 9cbd ff24 ab3d 7edc be3d
00000210: 8725 b8bd 0424 b23d b188 36bd 368e a5bd
00000220: 8cb9 a03b 6404 a73d 84e9 d3bc 356c 26bd
00000230: 0f7c a03d 655d 72bd a8fe 913b 7383 2abd
00000240: 5be7 e63d 8395 41bd 0ae9 5a3d b033 0a3b
00000250: 112b 4bbd 3420 a93d 397f 9b3d 1d80 8abd
00000260: 227e c13c d08d b63d 3218 4f3d bf3d b83d
00000270: ee5e 0e3b 0c50 d33a 6f71 d23d 1e62 1f3d
00000280: f99a 9d3c 6b28 ed3d 7057 553c f78e 1cbd
00000290: 9219 fa3d e63b 7d3c 069b 5d3d 9479 9e3d
000002a0: 9c01 86bd 1094 99bd fd26 513d dfa6 8cbd
000002b0: 9042 83bd eb59 fe3c dc0f 313d 784f 9bbc
000002c0: 2ffc 9abd 19af 18bd 1a04 a13c 528e af3c
000002d0: 7eae a3bd b8ea cebd 913e f63c 0dcf ae3c
000002e0: d3a9 c03d 7d65 fa3d 4746 6fbd ecc0 fabc
000002f0: 2d5a 8f3d 9d81 44bd 4ff9 573d a780 8bbd
00000300: 16b7 1a3c 8d9e e33d dfcf c6bd a130 d13d
00000310: 0e95 0dbd de2d f7bd 29a2 d03b cdaf d03d
00000320: e46b 21bd 23ba b03c 458d 52bd 98bf df3d
00000330: a341 943d d015 d93d 05bf 4fbd cb3e 343c
00000340: bf6e b9bd 5efd ccbd 5eff 9f3d ad67 113d
00000350: 94f4 c63d a4e4 57bd ac59 7b3d 3a08 f6bd
00000360: fecc 4fbd ad3b 8cbc ef1d 84bd 77c2 b13d
00000370: 0a8e b4bd ef0f a8bd fc1d 603d 492b 313d
00000380: 72cc b3bd f3bb a43d 94e5 2bbd 4ffa 293b
00000390: 3254 863c faba c2bd 65ff cc3d 51de f23d
000003a0: 27e1 103d 03fa 873c 3567 8fbc 3e6c 02bd
000003b0: 5a84 85bd 5d68 703b 2cf1 933d d746 b6bd
000003c0: a272 8dbc b9ff 71bd d99d 553d 77b6 9cbb
000003d0: 45c7 97bc ada1 a23d ac0a 853d e532 66bc
000003e0: 1c02 be3d af00 e8bd 5eec b43d 06d4 4a3d
000003f0: d14d 3abd ad60 af3d b6e5 583d 72e1 33bd

lin2.bias f4 [16]
0.006721904 -0.102342814 0.028755108 0.11096829 -0.03104406 -0.04265498 -0.10367394 0.07825221
-0.039981723 -0.033143673 0.08213389 -0.009136197 -0.06912861 0.12530151 -0.10946116 0.034040593
00000000: 6b43 dc3b 1c99 d1bd d58f eb3c 5843 e33d
00000010: 1d50 febc fdb6 2ebd 0153 d4bd b242 a03d
00000020: e0c3 23bd a9c1 07bd d035 a83d fdaf 15bc
00000030: 4d93 8dbd 0a4f 003e 2c2d e0bd 266e 0b3d

lin3.weight f4 [3, 16]
-0.13048822 -0.20091304 -0.012228981 0.20445968 0.08193037 -0.10940118 0.04688781 0.2223848
-0.12822278 -0.15090217 0.16074103 -0.13048916 -0.15037732 -0.12589115 0.1887803 0.2185437
0.058747552 -0.04702562 -0.15789172 -0.20240766 -0.227137 -0.08130155 -0.23079883 -0.1243077
-0.16416954 0.1190484 -0.23412251 -0.09022276 0.19225568 0.064815044 -0.035195563 0.14251076
0.20698474 -0.18650195 0.20533518 0.08449877 -0.24962923 0.06055536 0.1484057 0.20797735
-0.07598174 -0.22621104 0.016209573 0.116989836 -0.21301597 -0.13449807 0.06417912 -0.118411034
00000000: b49e 05be 26bc 4dbe 105c 48bc e15d 513e
00000010: 1ccb a73d ba0d e0bd 6f0d 403d d7b8 633e
00000020: d54c 03be 1986 1abe 4c99 243e f39e 05be
00000030: 83fc 19be 9ce9 00be 9f4f 413e ebc9 5f3e
00000040: 46a1 703d f09d 40bd 5eae 21be f443 4fbe
00000050: 9a96 68be 6d81 a6bd 8756 6cbe 0995 febd
00000060: 0f1c 28be a6cf f33d d0bd 6fbe b6c6 b8bd
00000070: acde 443e c0bd 843d 3929 10bd 57ee 113e
00000080: cff3 533e 5efa 3ebe 6343 523e b10d ad3d
00000090: ce9e 7fbe e608 783d aaf7 173e 04f8 543e
000000a0: 519c 9bbd dea3 67be f0c9 843c 5e98 ef3d
000000b0: dc20 5abe ddb9 09be 5870 833d 7c81 f2bd

lin3.bias f4 [3]
0.14512193 -0.14712842 0.09250128
00000000: d89a 143e d5a8 16be 5071 bd3d
