dagger_models/model_0.pth (torch, 231749 bytes, 24 tensors)

conv1.weight f4 [4, 1, 5, 5]
00000000: 401c 44be 8c25 27bd f24b b33d 4086 1ebe
00000010: 52ac cc3d 3dbd 493e c0fc 81bd 690d 043e
00000020: 995b 413e 9878 5dbd 35d7 1bbe 300c 7a3c
00000030: e3ed 34be 79bc 0b3e 5910 2c3e a059 25bd
00000040: 8337 0c3e dd34 acbd 0bf1 10be 9097 29be
00000050: f700 b9bd afbf 35be d02a 3cbc 2c7c 0ebd
00000060: a034 17bc 87c0 f1bd a292 d23d 0f83 49be
00000070: e24c 953d 2a8f dc3d 687f c63c 0017 a93b
00000080: 7d2d 17be 69eb 113e 4038 b63c 5bd4 493e
00000090: 0e36 f03d 0fe2 3cbe 2443 6f3d fa87 f83d
000000a0: b575 233e 258a 3a3e 1641 05be 2bfa 263e
000000b0: 7762 e5bd 0c85 42bd b7d4 32be d8c6 32bd
000000c0: 28bd 19be a38b 383e 54c3 463d 22ce f83d
000000d0: 8c7d 3abd 30bc b4bd 009f 873a c4c1 533d
000000e0: cc82 93bd 4280 25be 1167 1e3e 3ab0 26be
000000f0: fd1d f0bd d0a8 483c 6ae7 30be 02e2 2abe
00000100: 5b3e 40be e446 723d e9f8 293e 8396 0dbe
00000110: 0a15 e33d 22c4 823d c0b0 32bb 7417 67bd
00000120: e1a9 353e 4d02 17be 6253 803d 63af a3bd
00000130: d892 c3bc 00e6 023c f2dc b93d 8245 af3d
00000140: 1dff 03be 27b0 b6bd 697c 393e 692c 273e
00000150: 2c8b 573d fdc0 2d3e f0e5 0cbe 15d3 33be
00000160: 47f4 d4bd f3cb cabd 602d c8bb 16e0 eb3d
00000170: f081 e53c 5d87 42be bc4e 733d 8323 1e3e
00000180: 781f 77bd 8435 6c3d df9c 1d3e e89b 41be
-0.19151402 -0.040807292 0.0875472 -0.154809 0.09993805 0.19701095 -0.06347036 0.1289574
0.18882598 -0.054070085 -0.15218814 0.015261695 -0.17668872 0.13646115 0.16803111 -0.040368676
0.13693051 -0.0840852 -0.1415445 -0.16561723 -0.09033387 -0.17748903 -0.011484817 -0.03478639
-0.009228855 -0.118043 0.10281874 -0.19678901 0.07290055 0.10769494 0.024230674 0.0051602125
-0.14763446 0.14249958 0.022243619 0.19709913 0.1172906 -0.1844561 0.05841364 0.121353105
0.1596287 0.1821676 -0.1301311 0.16306369 -0.11200421 -0.047490165 -0.17463957 -0.043646663
-0.15013564 0.18022017 0.048526123 0.12148692 -0.045529887 -0.088249564 0.0010347068 0.05169846
-0.07202682 -0.16162208 0.15469004 -0.16278163 -0.1172447 0.012247279 -0.17275777 -0.16687778
-0.18773787 0.059149638 0.16598858 -0.13826947 0.11087997 0.063850656 -0.0027265996 -0.05641885
0.17740585 -0.14746971 0.06265904 -0.07992437 -0.023873731 0.007989407 0.09075345 0.085581794
-0.12890287 -0.08920317 0.18113865 0.16325535 0.05262296 0.1696815 -0.13759589 -0.1756099
-0.10398155 -0.099021815 -0.0061089247 0.115173504 0.02801606 -0.1899695 0.05940126 0.15443234
-0.060332745 0.057668224 0.15391873 -0.1890713

conv1.bias f4 [4]
00000000: 4a8e 06be f48f 5bbd 6da6 e2bd 873c 3dbe
-0.13140216 -0.05360408 -0.110668994 -0.1848012

norm1.weight f4 [4]
00000000: 0000 803f 0000 803f 0000 803f 0000 803f
1.0 1.0 1.0 1.0

norm1.bias f4 [4]
00000000: 0000 0000 0000 0000 0000 0000 0000 0000
0.0 0.0 0.0 0.0

norm1.running_mean f4 [4]
00000000: 0000 0000 0000 0000 0000 0000 0000 0000
0.0 0.0 0.0 0.0

norm1.running_var f4 [4]
00000000: 0000 803f 0000 803f 0000 803f 0000 803f
1.0 1.0 1.0 1.0

conv2.weight f4 [8, 4, 5, 5]
00000000: dc9f 0dbd b04a 68bc d067 493c a46d dd3c
00000010: a37f 49bd 6079 1a3b 8b17 c43d 948c 9cbc
00000020: 135c c7bd 2101 b13d d87a c8bd e8ce 703c
00000030: d314 35bd ac22 8cbd a030 a23b 56bc 793d
00000040: 2a71 413d 17a2 b23d 1da6 abbd c92f a73d
00000050: d0f6 6bbc 182d 53bc 6cf8 a4bc ba61 6b3d
00000060: 5790 923d 1d70 a1bd fd91 9abd d6bd 9ebd
00000070: 2c14 82bd d415 963c a04e 2bbb b50d 8d3d
00000080: 60ae 683b a272 6c3d 4061 79bd 919d b43d
00000090: e0e3 acbb 2bf1 9b3d bd63 71bd 142f f7bc
000000a0: 27db 5abd 2aad 36bd c238 723d 0025 573c
000000b0: 2506 a73d da97 3cbd 5666 0cbd ad86 50bd
000000c0: f380 813d 22d4 553d 0994 873d d0f4 6fbc
000000d0: 020e 2b3d ac7d d03c 62b2 403d 6a19 533d
000000e0: 73a4 c6bd 8c34 83bc acec 9d3c 6274 7e3d
000000f0: bd1d aabd a0bf d7bb f800 d8bc 75aa 903d
00000100: 0063 beb9 d072 5fbd 9098 6ebd 1b49 cbbd
00000110: 6280 453d 8b6f 893d 6475 cd3c 5081 cbbd
00000120: 6cac f03c 3237 99bd b097 8c3b 741d a03c
00000130: 93f3 a4bd 864f 173d dee1 353d 1479 ec3c
00000140: 8973 c63d 8ef4 643d 3047 3e3c 388f a7bc
00000150: 3661 a7bd 08f7 bd3c 43ab 38bd 50e3 2fbc
00000160: dd48 3fbd 6dc3 a83d e08e b23c 68a0 45bc
00000170: eba9 b23d 7aaf 88bd 9043 4ebd aa63 15bd
00000180: cf24 8b3d 00ef 9ebc ca5d 37bd a07f 2c3b
00000190: e234 88bd 3a13 acbd dba9 90bd d06e f13b
000001a0: da3d 72bd 6945 9b3d 4c4b c63c e9a3 b43d
000001b0: 3eda 503d 5af7 94bd 0ec1 5e3d 5a16 64bd
000001c0: b4c1 01bd 3aa4 23bd 75ac 933d 41bb a23d
000001d0: ba72 793d b349 b8bd 3aa1 c2bd ba64 7ebd
000001e0: 2360 aebd f01e 64bd 1bd6 a83d 1440 c0bc
000001f0: e2f3 7a3d a0fb 47bd 4380 cb3d 4064 5fbb
00000200: 0207 023d 2fa9 983d c28f c2bd 378d 1bbd
00000210: 509b 90bb 00f4 bb3b 7ecc 433d fd70 b23d
00000220: 1ed0 133d 404e 0f3b 00ac cd3b 03d9 26bd
00000230: c065 d2bc 66cd 15bd 7312 6fbd ed16 9a3d
00000240: 2e98 81bd e809 d0bc 00c0 163a ee7a 9cbd
00000250: f241 87bd fa54 05bd 3acf b4bd e8ed 81bd
00000260: 18df 7dbc 862b 763d 05df b03d b676 0abd
00000270: 17b3 8f3d 70e3 79bc 8518 89bd 369a 0e3d
00000280: 30ed a9bb f933 933d 8029 b8bc 122b 303d
00000290: 595f c43d b4a8 b83c 1500 95bd 0a8b 693d
000002a0: 273e 883d 6c40 b4bc 5055 7dbc 394e 8f3d
000002b0: b2d7 583d 580e 303c 98b6 93bd a015 1fbb
000002c0: b665 9ebd cd67 54bd 9400 bc3c 2e2f 0a3d
000002d0: f64b 6c3d 4085 6abc 5455 973c accd b7bc
000002e0: 4a35 67bd 4a65 6fbd e0b8 e0bc e32a 6bbd
000002f0: bfe2 b1bd ca9b 773d 06bc 163d fab5 95bd
00000300: ebd4 93bd e785 853d e47b f63c 764a 003d
00000310: 843f db3c a3ee 5ebd 58bc 2c3c 8031 87ba
00000320: 81b6 943d 9dda 843d b998 a93d 00a1 823b
00000330: 1bb6 c63d 32f0 7c3d f34e b63d 911d 983d
00000340: 2b9d 9f3d 5d58 863d 4eb7 6d3d c269 0d3d
00000350: 0007 da3b 07cd ca3d 043a d83c 225d 323d
00000360: 60f8 a0bd e0ca fcbc 4410 e33c b202 c0bd
00000370: 5492 ebbc b025 8ebb b08c 01bc 5f4f ae3d
00000380: d7cb 70bd 8462 82bd 8d70 c3bd f0d4 4abd
00000390: fa54 083d d48b d7bc 0060 7abb 6c58 a4bc
000003a0: 664b 783d 82b0 283d 003e c7b9 72b3 a0bd
000003b0: 5b72 9bbd e019 fe3b 1da6 69bd 060a 193d
000003c0: a6a8 183d bd5a 3abd 04ed d73c cef1 3e3d
000003d0: beab 86bd c3d3 c2bd eaa5 96bd 46d2 12bd
000003e0: 1012 10bc ed46 21bd c56f a13d 8bb9 b6bd
000003f0: baf1 9bbd f69f 383d 795e 8c3d a8a5 703c
-0.034576282 -0.014177963 0.012292817 0.02702982 -0.04919399 0.002357088 0.09574803 -0.019110002
-0.09734359 0.086427934 -0.097890556 0.014697768 -0.044209313 -0.06842551 0.004949644 0.060970627
0.047227062 0.087223224 -0.08381293 0.08163411 -0.014402106 -0.012889169 -0.020137988 0.057466246
0.07156437 -0.07882712 -0.07547376 -0.07751052 -0.06351504 0.018320955 -0.0026139393 0.0688738
0.0035504326 0.05772651 -0.06088376 0.08819116 -0.0052761883 0.076143585 -0.05893301 -0.030173816
-0.053431656 -0.044598736 0.05913616 0.01313138 0.08155469 -0.046043254 -0.034277283 -0.050909687
0.06323423 0.05220426 0.06620032 -0.01464577 0.041761406 0.02545055 0.04704512 0.05153791
-0.09699335 -0.016016267 0.019277893 0.06212271 -0.083064534 -0.006584123 -0.02636765 0.07063762
-0.00036313385 -0.054552853 -0.058250964 -0.09926053 0.04821814 0.06710728 0.02508039 -0.09936774
0.029379092 -0.07481231 0.0042905435 0.019545294 -0.080542706 0.036941074 0.044404857 0.028866328
0.09690005 0.055897288 0.011613652 -0.020454034 -0.081728384 0.023189083 -0.045085203 -0.010735348
-0.046700347 0.082403995 0.021796644 -0.01206217 0.087238155 -0.066740945 -0.0503574 -0.036472
0.0679413 -0.019401073 -0.04476718 0.0026321188 -0.066507116 -0.08402105 -0.07063647 0.007367946
-0.059141017 0.07581598 0.024205826 0.08820326 0.050989382 -0.07273741 0.05438333 -0.05568538
-0.03167887 -0.03995154 0.07210628 0.07945872 0.060900427 -0.08998432 -0.09503408 -0.06210778
-0.085144304 -0.055693567 0.082439624 -0.023468055 0.06126774 -0.048823953 0.09936573 -0.0034086853
0.031744964 0.07454144 -0.09500076 -0.03797647 -0.004413046 0.005735874 0.04780244 0.08712957
0.036087148 0.002186671 0.0062766075 -0.040734302 -0.025683284 -0.036572836 -0.058367204 0.07523904
-0.06327854 -0.025395349 0.0005750656 -0.076406345 -0.06604375 -0.032551743 -0.08828588 -0.06344205
-0.015495084 0.0601001 0.086362876 -0.033804618 0.070165806 -0.015251979 -0.0669413 0.034815036
-0.0051857457 0.07187647 -0.022480726 0.043009825 0.095884986 0.022541381 -0.07275406 0.057017364
0.066524796 -0.022003375 -0.015462235 0.06997342 0.052940078 0.010745607 -0.07212561 -0.0024274364
-0.077342436 -0.051856805 0.022949494 0.0337364 0.05768963 -0.014313996 0.018473305 -0.02243694
-0.056447305 -0.058446206 -0.027431905 -0.057413947 -0.086858265 0.060451306 0.036800407 -0.073101
-0.07218345 0.065196805 0.030088373 0.03132101 0.026763685 -0.0544268 0.0105429515 -0.0010314435
0.07261372 0.0648701 0.08281083 0.003986478 0.097027026 0.061752506 0.08901777 0.07427514
0.07793649 0.06559823 0.05803614 0.034524687 0.0066536665 0.09902387 0.026394852 0.04354585
-0.07859874 -0.030858457 0.027717717 -0.09375514 -0.028756298 -0.004337989 -0.007907078 0.085112326
-0.058788147 -0.063664466 -0.09542952 -0.04951948 0.033284165 -0.026311792 -0.0038204193 -0.020061694
0.06061878 0.041183956 -0.0003800243 -0.078467265 -0.07590171 0.0077545494 -0.057043184 0.037363075
0.03727021 -0.04549669 0.026358135 0.04661732 -0.06575726 -0.095130466 -0.07355864 -0.035845064
-0.008793369 -0.03937428 0.078826465 -0.08922108 -0.07614465 0.045074426 0.06853957 0.014687933

conv2.bias f4 [8]
00000000: 765b 6c3d 10b7 99bd 0364 a63d b6b6 8cbd
00000010: 79b9 923d a880 353c 4a4d 093d 54d8 05bd
0.05770441 -0.075056195 0.081245445 -0.06870787 0.07164282 0.011078037 0.033520974 -0.03267701

norm2.weight f4 [8]
00000000: 0000 803f 0000 803f 0000 803f 0000 803f
00000010: 0000 803f 0000 803f 0000 803f 0000 803f
1.0 1.0 1.0 1.0 1.0 1.0 1.0 1.0

norm2.bias f4 [8]
00000000: 0000 0000 0000 0000 0000 0000 0000 0000
00000010: 0000 0000 0000 0000 0000 0000 0000 0000
0.0 0.0 0.0 0.0 0.0 0.0 0.0 0.0

norm2.running_mean f4 [8]
00000000: 0000 0000 0000 0000 0000 0000 0000 0000
00000010: 0000 0000 0000 0000 0000 0000 0000 0000
0.0 0.0 0.0 0.0 0.0 0.0 0.0 0.0

norm2.running_var f4 [8]
00000000: 0000 803f 0000 803f 0000 803f 0000 803f
00000010: 0000 803f 0000 803f 0000 803f 0000 803f
1.0 1.0 1.0 1.0 1.0 1.0 1.0 1.0

conv3.weight f4 [16, 8, 6, 6]
00000000: 4065 edba d04e e5bc 80fa bcb9 0887 6dbc
00000010: fd79 373d 3241 b33c 488b c23b e619 f93c
00000020: 8490 3dbd 7215 ebbc 1630 03bd 08a1 6dbd
00000030: 10e2 d5bb 9556 00bd 5cb9 3cbd d68e b93c
00000040: 7e26 99bc 9831 ddbc 2c8c 93bc a985 0a3d
00000050: 18eb 88bc ca2b 4abd 64c3 4e3c 2073 e3ba
00000060: 3be7 553d 712a 2b3d d78d 2b3d 754f 71bd
00000070: 00bc 03b9 2f2d 603d 8886 06bd c6ae 20bd
00000080: a54c 5c3d a8c2 b43b c00c aa3a 6829 4bbd
00000090: e718 423d 9a1c 27bd 380d 0bbd a06c 59bc
000000a0: ecef 6cbd a701 58bd 951f 093d b684 9e3c
000000b0: ac32 08bc 7b6e 143d fa99 d13c 6da4 6d3d
000000c0: 6324 f3bc f253 8cbc ad24 ffbc 0679 b93c
000000d0: 3071 aabb 8456 413c a0ad 2dbd b076 b9bc
000000e0: 7f4f 233d 7718 f8bc 12ef ffbc ff41 6a3d
000000f0: 714b 13bd f2fd a9bc 6e3c 06bd cd7e 1c3d
00000100: 54ce 20bd 7dcb 473d 4507 383d 222a c63c
00000110: ce5f c03c 500f 683b 6e00 a7bc 4d06 6d3d
00000120: d20e e5bc a6de b73c 2dce 0e3d 0890 16bc
00000130: cc01 01bd c44a 283c 4009 c3bc bdad 0b3d
00000140: 5348 673d a502 263d b065 3bbc 7793 223d
00000150: 5292 bc3c 775b 583d 3e5d 53bd 8d5c 383d
00000160: fe38 d0bc 038e 543d e814 80bc 80f2 a3bc
00000170: 49f8 e6bc 3425 3fbd 56e3 c5bc 528d ba3c
00000180: 20c3 f3bb 608b e73a 8ea5 e93c c68b 0bbd
00000190: 01f4 19bd 7843 2dbd 2d70 643d 4f46 6b3d
000001a0: d296 c83c 6037 adba 13c6 6f3d 4034 baba
000001b0: ee4b a73c 6763 423d bc4e 013c fc6f 97bc
000001c0: 40d6 fbba 938a ffbc 40d0 5bbb 00f7 593b
000001d0: 47c9 4e3d 5334 433d ec09 6f3c da77 a0bc
000001e0: c537 71bd ca86 abbc 52b8 39bd cb3b 5dbd
000001f0: 4564 57bd c09d 653a 9f3c 52bd d640 ccbc
00000200: 4008 b3ba 1882 94bc 6c7c 26bd 14d2 713c
00000210: 1bb0 473d 6217 9c3c 1978 0c3d c0f3 dabc
00000220: 9bc7 4d3d 1945 643d 488b abbb 717c 6e3d
00000230: ae17 d23c ca31 c93c 652e 673d 0879 76bc
00000240: ee87 a23c 8300 0a3d 7ae1 e53c 4aac 15bd
00000250: dbf7 293d 3c55 6f3c 7b0b 6bbd 8951 693d
00000260: a602 9b3c 794a 0c3d eac2 bebc 212b 183d
00000270: 7ea9 40bd 9392 06bd 57d6 1f3d 40e1 55bc
00000280: d847 0bbd c0e6 413b 001c f3bb 00f1 543b
00000290: 0261 d93c d101 603d 943c 1bbd 6364 2e3d
000002a0: a83d 953b aa42 ccbc b6b7 14bd 9924 213d
000002b0: 295b 2f3d 88d1 cb3b e6bb b5bc baf1 d9bc
000002c0: 43a4 4f3d 27ee 6e3d 2b62 1d3d 44f8 543c
000002d0: 04a1 193c b086 71bb c8e5 d6bb d00f 533b
000002e0: 7f0a 3a3d ed7b 303d 21c6 fdbc 75c3 3cbd
000002f0: c08f a7bc 5f58 343d b615 ae3c 1fed 37bd
00000300: 007b 33bc ed54 5f3d 7cbd 7fbc 42b4 e73c
00000310: c622 933c d497 1bbc bce8 b3bc 980d e93b
00000320: c80a dfbc bd18 3c3d 00fc 0bb9 0235 94bc
00000330: edd5 ffbc 582e f63b f6b8 43bd 4f60 343d
00000340: 8e09 8f3c c3bd 58bd 00f0 b5ba 0213 b53c
00000350: 8ba4 4dbd 37dd 4c3d 2148 4bbd aaec a63c
00000360: 3513 30bd 1a58 c1bc 1c23 6fbd 8254 63bd
00000370: 80d8 03bd 1cde 0dbd 7fb3 533d 8641 fd3c
00000380: 38c8 44bd cf71 39bd 50ad 04bb daeb 36bd
00000390: c3c2 53bd d4f9 45bd f8c0 1ebc 4499 58bd
000003a0: fd4b 183d 38d3 c03b c642 ca3c 8013 4e3b
000003b0: b5a3 143d 4fde 173d d215 a0bc 00f9 22bd
000003c0: f763 e5bc e491 30bd 0082 97ba 3c7c 31bd
000003d0: 4748 34bd 90a0 9bbb 360a 48bd c773 693d
000003e0: 7810 34bc e735 3a3d e0ca 343b 2f86 283d
000003f0: 6841 1bbc 6893 c83b e81d e23b 3835 6ebc
-0.001811184 -0.027991682 -0.0003604479 -0.014497526 0.04479407 0.021881673 0.005937014 0.030407857
-0.0462804 -0.02869675 -0.03202828 -0.0580149 -0.006527193 -0.03133257 -0.04607521 0.022651117
-0.018695112 -0.027001187 -0.018011175 0.033818875 -0.016713664 -0.049358167 0.012619827 -0.0017353036
0.05222247 0.041788522 0.041883316 -0.058913667 -0.00012563169 0.05473059 -0.032843143 -0.039229177
0.05378403 0.005516369 0.001297377 -0.049600035 0.04738703 -0.04079876 -0.033948153 -0.013270527
-0.057845995 -0.05273595 0.033477385 0.01935039 -0.008312862 0.036238175 0.025586117 0.058018137
-0.029680436 -0.017129872 -0.031145418 0.022640716 -0.0052014813 0.011800412 -0.04240191 -0.022639602
0.039870735 -0.030285103 -0.031241927 0.057191845 -0.03596062 -0.020750973 -0.032772474 0.038206864
-0.03925927 0.048778046 0.044928808 0.024190012 0.023483183 0.0035409518 -0.020385947 0.057867337
-0.027961168 0.022445034 0.034864593 -0.009189613 -0.031495854 0.010271732 -0.023808122 0.034101237
0.056465458 0.040529866 -0.011437818 0.039691415 0.02301899 0.052821603 -0.051602595 0.04501014
-0.025417801 0.051893245 -0.015634969 -0.020013094 -0.028194563 -0.04666634 -0.024156254 0.022772465
-0.007439032 0.0017665438 0.028521325 -0.034068845 -0.037586216 -0.04230067 0.05577104 0.0574401
0.02448598 -0.0013215356 0.058538508 -0.0014206246 0.020421948 0.04745808 0.007892307 -0.018486015
-0.0019213632 -0.031194007 -0.0033540875 0.0033258796 0.05048492 0.047657322 0.014589768 -0.0195884
-0.058891077 -0.020938296 -0.045341797 -0.0540121 -0.05258586 0.00087591633 -0.051327344 -0.02493326
-0.0013659075 -0.01812844 -0.040646 0.014759559 0.04875193 0.019054119 0.03429422 -0.026727557
0.050239187 0.05572996 -0.0052351095 0.058224145 0.025646057 0.024559874 0.05644073 -0.015043505
0.019840207 0.033691894 0.028061617 -0.03654126 0.04149614 0.014607724 -0.057383996 0.056962524
0.018922161 0.03425071 -0.023286302 0.037150506 -0.04703664 -0.032854628 0.03902277 -0.013054192
-0.034004062 0.0029587 -0.0074191093 0.003249228 0.026535515 0.054689232 -0.03789957 0.042576205
0.004554469 -0.024934132 -0.036308013 0.039341543 0.042811546 0.0062200464 -0.022184324 -0.026604522
0.05069376 0.05833259 0.0384237 0.012998644 0.009376768 -0.0036853962 -0.006558154 0.003220547
0.045420166 0.043086935 -0.030978264 -0.04608484 -0.020454288 0.04402959 0.021250587 -0.04490387
-0.010954618 0.05452435 -0.015609141 0.028284196 0.017960917 -0.009496648 -0.021961562 0.007112216
-0.02722682 0.04592203 -0.0001334995 -0.018091682 -0.031229937 0.007512849 -0.047783814 0.04403716
0.01746061 -0.052915346 -0.001388073 0.02210379 -0.05020575 0.050015654 -0.049629334 0.020376522
-0.042987067 -0.02360158 -0.058383092 -0.055500515 -0.032188892 -0.034635648 0.051684853 0.030915033
-0.048042506 -0.045274552 -0.0020244904 -0.04465852 -0.05169941 -0.048333958 -0.009689562 -0.05288054
0.037181843 0.0058845542 0.024690043 0.0031444728 0.036288936 0.037077244 -0.019541655 -0.039788246
-0.028001769 -0.043107882 -0.0011559129 -0.04333137 -0.04401424 -0.004749365 -0.048837863 0.05699518
-0.010990255 0.04546156 0.0027586743 0.041143592 -0.009476043 0.006121088 0.0069005378 -0.0145390555

conv3.bias f4 [16]
00000000: 0010 c53a 2588 45bd 201d 86bc cad6 0abd
00000010: ca5f fe3c 8d24 213d ae02 af3c 28bd d03b
00000020: 407f 0dbc 4da5 143d 40c2 4e3a 33ee 46bd
00000030: 82f2 cfbc d3bc 2f3d e8f5 22bd b4df 093c
0.0015034676 -0.04822554 -0.01637131 -0.033896245 0.031051535 0.0393415 0.021363582 0.0063702054
-0.008636296 0.036290456 0.0007887222 -0.04856701 -0.025384191 0.042904686 -0.039785296 0.008415151

norm3.weight f4 [16]
00000000: 0000 803f 0000 803f 0000 803f 0000 803f
00000010: 0000 803f 0000 803f 0000 803f 0000 803f
00000020: 0000 803f 0000 803f 0000 803f 0000 803f
00000030: 0000 803f 0000 803f 0000 803f 0000 803f
1.0 1.0 1.0 1.0 1.0 1.0 1.0 1.0
1.0 1.0 1.0 1.0 1.0 1.0 1.0 1.0

norm3.bias f4 [16]
00000000: 0000 0000 0000 0000 0000 0000 0000 0000
00000010: 0000 0000 0000 0000 0000 0000 0000 0000
00000020: 0000 0000 0000 0000 0000 0000 0000 0000
00000030: 0000 0000 0000 0000 0000 0000 0000 0000
0.0 0.0 0.0 0.0 0.0 0.0 0.0 0.0
0.0 0.0 0.0 0.0 0.0 0.0 0.0 0.0

norm3.running_mean f4 [16]
00000000: 0000 0000 0000 0000 0000 0000 0000 0000
00000010: 0000 0000 0000 0000 0000 0000 0000 0000
00000020: 0000 0000 0000 0000 0000 0000 0000 0000
00000030: 0000 0000 0000 0000 0000 0000 0000 0000
0.0 0.0 0.0 0.0 0.0 0.0 0.0 0.0
0.0 0.0 0.0 0.0 0.0 0.0 0.0 0.0

norm3.running_var f4 [16]
00000000: 0000 803f 0000 803f 0000 803f 0000 803f
00000010: 0000 803f 0000 803f 0000 803f 0000 803f
00000020: 0000 803f 0000 803f 0000 803f 0000 803f
00000030: 0000 803f 0000 803f 0000 803f 0000 803f
1.0 1.0 1.0 1.0 1.0 1.0 1.0 1.0
1.0 1.0 1.0 1.0 1.0 1.0 1.0 1.0

lin1.weight f4 [64, 768]
00000000: 3881 a93b 22ae d03c 9701 8fbc 801f 15bc
00000010: f828 d2bb be5c d03c 447f ad3c 7dd6 0fbd
00000020: cc29 c13c 56a2 dbbc b476 54bc 00e7 f6bc
00000030: 040d d9bb e8da fdbb bc6c 08bd a068 b8ba
00000040: a8b5 fc3b 5639 0e3d e053 ac3a 781f 88bb
00000050: 1880 cebc 1c23 dfbc 9670 063d e2bc bd3c
00000060: b2b1 113d b0bd e53c 908f fdbc 7e46 0d3d
00000070: b07f a73c 9283 1cbc 5004 223c 203e 2b3b
00000080: bc4b 90bc 40e4 f9bb f94c a0bc c35c 13bd
00000090: 7256 b63c 80f4 e73a 4056 febc 481f ed3b
000000a0: 6059 b73c 0c5a b9bc 9a9f 803c d6e1 f4bc
000000b0: 9c1f 03bd 501e 78bb ae4e b73c 64e4 b53c
000000c0: 63ee ebbc c400 e6bc 5c84 ac3c 2440 dc3c
000000d0: ec7a 7cbc 3005 b83b 8c23 273c e950 b1bc
000000e0: 7094 53bc 0c25 08bc cb1f f3bc b2c8 0fbc
000000f0: 20b2 cd3a d05b efbb f842 303c fcba 2e3c
00000100: db90 85bc d059 653c 80d0 fab9 d61f e7bc
00000110: f5bc cdbc 5c43 883c 78a3 55bc 08e3 d33c
00000120: c4b4 b4bb c073 a5bc f23d 923c 08f7 f43c
00000130: b23d d23c b269 6cbc 98d9 c13c 3cb4 173c
00000140: e008 e63a 4072 98ba 70b0 d2bc c2d8 9b3c
00000150: 1e9f c53c fecc 0e3d d0c3 0f3d 6eee 67bc
00000160: f0f0 66bb cfb3 f0bc c8b1 a53b d048 cc3b
00000170: 1920 06bd 740b adbc bca4 033c 9822 0abd
00000180: 60d8 a7ba c8b6 ce3b 5e1d 083d 44f0 86bc
00000190: ac50 ea3c 0c7e 193c 602b 083b e49a 0bbd
000001a0: 2709 c4bc b4da 10bd 1aa9 bfbc 5a5c a63c
000001b0: f489 07bd 5a41 03bd 7809 873b 9814 38bc
000001c0: d72c 9fbc 5c8b e6bc 6096 aabb 3e62 38bc
000001d0: a470 e63c dcef d7bc 9036 8e3b 0c6e 1dbc
000001e0: ecae 1a3c 34b4 6a3c fcdb c43c 44c6 2d3c
000001f0: 80a9 1e3c 4e31 063d 62d2 d7bc 925b a0bc
00000200: ee3b 123d 4948 04bd d6e7 c23c e0b1 06bb
00000210: e4d5 9fbb c0f5 fd3b c2df 7cbc e895 ac3c
00000220: 044a 523c 2841 4e3c e497 003d ba48 01bc
00000230: ea4a 51bc 70a0 e83b dca7 93bc 4c15 cabb
00000240: b0bd 793b 492b dbbc 2404 f23c 40ce 5c3a
00000250: cd79 a3bc 80fd c9ba 108f e53c 5884 8c3b
00000260: 8e07 c63c d03b 813c 000f ffb9 1e3c cf3c
00000270: 8cab f93c d8f4 9c3c 70c9 5b3b c0c9 943b
00000280: 2000 86ba 544d 7a3c 8883 ddbc 2818 92bc
00000290: d8ed 223c 7025 433c 0474 51bc e071 d83a
000002a0: e0ac af3b 0321 f4bc d0d0 22bc 0829 1f3c
000002b0: 538d fbbc e0da ad3b aec4 38bc ba03 9c3c
000002c0: 1c67 eb3c 8a40 013d beb0 c0bc afb8 03bd
000002d0: a475 0c3d bc15 ee3c b2fb edbc 14e5 a23c
000002e0: 082d df3c 108b e83b e480 d0bc 706e fa3c
000002f0: 8aab 72bc c424 fb3c f470 22bc 28c7 5a3c
00000300: 40c3 0b3a 5264 84bc 7442 eabb 2092 7cbc
00000310: bd0f 91bc 4a10 78bc 1c95 0f3d a750 05bd
00000320: bfc7 0ebd 7ce9 323c c08d db3c 00e4 e838
00000330: 3230 0a3d 8854 88bb 6040 b9ba 617f cbbc
00000340: e086 a5ba e0f8 10bb 7486 853c 40be 10bb
00000350: 0c33 bcbc 3882 edbc 6060 ddbb 1ad2 1abc
00000360: 50e9 b3bc aa4f e6bc adaa d2bc 70b7 003c
00000370: 8064 eabc e4f0 903c 4686 023d 6ca1 8a3c
00000380: f437 f03c 3e7f 53bc 68dd 233c f0f8 ee3b
00000390: ee7b 8a3c c6d1 d5bc 962a a3bc a6ad 24bc
000003a0: 7c8e 953c d6d9 023d 867a c43c 14b2 0b3d
000003b0: 62cd be3c 6614 bfbc 4175 edbc 27f9 b0bc
000003c0: c80b 4c3c 74ea c5bb a6bc 60bc 1909 03bd
000003d0: e876 3fbc 34be 67bc 62ad a03c 7890 4dbc
000003e0: 95a4 81bc 2c8a 52bc 1c2f ec3c 8025 eebc
000003f0: f0c0 01bd da19 b8bc 760b 103d 3aba b43c
0.005172875 0.025473658 -0.017456813 -0.0091017485 -0.0064135753 0.025434848 0.021178849 -0.03511666
0.0235795 -0.026810806 -0.012967754 -0.030139446 -0.006623866 -0.007747043 -0.033306822 -0.0014069267
0.007712085 0.03472265 0.0013147555 -0.004154142 -0.025207564 -0.027238421 0.032822214 0.023161355
0.035569854 0.028044552 -0.030952245 0.034491055 0.020446628 -0.009552853 0.0098887235 0.0026129559
-0.017614238 -0.0076260865 -0.019567953 -0.035977136 0.022258017 0.0017696768 -0.031046987 0.007236395
0.022381485 -0.022625946 0.015701104 -0.029892843 -0.032012567 -0.0037859865 0.022376385 0.022203632
-0.028800195 -0.028076537 0.021059208 0.026886053 -0.015410166 0.005615853 0.010201346 -0.021645026
-0.012913808 -0.008309614 -0.029678246 -0.008775877 0.0015693344 -0.007304646 0.010758154 0.010664698
-0.016304424 0.013998464 -0.0004783906 -0.028213423 -0.025114516 0.016633682 -0.013039462 0.025865093
-0.005514713 -0.020196795 0.017851803 0.02990295 0.025664184 -0.014429497 0.023663327 0.00925928
0.0017550252 -0.0011630729 -0.025718898 0.019024257 0.024123725 0.034863465 0.03509885 -0.014155967
-0.0035238825 -0.029382614 0.0050565936 0.006234266 -0.032745454 -0.021123625 0.008034881 -0.033724397
-0.0012805574 0.0063084103 0.03323113 -0.01647199 0.02860292 0.009368431 0.0020777807 -0.034083262
-0.023930145 -0.03536482 -0.023396064 0.020307709 -0.033090547 -0.032044746 0.004121002 -0.011235379
-0.019430561 -0.028142624 -0.0052059144 -0.0112538915 0.028129883 -0.026359491 0.0043400005 -0.009608757
0.009441119 0.01432519 0.024030678 0.010606352 0.009683967 0.032761864 -0.026345436 -0.019574914
0.035701685 -0.0322955 0.023792189 -0.00205528 -0.0048777927 0.007750243 -0.015434207 0.021067575
0.0128350295 0.012588777 0.031394854 -0.0078908745 -0.012774209 0.0070992038 -0.018024378 -0.0061670896
0.0038107447 -0.026754038 0.02954299 0.00084230676 -0.01995554 -0.0015410632 0.02802232 0.0042882375
0.024173524 0.015775591 -0.00048648566 0.02529722 0.030477308 0.01915972 0.0033536814 0.004540652
-0.0010223426 0.0152772255 -0.027040258 -0.017833784 0.009944402 0.011910781 -0.012784008 0.001651343
0.0053611845 -0.029800897 -0.00993748 0.009714372 -0.030707037 0.005305633 -0.011277361 0.019044746
0.02873569 0.03155569 -0.023521777 -0.03215855 0.03429188 0.029063098 -0.029050682 0.019884624
0.027243152 0.0070966557 -0.025452085 0.030570239 -0.014811406 0.03065718 -0.009914625 0.013353147
0.0005331524 -0.016161118 -0.007149035 -0.015415698 -0.0177077 -0.015140602 0.03505431 -0.03254762
-0.03485846 0.010919925 0.02680099 0.000111050904 0.03373737 -0.0041604675 -0.0014133565 -0.024841012
-0.0012628697 -0.0022120997 0.016299464 -0.0022086054 -0.02297356 -0.028992757 -0.0067558736 -0.009449506
-0.021961838 -0.028114159 -0.02571615 0.007856235 -0.028612375 0.01769299 0.031866334 0.016922675
0.029323556 -0.012908755 0.010001518 0.0072928593 0.016904797 -0.026101004 -0.019917767 -0.010051167
0.018256418 0.031946026 0.023984205 0.034105375 0.023291294 -0.023325156 -0.028986575 -0.02160318
0.012453981 -0.006039912 -0.013716852 -0.031991098 -0.011686064 -0.014144469 0.019613925 -0.012546651
-0.01582555 -0.012850326 0.028831057 -0.029070616 -0.03167814 -0.022473264 0.03516718 0.022061456

lin1.bias f4 [64]
00000000: 2df5 febc a0d8 b73b a0fd cabc bc8d 003d
00000010: a83c b0bc a616 c8bc 7062 b43c fa51 74bc
00000020: 20bb 563b 00cc d438 ec88 f83c 6041 8c3a
00000030: bc58 db3c 9eeb 09bc 102c 24bb 6a27 b2bc
00000040: 1295 c93c 085b a43c 04a7 ba3c ccbd 133d
00000050: 0c2d a9bc aa89 cabc 4cae 0ebd bd17 05bd
00000060: 3447 d6bc f07e 73bc 22b0 833c 466a 073d
00000070: e8e8 063d 50af 463b 5c7e 2abc 88ee 223c
00000080: 6ea2 dbbc e4df cfbc 70b8 82bc 34b6 14bc
00000090: 0496 91bc 3067 3ebb 369d 05bd 4047 af3b
000000a0: e01d 0f3c 009e 4dbc 6075 a03a d4a0 03bc
000000b0: 00bc 67b9 ac7c 6f3c 10bc 133b 60e4 86bb
000000c0: edc2 0fbd 98e6 953c 006f a43b 50df e43c
000000d0: beab d63c fedc 9d3c a44b 133d acfd d1bc
000000e0: 545b b2bc b0ea f63c 3694 47bc 0075 e039
000000f0: e02b d03c 8ad6 18bc 0afc b1bc a8f5 5ebc
-0.031122768 0.0056105405 -0.024779141 0.03138517 -0.021513298 -0.024424862 0.022019595 -0.014912123
0.0032765344 0.00010146946 0.030338727 0.0010700636 0.02677571 -0.008417992 -0.0025050677 -0.02174731
0.024607215 0.020062938 0.022784717 0.036069676 -0.020651363 -0.024723846 -0.03483419 -0.03249334
-0.026157 -0.014861807 0.016075198 0.033060335 0.03293696 0.0030316897 -0.010406103 0.009944566
-0.026810851 -0.025375314 -0.015957087 -0.009076644 -0.017771728 -0.0029053204 -0.03262063 0.00534907
0.00873515 -0.012549877 0.0012242012 -0.00803395 -0.00022099912 0.014617126 0.0022542514 -0.00411658
-0.035098005 0.018298432 0.005018115 0.027938515 0.02620494 0.019270416 0.03596081 -0.025633655
-0.021772064 0.030141205 -0.012181332 0.0004281178 0.025411546 -0.009328494 -0.021726627 -0.013608374

lin2.weight f4 [16, 64]
00000000: 242f e9bd 1297 943d d09c 2a3d 3ced 80bd
00000010: 6cb7 e2bd 28f2 c2bc ea57 afbd 3ce4 4e3d
00000020: f466 b8bd ecca 69bd 7868 68bd 2cfe 093d
00000030: 4026 c4bb b4e1 343d 707c 08bd 5879 9fbd
00000040: 8a11 b33d 2080 6fbd 7afd 86bd 9cb0 debd
00000050: 3675 ae3d 1623 92bd 2ef8 b3bd 26bd 98bd
00000060: 4ed8 b3bd 7a0d 913d 0e73 dfbd e8e6 433d
00000070: a421 b4bd 8027 f03a 0070 c83a e044 453c
00000080: e072 1fbc b0ec 203c 38b8 a63d 6c76 31bd
00000090: aa42 9d3d e85a 573d 007c c8bd 5888 9dbd
000000a0: 2cff 1bbd 5c1b 68bd f4ea 2a3d 60f9 42bd
000000b0: 0075 2cbd 60a0 bb3c cc09 fd3d ba2c b93d
000000c0: c0a2 f6bc 785f bc3c 38bd 85bd 3418 fcbd
000000d0: 4056 d8bd b03c 66bd 10ec 973d 666d 9e3d
000000e0: 8c73 4cbd a6a4 e03d 7aed e03d e044 40bd
000000f0: c029 c63d 2838 d7bd ec7d e6bd 80c4 433b
00000100: a845 a73c e43e dc3d 9ac3 a63d 801a 053b
00000110: c85a e63d 288b c43d 10b8 47bc 68ed 32bd
00000120: 04dc 4c3d 98f7 fbbd 803a faba 406b f63b
00000130: 5c14 6fbd a09e 38bc 6051 d3bd a432 f03d
00000140: 2853 d43c 00a2 be3a b8f6 b53c 9c68 33bd
00000150: 426a 85bd cc5a c83d dc43 78bd 6e87 d6bd
00000160: 6470 1ebd 5ea8 b6bd 7e92 a63d 74a6 523d
00000170: c02c 093d 84a4 f93d c00b 783d 10c8 c8bd
00000180: 44f0 26bd aa5c e5bd 80a9 54bc a81e edbc
00000190: 4a93 bd3d 6cbe 3b3d 0cb0 9fbd 98b7 c63c
000001a0: 3805 bf3c 0af7 f83d 2075 84bd d4b8 693d
000001b0: 683f f93d 223c 903d 3c60 46bd 00c8 f138
000001c0: 12f3 eabd 002a 9bbb 40f9 a3bd 58e7 733d
000001d0: c21f ba3d 4025 b53d f827 9abc e0cd cb3c
000001e0: dc37 a8bd 301a e9bc b6c6 93bd 30cb 593d
000001f0: 48a7 6a3d 6030 1c3d 820b 893d 24c7 3bbd
00000200: 9813 3d3d bc14 afbd 00de d539 0086 d73a
00000210: 0238 9ebd de28 c53d 88f8 d8bd 9c1f c9bd
00000220: c023 e6bc 50e2 173c 5030 5fbd 9658 97bd
00000230: 6c60 d2bd 7236 8abd e4a4 4f3d 64ef 56bd
00000240: 829e efbd 1a76 c63d ca69 8fbd d47b 1dbd
00000250: 54a5 6cbd a858 d3bc d8db 3d3d 5841 f5bd
00000260: 00a9 9e3c f855 6b3d a448 8fbd f0f2 4c3d
00000270: 6ee1 b03d b0f9 18bc e051 16bc d451 febd
00000280: c23b 95bd 803a 3a3b b486 96bd 8e25 ee3d
00000290: a03f 6f3c 0071 6f3c 26a0 c93d 401b e5bc
000002a0: cecd ca3d 26e8 a03d 1049 fd3d b2bf 8ebd
000002b0: b092 e13c 4294 d1bd 00b4 1d3c 8ac0 b3bd
000002c0: 906f a9bd f4d5 50bd 24a6 05bd 84f9 f23d
000002d0: 0a30 cfbd a2ad eb3d 30a8 de3c 761e c6bd
000002e0: c87c e9bc 38f3 3bbd 2842 3f3d 2ab6 a13d
000002f0: 5a34 a93d 1888 ce3d cca9 41bd 1696 c13d
00000300: f2ed c0bd 5a7f 9e3d 1653 97bd 5a2a 843d
00000310: a4bb 1f3d 0051 63bd 5854 68bd 10da aa3d
00000320: f83f 1e3d 4812 dc3c 0a70 95bd ae51 8f3d
00000330: 101f 96bd a250 b1bd c455 d7bd 009b 483b
00000340: 7020 b2bd 0e66 cfbd 9c5b fbbd b0bc 453c
00000350: 6803 cfbd 10f5 f53d d053 423d cc11 02bd
00000360: e4e4 a13d 9a60 a93d e046 24bd d009 8a3c
00000370: 4018 55bd f072 fb3d 2085 d1bd 40ad 84bc
00000380: f0e7 b4bc e4ec 903d c034 9c3d 0436 4c3d
00000390: a4e9 ecbd 5c95 ca3d 6094 8f3c f0e6 37bd
000003a0: 3633 86bd 20b5 1b3c 667e a73d a22f e93d
000003b0: 28eb a13d 943a 4abd b8b5 b6bd a0ea e0bc
000003c0: 9070 03bc 2894 803d 108d c33d 0046 d539
000003d0: 64ab f9bd e0b1 b8bb 7e71 9d3d d0ca 2abc
000003e0: a003 d0bb 80a6 1e3c dc33 e83d bc83 103d
000003f0: 76b6 ac3d aca8 8c3d 3e5d f13d f00d cfbd
-0.113859445 0.07255377 0.041653454 -0.06295249 -0.11070141 -0.02379711 -0.0856169 0.05051063
-0.09004012 -0.057078287 -0.056740254 0.033689663 -0.005986005 0.04416056 -0.033321798 -0.07786816
0.0874358 -0.0584718 -0.065913156 -0.10873529 0.0851845 -0.07135598 -0.08787571 -0.07457952
-0.08781491 0.070826486 -0.10910617 0.04782763 -0.08795479 0.0018322319 0.0015292168 0.012040347
-0.009731978 0.009822056 0.08140606 -0.043325827 0.07678731 0.05257693 -0.09789276 -0.07692021
-0.038085148 -0.056666717 0.041727975 -0.047601104 -0.042103767 0.022903621 0.12355384 0.09041734
-0.030106902 0.022994742 -0.06530231 -0.12309304 -0.10563326 -0.05621022 0.07418072 0.0773571
-0.04991488 0.10968904 0.10982795 -0.046940684 0.09675932 -0.10508758 -0.112544864 0.0029871762
0.020418957 0.10754183 0.08142777 0.0020309985 0.11247784 0.095968544 -0.01218988 -0.04368344
0.05001451 -0.12303084 -0.0019090921 0.0075201094 -0.058369026 -0.011268288 -0.103182554 0.11728409
0.025918558 0.0014544129 0.022212371 -0.043800935 -0.06514408 0.09782943 -0.06061159 -0.1047505
-0.038681403 -0.08918832 0.0813341 0.051428273 0.033489943 0.12189582 0.06055808 -0.09803784
-0.04075648 -0.11199315 -0.012979865 -0.028945282 0.09256609 0.045835897 -0.0779725 0.024257466
0.023317918 0.12156494 -0.06467652 0.05706103 0.12170297 0.070427194 -0.04843162 0.000115290284
-0.11472143 -0.0047352314 -0.08006525 0.0595468 0.090880886 0.088449955 -0.018817887 0.024878442
-0.08213779 -0.02845487 -0.072156355 0.05317229 0.057288438 0.03813207 0.06691648 -0.045844212
0.046161264 -0.08548877 0.0004079193 0.0016443133 -0.077255264 0.096269354 -0.105942786 -0.09820482
-0.028093219 0.009270266 -0.054489434 -0.07389943 -0.10272297 -0.06748666 0.05069436 -0.052474394
-0.11700155 0.09690495 -0.070025995 -0.03844817 -0.057774857 -0.02579911 0.046352237 -0.11975354
0.019367695 0.057455033 -0.06996277 0.05003637 0.08636747 -0.009336874 -0.009174794 -0.12417951
-0.072867885 0.0028416216 -0.07349911 0.11628257 0.014602572 0.014614344 0.09844999 -0.027967095
0.099025354 0.07856779 0.12367451 -0.06970157 0.027535766 -0.10233356 0.009625435 -0.08776958
-0.08273232 -0.05098529 -0.032629147 0.118639976 -0.101165846 0.11507727 0.027179807 -0.09673779
-0.028501883 -0.04588625 0.04669395 0.07896073 0.082619384 0.100845516 -0.04728107 0.09452455
-0.094203845 0.07739134 -0.07388894 0.064533904 0.038997307 -0.05549717 -0.05672106 0.08342373
0.038635224 0.026864186 -0.072967604 0.06998001 -0.073301435 -0.086579576 -0.10514405 0.0030609965
-0.08697593 -0.10126887 -0.122733325 0.012068912 -0.101080716 0.120096326 0.04744321 -0.031755254
0.079049855 0.082703784 -0.040106654 0.016850382 -0.05202508 0.12277782 -0.1023047 -0.016195893
-0.022083253 0.07076433 0.07627249 0.0498562 -0.11568001 0.09891769 0.017526805 -0.044897974
-0.065527365 0.009503633 0.081784055 0.11386038 0.079061806 -0.04937227 -0.08921379 -0.027455628
-0.008022442 0.062782586 0.0954839 0.0004067868 -0.12190893 -0.0056364387 0.076876625 -0.010424331
-0.0063480884 0.009683251 0.113380164 0.03528188 0.08433239 0.06868109 0.11785363 -0.1011008

lin2.bias f4 [16]
00000000: 64fb 00bd 78ae b23d dc25 7fbd 3829 d2bc
00000010: 2092 9bbd 824a c7bd e043 5b3c 7a99 82bd
00000020: dc53 6ebd 2028 3fbd 8025 33bb fcb4 413d
00000030: f04d 54bc 8054 36bd d005 79bc 60b3 c13c
-0.031489745 0.087246835 -0.062291965 -0.02565442 -0.075962305 -0.09731008 0.013382882 -0.063769296
-0.058185443 -0.046669126 -0.0027335584 0.04729174 -0.012958035 -0.04451418 -0.01519914 0.023645103

lin3.weight f4 [3, 16]
00000000: 4ca0 b6bd 6053 123d 6c73 bfbd a8bd 393e
00000010: 48c0 23bd 7423 0fbe 32b1 1dbe a057 1b3d
00000020: 92bc 44be 4c48 eebd 20c4 9dbd 6c7e 07be
00000030: c018 333c 5439 72be f003 3d3e 18a1 2d3d
00000040: 205d 05bc 202a d4bd b201 7ebe 7073 323e
00000050: 468b 1ebe 205d b63d 14d9 81bd 00af 823b
00000060: d4d7 9cbd 80bb eabb ae87 1dbe c69a 723e
00000070: 4093 03bc 46fc 503e c488 ae3d 1c06 6c3e
00000080: c043 de3d c4c6 85bd 3888 283d 008b 033b
00000090: 8090 603d 8467 0bbe 80c5 be3b 1869 793e
000000a0: b408 eabd 5056 bdbd a4ef 3cbe 4079 913d
000000b0: 305f 74bd 3858 4f3d fa00 303e 10f4 1f3d
-0.08917293 0.035724044 -0.09348187 0.18138754 -0.039978296 -0.13978368 -0.15399626 0.037925363
-0.19212559 -0.11634883 -0.077034235 -0.1323182 0.010931194 -0.23654681 0.18458533 0.04238996
-0.0081398785 -0.10359597 -0.24805334 0.17426848 -0.15482816 0.08904481 -0.063402325 0.003988147
-0.076583534 -0.007163465 -0.15383789 0.23691854 -0.008030713 0.20408735 0.0852218 0.23049206
0.10852766 -0.06532052 0.041145533 0.0020071864 0.054825306 -0.13613707 0.0058218837 0.24356496
-0.11427441 -0.092449784 -0.1845079 0.07103205 -0.05966109 0.05062124 0.17187873 0.039051116

lin3.bias f4 [3]
00000000: 7c87 683e 84dd eb3d 4c73 95bd
0.22707933 0.1151686 -0.07297382
