dagger_models/model_2.pth (torch, 231749 bytes, 24 tensors)

conv1.weight f4 [4, 1, 5, 5]
-0.15372926 -0.0003346137 0.1343808 0.017714355 -0.16340922 0.17289646 -0.053985298 0.11068328
-0.122599445 0.09138728 0.0671322 -0.09326619 0.009738889 0.17131136 0.060405612 0.0030933537
0.09352932 0.16652131 -0.08192804 -0.039869808 -0.19236736 -0.17737018 0.09648451 0.12473522
-0.12763613 0.05059334 -0.15630054 -0.017763734 0.03683249 -0.16589682 0.053512268 0.19011036
-0.07271644 -0.19501403 -0.1374856 -0.16216333 -0.108795285 0.1705657 -0.030551722 -0.06361387
0.1639331 0.13361625 0.07709925 -0.01755108 -0.10219159 0.041758228 0.17205098 -0.15207388
-0.0133875245 -0.17107087 0.1206006 0.17705745 -0.14210507 0.06185308 -0.1851227 7.1200295e-05
-0.040567376 0.19614801 0.1813549 0.049982455 0.030700719 0.025164453 0.1376654 -0.06310337
-0.036599014 -0.11230764 -0.008801817 -0.18809141 -0.09877868 -0.10653313 0.0048536696 -0.18596943
0.12394429 -0.15056647 0.12668338 0.087383434 -0.09374748 -0.056356415 -0.06246967 -0.1277089
-0.10680155 0.16322067 0.07898891 -0.17948574 -0.194382 -0.058401637 0.10207824 -0.04606708
0.13255589 0.18589936 -0.12662753 -0.11440574 -0.10575287 -0.12275141 0.115578875 -0.18862619
0.12141979 0.03214111 -0.024144856 0.1612195
00000000: 346b 1dbe 176f afb9 1f9b 093e b21d 913c
00000010: bf54 27be c50b 313e b01f 5dbd eaad e23d
00000020: 6b15 fbbd 4129 bb3d 9b7c 893d 5802 bfbd
00000030: dc8f 1f3c 3f6c 2f3e e06b 773d ddb9 4a3b
00000040: 4d8c bf3d 9084 2a3e e3c9 a7bd 864e 23bd
00000050: f3fb 44be 87a0 35be ac99 c53d 2e75 ff3d
00000060: 0cb3 02be f63a 4f3d 400d 20be 4085 91bc
00000070: aadd 163d dbe0 29be ae2f 5b3d 4aac 423e
00000080: 5bec 94bd c2b1 47be 06c9 0cbe 250e 26be
00000090: 10d0 debd c6a8 2e3e 9b47 fabc fd47 82bd
000000a0: 14de 273e b3d2 083e 36e6 9d3d 48c7 8fbc
000000b0: d349 d1bd ad0a 2b3d 222e 303e 41b9 1bbe
000000c0: 5957 5bbc 342d 2fbe 73fd f63d 8c4e 353e
000000d0: fe83 11be a859 7d3d ce90 3dbe 5e51 9538
000000e0: fa29 26bd 06db 483e 19b5 393e 67ba 4c3d
000000f0: 1380 fb3c af25 ce3c 29f8 0c3e 573c 81bd
00000100: d9e8 15bd 8c01 e6bd 7f35 10bc 099b 40be
00000110: 7a4c cabd 0b2e dabd 880b 9f3b c56e 3ebe
00000120: 81d6 fd3d 192e 1abe 4ab9 013e 16f6 b23d
00000130: aefe bfbd fcd5 66bd 32e0 7fbd 1fc6 02be
00000140: c5ba dabd 5223 273e f0c4 a13d 1ccb 37be
00000150: 130c 47be 8e36 6fbd 650e d13d d6b0 3cbd
00000160: bbbc 073e 675c 3e3e a6aa 01be 8e4d eabd
00000170: f694 d8bd 1765 fbbd 9eb4 ec3d 3927 41be
00000180: f0aa f83d 66a6 033d 6fcb c5bc b916 253e

conv1.bias f4 [4]
-0.14896984 0.009042531 -0.058092833 0.07764195
00000000: 8d8b 18be 2027 143c c0f2 6dbd be02 9f3d

norm1.weight f4 [4]
0.9998764 1.0005983 0.99968076 0.99984163
00000000: e6f7 7f3f 9b13 803f 14eb 7f3f 9ff5 7f3f

norm1.bias f4 [4]
-0.00010657196 0.0003765482 -0.00012570473 -3.4843084e-05
00000000: 637f dfb8 726b c539 9bcf 03b9 7a24 12b8

norm1.running_mean f4 [4]
18.182844 -76.0387 -13.059115 -68.24344
00000000: 7776 9141 d013 98c2 23f2 50c1 a47c 88c2

norm1.running_var f4 [4]
54.11857 490.19254 33.786915 258.23535
00000000: 6a79 5842 a518 f543 cd25 0742 201e 8143

conv2.weight f4 [8, 4, 5, 5]
0.039786138 -0.08479974 0.0056739775 -0.08010539 -0.007880163 -0.021382831 0.045914598 0.08404724
0.07721369 0.024453951 0.01907502 -0.017356455 0.01527449 -0.018537907 0.054014694 0.09309079
-0.070929065 -0.0751973 -0.0783477 0.06684919 0.050234128 0.08092351 -0.07519723 -0.036433376
0.025630336 0.06959177 -0.08388573 0.050173763 0.0080181435 0.027397718 0.08516181 0.018926173
0.033110563 0.053911664 0.05263018 -0.08576607 -0.0003428686 -0.06488396 0.088982575 -0.06050354
0.029130718 0.09395685 0.0039032327 0.096660346 0.0057690386 -0.09890034 -0.08707743 0.08423558
-0.028317112 0.042936422 0.0839719 -0.067663506 -0.044712394 0.063164815 0.032612085 -0.0251423
-0.013827245 0.062269792 -0.0032601508 -0.09951489 -0.08945502 0.06823142 -0.0871456 0.07316662
-0.06087736 -0.034121186 0.01460712 -0.008174416 -0.040181626 0.018262958 -0.031895228 -0.05623027
0.081219584 -0.056034077 0.0056217755 -0.04744603 0.029087199 -0.045464087 0.08796275 -0.06639316
0.031395707 -0.09050002 -0.032083116 -0.014163721 0.04551437 0.09954123 0.047877967 -0.030923428
0.019329475 0.04108958 0.023546122 0.0919594 0.09489011 0.09403652 0.055953994 -0.035120104
-0.09269226 -0.002554614 -0.067360125 -0.019841498 0.048407644 0.08428745 0.02972077 0.058117412
0.09197165 -0.09205774 0.06625062 0.029190723 -0.019906854 -0.03788372 -0.033636812 -0.065864176
0.061934344 0.029837804 -0.013622079 -0.019577192 0.041794922 -0.025955109 -0.046503555 -0.012556248
-0.05184883 -0.007860923 -0.078289144 -0.035585795 0.053327043 -0.0772911 0.09988073 0.031790577
-0.09834403 0.032265767 -0.014979494 0.034610424 -0.019309487 0.08881156 0.0079873875 -0.037196126
0.064892635 -0.02237747 -0.09667695 0.06095642 0.057034407 -0.068655305 -0.01933479 0.06769541
0.014837346 -0.05073444 0.05340901 -0.06954858 -0.01563866 -0.03383953 -0.019146195 0.08013829
0.08023601 -0.060330447 0.09241513 -0.01383952 -0.0039457595 -0.09523784 0.014216842 -0.027181616
-0.09180173 0.09710447 0.038265258 -0.07175785 -0.094095945 -0.059022702 0.016099386 -0.020998128
-0.09741932 0.053083207 0.054600794 0.013677592 -0.039375823 -0.05677758 0.0075126714 -0.0640999
0.0062799067 -0.03804453 -0.061817043 -0.05017163 0.006375692 -0.09471828 -0.074869 -0.064115755
-0.010228913 0.064362496 -0.0027350385 -0.013754301 0.0716148 -0.087084725 -0.030849444 0.09465698
-0.071039 -0.09540253 -0.01645584 0.029642336 -0.027183622 0.012807924 -0.019482847 -0.07134986
-0.08124217 0.024226343 -0.022808613 -0.015454772 -0.01216358 0.07076209 0.005347842 -0.09158281
-0.08949648 0.0152917085 0.08986761 -0.06473057 0.024792628 0.07861764 -0.07980587 0.05734567
0.04613311 -0.06337574 0.09444705 -0.043241482 -0.010739019 0.013196232 0.07441546 0.041459627
-0.03614192 0.06523202 0.042379245 -0.09137299 -0.07648527 -0.0073791305 0.029163208 -0.054143302
0.046857256 -0.021893844 0.075303845 -0.053503834 0.055416983 0.028834417 0.05976146 0.033411115
-0.07830087 -0.0053539854 0.03511902 -0.01082094 -0.08614353 0.09446938 -0.09673271 0.030093426
-0.08783996 0.04265065 -0.07086226 0.07231435 0.06784492 0.06186531 -0.0072759516 -0.06974062
00000000: caf6 223d 7cab adbd c6ec b93b 4b0e a4bd
00000010: cd1b 01bc 0c2b afbc f210 3c3d f620 ac3d
00000020: 3622 9e3d a753 c83c 3743 9c3c 202f 8ebc
00000030: db41 7a3c cfdc 97bc 833e 5d3d 62a6 be3d
00000040: 4243 91bd 0b01 9abd c274 a0bd 3ae8 883d
00000050: 4dc2 4d3d 3abb a53d 0101 9abd 2a3b 15bd
00000060: b6f6 d13c 2186 8e3d 48cc abbd 0183 4d3d
00000070: 885e 033c 2e71 e03c 5169 ae3d 100b 9b3c
00000080: f19e 073d 7ad2 5c3d be92 573d 1fa6 afbd
00000090: 0bc3 b3b9 e2e1 84bd 7f3c b63d 8fd2 77bd
000000a0: 8ba3 ee3c 736c c03d 61cd 7f3b dcf5 c53d
000000b0: 340a bd3b 438c cabd a755 b2bd b483 ac3d
000000c0: 4af9 e7bc 1ade 2f3d 76f9 ab3d 2a93 8abd
000000d0: 5824 37bd 8e5c 813d 4094 053d 3af7 cdbc
000000e0: ab8b 62bc 9c0e 7f3d 41a8 55bb 76ce cbbd
000000f0: 3234 b7bd eabc 8b3d 6479 b2bd 62d8 953d
00000100: 8a5a 79bd a8c2 0bbd b452 6f3c fced 05bc
00000110: 7d95 24bd 339c 953c 92a4 02bd b651 66bd
00000120: 7456 a63d fd83 65bd df36 b83b c556 42bd
00000130: 4748 ee3c 8d38 3abd d025 b43d 23f9 87bd
00000140: c998 003d 1358 b9bd 9669 03bd f40e 68bc
00000150: 476d 3a3d 46dc cb3d b01b 443d 2153 fdbc
00000160: d958 9e3c 8c4d 283d cce3 c03c 3655 bc3d
00000170: bf55 c23d 3896 c03d 0430 653d 19da 0fbd
00000180: 71d5 bdbd 506b 27bb 1bf4 89bd a38a a2bc
00000190: 1847 463d e69e ac3d f978 f33c 860c 6e3d
000001a0: a25b bc3d c588 bcbd 68ae 873d 6221 ef3c
000001b0: b313 a3bc f62b 1bbd c1c6 09bd cce3 86bd
000001c0: deae 7d3d 696e f43c 242f 5fbc 5960 a0bc
000001d0: 2731 2b3d cf9f d4bc 837a 3ebd b9b8 4dbc
000001e0: 705f 54bd 1acb 00bc 0f56 a0bd 69c2 11bd
000001f0: 756d 5a3d cc4a 9ebd 458e cc3d d636 023d
00000200: 9868 c9bd 1c29 043d 8d6c 75bc a9c3 0d3d
00000210: ee2e 9ebc d6e2 b53d 88dd 023c f75a 18bd
00000220: 6ee6 843d f550 b7bc 91fe c5bd 70ad 793d
00000230: e99c 693d 279b 8cbd fe63 9ebc e4a3 8a3d
00000240: 5718 733c ebce 4fbd 68c3 5a3d 7c6f 8ebd
00000250: a61c 80bc 529b 0abd 7bd8 9cbc 8b1f a43d
00000260: c752 a43d 0f1d 77bd 2544 bd3d 27bf 62bc
00000270: 6e4b 81bb 0f0c c3bd c2ed 683c fbab debc
00000280: 8c02 bcbd b5de c63d 08bc 1c3d c8f5 92bd
00000290: 60b5 c0bd cac1 71bd dce2 833c 4404 acbc
000002a0: c883 c7bd c76d 593d 15a5 5f3d fb17 603c
000002b0: 8b48 21bd 9c8f 68bd db2c f63b cf46 83bd
000002c0: adc7 cd3b 95d4 1bbd de33 7dbd c480 4dbd
000002d0: 2eeb d03b a8fb c1bd eb54 99bd 1f4f 83bd
000002e0: 2c97 27bc 7cd0 833d 553e 33bb b859 61bc
000002f0: c8aa 923d 7a59 b2bd f9b7 fcbc 85db c13d
00000300: e57c 91bd 6762 c3bd 66ce 86bc 7cd4 f23c
00000310: 30b0 debc 54d8 513c 7e9a 9fbc e01f 92bd
00000320: 4b62 a6bd 5376 c63c 21d9 babc 0336 7dbc
00000330: c149 47bc b7eb 903d f33c af3b c58f bbbd
00000340: ee49 b7bd 138a 7a3c 820c b83d 7691 84bd
00000350: e919 cb3c 4902 a13d 4371 a3bd 4be3 6a3d
00000360: 12f6 3c3d 24cb 81bd 746d c13d fb1d 31bd
00000370: b6f2 2fbc 0235 583c 2267 983d 92d1 293d
00000380: 8d09 14bd 5e98 853d dc95 2d3d c321 bbbd
00000390: 4fa4 9cbd a2cc f1bb aee7 ee3c 5ec5 5dbd
000003a0: 65ed 3f3d b85a b3bc e738 9a3d d626 5bbd
000003b0: ebfc 623d 2836 ec3c 6fc8 743d 18da 083d
000003c0: 355c a0bd 7c70 afbb f6d8 0f3d 504a 31bc
000003d0: 056c b0bd 2a79 c13d cd1b c6bd 7d86 f63c
000003e0: 70e5 b3bd 73b2 2e3d 3c20 91bd 8c19 943d
000003f0: 47f2 8a3d 7b66 7d3d 1b6b eebb 2cd4 8ebd

conv2.bias f4 [8]
-0.043950606 0.07970727 -0.09068339 0.095195584 0.06627316 0.008307135 0.08757419 0.036192887
00000000: 8d05 34bd 913d a33d 37b8 b9bd e7f5 c23d
00000010: 39ba 873d a61a 083c 195a b33d fe3e 143d

norm2.weight f4 [8]
1.0003748 1.0000088 1.0003011 0.999568 0.9996123 1.0004449 0.9997968 0.999888
00000000: 480c 803f 4a00 803f de09 803f b0e3 7f3f
00000010: 97e6 7f3f 940e 803f aff2 7f3f a9f8 7f3f

norm2.bias f4 [8]
0.0003316432 4.698789e-05 0.00054215506 -0.00013389322 -8.065311e-05 0.00043228007 -0.00016685318 -0.00010900567
00000000: 66e0 ad39 dd14 4538 691f 0e3a b065 0cb9
00000010: 4f24 a9b8 a6a3 e239 4ff5 2eb9 f999 e4b8

norm2.running_mean f4 [8]
0.16278312 -0.27362996 -0.20390059 0.24782103 0.50359225 0.10814896 0.029043037 -0.051522683
00000000: 9eb0 263e 3a19 8cbe 51cb 50be ccc4 7d3e
00000010: 6ceb 003f 347d dd3d aaeb ed3c 7309 53bd

norm2.running_var f4 [8]
0.14294317 0.443074 0.23569523 0.14404589 0.27528366 0.15982006 0.07640637 0.13987817
00000000: b25f 123e 98da e23e 175a 713e c480 133e
00000010: fbf1 8c3e dfa7 233e f17a 9c3d 393c 0f3e

conv3.weight f4 [16, 8, 6, 6]
0.01291781 -0.05369402 -0.010531943 0.025460342 0.041485887 -0.050366186 -0.02654164 0.027270531
-0.002301603 0.0565134 -0.026972434 -0.057778295 -0.020806337 0.04796466 0.036250424 0.0061595365
0.036990475 0.016527647 -0.054287225 -0.024201024 0.03140986 0.047786847 0.025734963 -0.04258481
-0.045274816 -0.0030327705 0.026032867 -0.037312865 -0.044618826 0.036208186 -0.041291613 -0.008198995
0.025066035 0.024102923 -0.0051680123 0.041504208 0.005030507 0.013843745 0.027802268 0.03551919
-0.015395831 0.0004695909 -0.034389507 -0.023054978 0.042297382 -0.048381817 -0.0045694066 -0.056636807
-0.03640946 -0.054463055 0.014607894 0.04198655 0.031588785 -0.047069147 0.05797119 -0.02002796
0.03755348 0.024924645 0.021929262 0.039992828 0.04633811 0.051025454 -0.055721045 -0.052375928
-0.056914557 -0.042470384 0.038715415 -0.017684879 -0.001600742 0.013810218 0.0009173749 -0.018572684
-0.0057429997 -0.013034691 0.04406982 0.05607149 -0.050801396 0.03534479 0.030877499 -0.009075736
0.018226929 0.015179365 -0.013213764 0.05009306 0.05476395 -0.044922184 -0.027247028 -0.013655589
-0.0059497994 -0.007971273 0.01927657 0.0071203792 -0.016082611 -0.051601388 -0.058475517 -0.007327927
-0.022501314 0.012078057 -0.053078912 0.01107656 0.006104776 0.008286359 -0.023249252 -0.051400654
-0.022160582 0.0071238033 -0.05810017 0.04412132 -0.013866813 -0.056699395 0.03642658 0.023035096
-0.003283238 0.05067182 -0.021598037 0.0443553 -0.043832537 -0.049101476 -0.007847527 0.024004068
-0.020352073 0.021432417 0.002255956 -0.02947957 -0.021945426 -0.031600744 -0.031089759 0.0006885955
0.03311041 0.023765184 0.03414146 0.0041346746 -0.038242627 0.03625996 -0.033168558 -0.04952275
0.008401546 -0.0034480314 0.03198039 -0.047504567 -0.03967837 -0.037500083 0.055414602 0.04671419
-0.010708648 -0.016146116 -0.019203246 -0.040436983 -0.058671802 -0.038020846 0.01050115 -0.010169184
0.012268944 -0.03208326 -0.04517665 0.018283451 0.017194137 0.045912918 -0.033335082 -0.00915156
-0.048837714 0.043696437 0.051501375 -0.040593345 0.046840914 0.0338486 -0.016173942 -0.0011795904
-0.014495615 -0.023485122 0.03352457 -0.0063096615 -0.040377542 0.051494606 -0.0023071535 0.0049964446
0.02675985 0.03532439 -0.009306625 -0.03020105 0.04778955 0.02145893 -0.025148256 -0.012685168
-0.014370509 -0.0048772753 0.059175447 -0.0018427139 0.0030352634 -0.0021954607 0.014687173 0.02876064
-0.03387138 -0.023576275 0.042365167 -0.003397162 -0.021162277 -0.04852687 -0.018195644 0.05639556
0.013751025 -0.022797417 -0.011607717 -0.025853092 -0.0033740955 0.03743011 -0.046199173 0.057538133
-0.022652775 0.0064176475 0.043359287 -0.028261097 -0.032944158 0.014811193 0.026293587 0.04554939
0.055718243 -0.022718588 -0.058140818 -0.053619884 -0.051195562 -0.012797455 0.030790586 -0.04237123
0.019354515 -0.011502947 0.0102282 -0.010604234 0.009542583 0.001287421 0.021621326 0.009577212
0.014701208 -0.05624037 -0.04427938 -0.041395847 0.0092517985 0.045653246 0.035623256 0.018413153
0.0005949719 0.033304468 -0.013088059 0.048110116 0.020930534 -0.014506645 0.035595253 0.04557706
0.04177289 -0.010292236 0.035924252 -0.025068179 -0.045013096 0.0028222976 -0.01152208 0.020428563
00000000: 39a5 533c 43ee 5bbd 2c8e 2cbc 3592 d03c
00000010: 1bed 293d c64c 4ebd da6d d9bc 7366 df3c
00000020: 7ed6 16bb 987a 673d 4bf5 dcbc efa8 6cbd
00000030: 0d72 aabc 9776 443d 537b 143d f0d5 c93b
00000040: 5383 173d fd64 873c 485c 5ebd 3a41 c6bc
00000050: a0a7 003d 24bc 433d 21d2 d23c 696d 2ebd
00000060: 1672 39bd 72c1 46bb e142 d53c 60d5 18bd
00000070: 3bc2 36bd 094f 143d 6521 29bd 1455 06bc
00000080: 4957 cd3c 7e73 c53c 6e58 a9bb 5100 2a3d
00000090: f4d6 a43b e0d0 623c 95c1 e33c 927c 113d
000000a0: cc3e 7cbc 6c33 f639 03dc 0cbd cbdd bcbc
000000b0: 0540 2d3d 032c 46bd f6ba 95bb fffb 67bd
000000c0: 1622 15bd a714 5fbd f355 6f3c 17fa 2b3d
000000d0: 3e63 013d 94cb 40bd 3373 6d3d ad11 a4bc
000000e0: aed1 193d c52e cc3c ffa4 b33c 85cf 233d
000000f0: 08cd 3d3d 1100 513d c03b 64bd 2488 56bd
00000100: 3d1f 69bd 6df5 2dbd 0e94 1e3d e1df 90bc
00000110: fdcf d1ba 4144 623c fd7b 703a be25 98bc
00000120: c62f bcbb 758f 55bc 8e82 343d 38ab 653d
00000130: 2015 50bd b3c5 103d cff2 fc3c 65b2 14bc
00000140: a450 953c dfb2 783c 8b7e 58bc 612e 4d3d
00000150: 2a50 603d 5300 38bd 2935 dfbc b1bb 5fbc
00000160: 89f6 c2bb f199 02bc e6e9 9d3c 1252 e93b
00000170: aebf 83bc fa5b 53bd 0684 6fbd 1b1f f0bb
00000180: ad54 b8bc 0be3 453c 4669 59bd 767a 353c
00000190: 930a c83b 82c3 073c 3775 bebc 7e89 52bd
000001a0: 1c8a b5bc cb6e e93b 72fa 6dbd 8fb8 343d
000001b0: a131 63bc a03d 68bd 0a34 153d 19b4 bc3c
000001c0: 982b 57bb 418d 4f3d 5eee b0bc e7ad 353d
000001d0: bf89 33bd a11e 49bd ea92 00bc 2ea4 c43c
000001e0: 64b9 a6bc 0993 af3c a9d8 133b 247f f1bc
000001f0: e5c6 b3bc c86f 01bd f3af febc dd82 343a
00000200: c89e 073d 34af c23c ead7 0b3d 2a7c 873b
00000210: 4da4 1cbd 5385 143d c1db 07bd 5ed8 4abd
00000220: a3a6 093c 5ef8 61bb dffd 023d 2694 42bd
00000230: c985 22bd b099 19bd 6cfa 623d 6157 3f3d
00000240: 5373 2fbc dc44 84bc 2050 9dbc 40a1 25bd
00000250: d851 70bd bfbb 1bbd 040d 2c3c a69c 26bc
00000260: ae03 493c bd69 03bd 270b 39bd 2dc7 953c
00000270: b8da 8c3c 2f0f 3c3d 5e8a 08bd 6df0 15bc
00000280: 0e0a 48bd 09fb 323d 1bf3 523d 3545 26bd
00000290: 42dc 3f3d d4a4 0a3d 377f 84bc 7c9c 9aba
000002a0: 047f 6dbc df63 c0bc 0f51 093d 47c1 cebb
000002b0: ec62 25bd 02ec 523d 9d33 17bb 37b9 a33b
000002c0: 7937 db3c 4fb0 103d d17a 18bc 3168 f7bc
000002d0: fabe 433d a3ca af3c b703 cebc 73d5 4fbc
000002e0: 4972 6bbc 8dd1 9fbb f461 723d 3887 f1ba
000002f0: 45eb 463b b8e1 0fbb 78a2 703c 6f9b eb3c
00000300: b7bc 0abd 0823 c1bc 1987 2d3d eca2 5ebb
00000310: 835c adbc 1cc4 46bd 080f 95bc 08ff 663d
00000320: fb4b 613c a6c1 babc 4b2e 3ebc ddc9 d3bc
00000330: ee1f 5dbb 5150 193d 583b 3dbd 1bad 6b3d
00000340: 5092 b9bc 214b d23b 8299 313d d183 e7bc
00000350: 74f0 06bd a5aa 723c a665 d73c ff91 3a3d
00000360: d038 643d 551c babc 1125 6ebd 86a0 5bbd
00000370: 70b2 51bd 6bac 51bc 8a3c fc3c 748d 2dbd
00000380: 5c8d 9e3c db76 3cbc 2e94 273c 62bd 2dbc
00000390: 7e58 1c3c aebe a83a 351f b13c bde9 1c3c
000003a0: 56dd 703c 4d5c 66bd 4c5e 35bd b18e 29bd
000003b0: db94 173c e6fe 3a3d b1e9 113d 2ed7 963c
000003c0: e3f7 1b3a 446a 083d 4c6f 56bc 1d0f 453d
000003d0: 8376 ab3c 47ad 6dbc 54cc 113d 03af 3a3d
000003e0: 0d1a 2b3d c4a0 28bc 4f25 133d c85b cdbc
000003f0: a75f 38bd 4cf6 383b 1bc7 3cbc cd59 a73c

conv3.bias f4 [16]
-0.018488958 0.04281913 0.008364867 -0.039034564 -0.03863778 0.05017848 0.042004976 0.04310121
-0.0372589 0.0313836 0.050727632 0.044384707 0.030656945 0.057336483 -0.033518743 -0.023476679
00000000: 2876 97bc 1d63 2f3d cc0c 093c b5e2 1fbd
00000010: a642 1ebd f387 4d3d 690d 2c3d e58a 303d
00000020: ca9c 18bd 178c 003d c7c7 4f3d bdcc 353d
00000030: 4624 fb3c a9d9 6a3d f34a 09bd 2a52 c0bc

norm3.weight f4 [16]
1.0002443 1.0000342 1.000409 1.0000861 1.000385 0.99982756 1.0004203 0.99986905
1.0001297 1.0003445 0.99994004 1.0003717 1.0003018 1.0005072 1.0003092 1.0005008
00000000: 0108 803f 1f01 803f 670d 803f d202 803f
00000010: 9e0c 803f b3f4 7f3f c60d 803f 6bf7 7f3f
00000020: 4004 803f 4a0b 803f 12fc 7f3f 2e0c 803f
00000030: e409 803f 9f10 803f 220a 803f 6910 803f

norm3.bias f4 [16]
0.00040331233 -0.00023728136 4.9563874e-05 8.933201e-05 0.00039565522 -0.0003858968 0.00016704146 -8.290675e-06
9.655541e-05 0.00030838168 -0.00011243839 0.00020003864 -1.4884101e-05 0.0005487804 0.00027744583 0.0004954938
00000000: aa73 d339 bbce 78b9 cee2 4f38 c257 bb38
00000010: f26f cf39 3152 cab9 da27 2f39 2e18 0bb7
00000020: cb7d ca38 4aae a139 e7cc ebb8 77c1 5139
00000030: bab6 79b7 07dc 0f3a 2676 9139 07e4 013a

norm3.running_mean f4 [16]
-0.012399197 0.21825787 0.27231133 0.091100365 0.8275918 0.23801413 0.5425658 0.2790327
-0.08968671 0.18608658 -0.17978144 0.10341028 0.16558792 0.708126 0.16656 -0.12965527
00000000: 0026 4bbc fe7e 5f3e 646c 8b3e d492 ba3d
00000010: 0edd 533f fab9 733e 98e5 0a3f 60dd 8e3e
00000020: aaad b7bd 7b8d 3e3e a018 38be c5c8 d33d
00000030: e18f 293e bf47 353f b48e 2a3e 5ac4 04be

norm3.running_var f4 [16]
0.10631849 0.22427207 0.12878357 0.19763796 0.34037492 0.14246698 0.2049744 0.17885391
0.15893646 0.26147047 0.22465059 0.17891303 0.10811318 0.15715273 0.1920382 0.22253364
00000000: 82bd d93d 94a7 653e d7df 033e 9b61 4a3e
00000010: 9f45 ae3e dde2 113e cfe4 513e 7b25 373e
00000020: 3dc0 223e 75df 853e ce0a 663e fa34 373e
00000030: 716a dd3d a5ec 203e a9a5 443e dcdf 633e

lin1.weight f4 [64, 768]
0.017906358 -0.013398275 -0.021228539 0.025371894 0.016026353 0.027451718 -0.027307266 -0.03267711
0.011069982 0.009310739 0.006704208 -0.018585633 0.014494452 -0.034153737 0.0038198123 -0.02259223
0.0011304873 0.03391434 -0.025478255 -0.030897964 0.030714225 -0.0102006 0.031942006 -0.03065903
0.022580951 0.011658545 0.031445984 -0.019302947 -0.018858686 -0.03046473 0.009920288 -0.008222579
-0.03430832 -0.013240755 -0.010659427 0.018354673 0.024892911 -0.014670546 -0.019491384 -0.02387101
0.0064075086 0.011920365 0.031444434 -0.022927476 -0.006094815 0.031526703 0.011327926 0.022708729
-0.030949935 0.03358813 -0.013080962 0.017369797 0.017760858 -0.020895012 -0.02962235 -0.03188928
0.022045616 -0.006423958 0.023907496 -0.012967765 0.024226459 0.02350921 -0.025284179 0.014764397
-0.018405495 0.012235234 0.025989765 0.036746502 -0.024425605 0.0017629979 -0.028022641 0.022725014
0.025983049 0.0314316 -0.029526107 0.011191358 0.007059923 0.0233414 -0.026665282 -0.028435737
0.026529996 -0.0041548526 0.027693627 0.02500908 0.024414117 -0.017708542 0.014558432 -0.008615368
-0.008944061 0.035804294 -0.022445925 0.0058478727 0.031819377 -0.02152824 0.013430545 0.004117704
-0.03403728 0.016341176 0.0066532185 0.0064920094 -0.0012754581 -0.030163987 -0.0041093575 0.0076989885
-0.015851978 -0.016860595 -0.02554627 -0.02300347 -0.023191035 -0.013780025 0.007180887 0.0073448685
0.005834173 -0.026253637 0.008988124 0.01817195 -0.009997229 -0.034392405 0.033086155 -0.0054571335
0.021989498 0.018024044 0.026377937 0.032865033 -0.00841577 -0.008099516 0.024066703 0.011013955
-0.00076929905 -0.006941675 -0.016963242 0.036286365 0.018756 0.012022365 -0.029861435 0.0068992227
0.015689043 -0.0027095617 0.022445364 -0.016781602 -0.032092683 -0.005384799 -0.018231096 0.03247784
-0.018345632 -0.015607773 -0.013908177 0.022724494 -0.005734352 -0.027914243 -0.011233987 0.01204358
-0.029813636 0.018714966 -0.0015638085 -0.009320345 -0.0038286932 0.036184855 -0.020337377 -0.034836926
-0.0053263796 0.015501687 0.010744755 -0.020209635 0.031940594 0.009278731 -0.026920905 -0.02087953
0.026792355 0.00063612126 -0.0049610618 -0.015947862 0.004480442 0.019707615 0.022674412 0.00891428
-0.031266715 -0.006730183 -0.017392075 0.0047458187 0.028775498 -0.02953284 0.010589328 0.02498635
-0.009973085 -0.0023081282 -0.006148968 -0.014580182 0.0057022385 0.004236421 0.01666806 -0.009120436
-0.001160622 -0.02826303 0.0041323183 0.031345516 0.032425907 0.00999399 0.0070386813 0.030821653
0.026198488 0.0032940565 0.001888414 -0.00821242 0.00012321577 -0.0005405382 0.036073495 0.02815348
0.023210477 0.0036496883 -0.012906008 -0.03204083 0.0044992724 -0.009437834 -0.012575676 0.0013900597
-0.016750311 0.017059656 0.010041365 -0.032207757 -0.015898459 0.009701033 -0.0044942717 0.004787047
-0.02168771 -0.010057034 -0.020425024 0.0029044687 0.019798175 0.0018617825 -0.035652608 -0.00723682
0.034796044 0.02492527 0.018514313 -0.004981822 0.029807676 0.03136178 -0.0038164167 -0.0040470595
-0.028745683 -0.0029431484 -0.031452898 0.024322864 -0.02034272 0.019426033 -0.015903153 0.012211614
-0.0048798397 -0.028535528 -0.0015132907 -0.0003173387 -0.013366123 -0.02410403 0.023033094 0.003904894
00000000: 5bb0 923c 7084 5bbc 79e7 adbc b8d8 cf3c
00000010: b349 833c 6de2 e03c 7db3 dfbc 6fd8 05bd
00000020: df5e 353c 128c 183c f9ae db3b e640 98bc
00000030: 237a 6d3c cae4 0bbd d155 7a3b 5713 b9bc
00000040: dc2c 943a c3e9 0a3d c6b7 d0bc ba1d fdbc
00000050: 669c fb3c 6b20 27bc 9fd5 023d a528 fbbc
00000060: b0fb b83c 7b03 3f3c 81cd 003d 3721 9ebc
00000070: 887d 9abc 2b91 f9bc b488 223c ffb7 06bc
00000080: e286 0cbd c0ef 58bc e1a4 2ebc 8a5c 963c
00000090: 38ec cb3c bb5c 70bc 65ac 9fbc 238d c3bc
000000a0: 14f6 d13b a24d 433c e1cb 003d 67d2 bbbc
000000b0: 04b7 c7bb 2522 013d c498 393c a807 ba3c
000000c0: b88a fdbc b593 093d 8851 56bc 1b4b 8e3c
000000d0: 387f 913c 042c abbc 92aa f2bc 559e 02bd
000000e0: 0299 b43c 1180 d2bb a7d9 c33c c076 54bc
000000f0: 9176 c63c 6396 c03c c420 cfbc 5fe6 713c
00000100: 1fc7 96bc 4a76 483c 7de8 d43c 8083 163d
00000110: 3518 c8bc 6514 e73a bd8f e5bc cf29 ba3c
00000120: 67da d43c 6cbe 003d bce0 f1bc f55b 373c
00000130: ed56 e73b 7736 bf3c 2671 dabc 10f2 e8bc
00000140: 6f55 d93c 6e25 88bb bfdd e23c d8df cc3c
00000150: 1d00 c83c 8111 91bc 7d86 6e3c 7927 0dbc
00000160: 1c8a 12bc 86a7 123d 84e0 b7bc 839f bf3b
00000170: 0955 023d fe5b b0bc ca0b 5c3c ceed 863b
00000180: ad6a 0bbd eedd 853c 3e03 da3b ecba d43b
00000190: 462d a7ba 771a f7bc caa7 86bb cc47 fc3b
000001a0: 02dc 81bc 3b1f 8abc 6946 d1bc c671 bcbc
000001b0: 20fb bdbc 9dc5 61bc a54d eb3b 39ad f03b
000001c0: 972c bf3b de11 d7bc ed42 133c 57dd 943c
000001d0: 6bcb 23bc 0ddf 0cbd 5985 073d c1d1 b2bb
000001e0: 5223 b43c 29a7 933c 8b16 d83c 7c9d 063d
000001f0: 4ce2 09bc d5b3 04bc 8927 c53c e073 343c
00000200: c9aa 49ba fe76 e3bb 7ff6 8abc 03a1 143d
00000210: 2fa6 993c 74f9 443c f89f f4bc e012 e23b
00000220: 4f86 803c e792 31bb 57df b73c 9279 89bc
00000230: 9e73 03bd f872 b0bb 6159 95bc 7c07 053d
00000240: 9449 96bc bfb7 7fbc 1fdf 63bc b828 ba3c
00000250: 3be7 bbbb 69ac e4bc c20e 38bc 7052 453c
00000260: ba3b f4bc 2150 993c b5f8 ccba 5cb4 18bc
00000270: d0ea 7abb 9236 143d 929a a6bc 2ab1 0ebd
00000280: e988 aebb cafa 7d3c c50a 303c ad8e a5bc
00000290: 24d4 023d d205 183c 3b89 dcbc 8c0b abbc
000002a0: a47b db3c 60c1 263a 6790 a2bb 17a5 82bc
000002b0: acd0 923b dd71 a13c b0bf b93c 330d 123c
000002c0: 8711 00bd de88 dcbb d379 8ebc d082 9b3b
000002d0: 98ba eb3c dbee f1bc dc7e 2d3c 2db0 cc3c
000002e0: 2666 23bc f743 17bb 487d c9bb b7e1 6ebc
000002f0: d8d9 ba3b add1 8a3b 758b 883c e26d 15bc
00000300: 0320 98ba df87 e7bc 6668 873b 2864 003d
00000310: 07d1 043d d5bd 233c bda4 e63b b17d fc3c
00000320: 369e d63c 19e1 573b a984 f73a 638d 06bc
00000330: 7b33 0139 e8b2 0dba cdc1 133d 20a2 e63c
00000340: e623 be3c 9c2f 6f3b b973 53bc 3f3d 03bd
00000350: a26e 933b 25a1 1abc 350a 4ebc aa32 b63a
00000360: f337 89bc b1c0 8b3c 8a84 243c 48ec 03bd
00000370: 7c3d 82bc 15f1 1e3c af44 93bb a9dc 9c3b
00000380: 6daa b1bc 42c6 24bc 6152 a7bc e658 3e3b
00000390: c82f a23c 0e07 f43a 7808 12bd d922 edbb
000003a0: 4c86 0e3d 1430 cc3c 54ab 973c 8d3e a3bb
000003b0: 3a2f f43c 3675 003d d91c 7abb 329d 84bb
000003c0: 117c ebbc d6e1 40bb c1d4 00bd be40 c73c
000003d0: c7a5 a6bc 5823 9f3c 5447 82bc 3913 483c
000003e0: 10e7 9fbb 57c3 e9bc 9c59 c6ba 7b60 a6b9
000003f0: 95fd 5abc d175 c5bc e6af bc3c 40e9 7f3b

lin1.bias f4 [64]
0.018685658 0.010255672 0.025568014 0.032111347 -0.0001746341 0.013822543 0.0018847391 0.025592674
0.00092849566 0.024533777 0.014272262 -0.033663895 -0.018009447 0.03438494 -0.024388654 0.0060560205
0.025428116 0.02782344 -0.0348792 0.018635893 0.007276985 0.03449155 -0.004472059 0.010614543
0.020300737 0.002617522 0.022376886 -0.016103078 -0.033551913 -0.022270637 -0.01850836 -0.034471095
0.022359246 0.0026207182 -0.022788066 -0.0045032804 0.009160408 0.00026611646 0.03342488 0.0014169931
0.02903717 0.03366622 0.019744216 -0.017103948 0.009186993 0.032717817 -0.01683737 -0.0028841398
0.035595533 0.031168127 0.022447135 -0.031186271 0.029839918 0.03477473 0.03585892 -0.028096776
-0.0049402947 0.0145604545 0.02733071 -0.013358481 -0.03518957 -0.0156907 0.012250684 -0.02085817
00000000: aa12 993c 6807 283c 0374 d13c 3087 033d
00000010: fc1d 37b9 f377 623c 5a09 f73a baa7 d13c
00000020: 4a66 733a 0ffb c83c 35d6 693c 27e3 09bd
00000030: 8c88 93bc 39d7 0c3d b7ca c7bc 9571 c63b
00000040: a04e d03c fced e33c 7edd 0ebd 4daa 983c
00000050: c673 ee3b 0347 0d3d 5a8a 92bb 9fe8 2d3c
00000060: bb4d a63c bb8a 2b3b bb4f b73c 9aea 83bc
00000070: bb6d 09bd e970 b6bc d89e 97bc 9031 0dbd
00000080: bd2a b73c 5bc0 2b3b 0aae babc 4190 93bb
00000090: 8915 163c 8c85 8b39 87e8 083d 66ba b93a
000000a0: 5cdf ed3c 97e5 093d 9fbe a13c 941d 8cbc
000000b0: 0b85 163c 1e03 063d 86ee 89bc d603 3dbb
000000c0: 9fcc 113d 4d54 ff3c 0ee3 b73c 5a7a ffbc
000000d0: d872 f43c f36f 0e3d cee0 123d 362b e6bc
000000e0: 32e2 a1bb f98e 6e3c a7e4 df3c 88dd 5abc
000000f0: f022 10bd c889 80bc 18b7 483c c1de aabc

lin2.weight f4 [16, 64]
-0.10934057 0.09553026 -0.11368828 0.079183474 0.018044474 0.120936945 -0.121952035 0.0018095267
0.027106311 -0.022872075 0.0071888478 -0.074811 -0.041781433 -0.011773173 0.06583283 0.06782345
0.0907604 -0.010217709 0.122993425 -0.11213099 0.10766224 -0.0754518 -0.10671777 -0.11809642
-0.079906344 -0.08101042 0.013260901 -0.057448454 0.06434593 0.031181771 -0.034405492 0.05235562
0.022391096 -0.008989029 -0.12360559 0.011706698 0.076380834 0.08948749 -0.010615864 -0.0059258775
0.0041064536 -0.027105141 0.045950852 0.028105501 0.11432283 -0.055297874 -0.008717014 -0.05638522
-0.0079969 0.0744374 0.09681944 -0.08023163 -0.032121014 -0.06517173 -0.062919654 -0.1164245
-0.099436976 -0.070959434 -7.778446e-05 -0.0763966 0.03957467 -0.06501035 0.05301927 0.012205232
0.10783915 0.046351533 0.02661711 0.02195762 0.062066533 -0.06933599 0.0316521 0.045692306
-0.0114621995 -0.05252232 -0.024119347 0.05968242 0.04390346 -0.08862905 -0.053860206 0.01488676
0.021096973 -0.028108627 0.086983 -0.09800345 -0.0011968085 -0.113603644 -0.10397285 -0.015919894
-0.058493774 0.06051767 -0.050191097 0.104025826 -0.019196883 -0.022964308 0.10841796 0.09812052
-0.11325532 0.056593385 0.01068614 -0.051473763 0.10819564 0.011025065 -0.045385085 -0.016409768
-0.037320733 -0.024218475 -0.0872208 -0.07560429 0.062973544 -0.030788383 0.03839099 -0.04323981
0.065747134 0.029748218 -0.09095716 -0.07795357 -0.032677267 0.06655988 -0.07651963 0.04025444
-0.012005091 0.089285575 -0.053101793 -0.11506665 0.076240495 0.08610204 0.11857214 0.073765814
0.0018843093 0.11919983 0.09935019 -0.050170675 -0.05043056 0.12354424 -0.02724192 0.014166492
0.07693338 -0.024327815 -0.034628052 -0.013614346 0.069069654 0.04125373 -0.09536274 -0.08997449
0.07213439 0.09418264 -0.0559608 0.027470274 0.04574453 -0.020691693 -0.045975417 -0.060625426
0.10258899 0.059837624 -0.0032271123 -0.05686511 -0.033259552 -0.05193675 -0.10065021 -0.07524794
-0.06578422 -0.08062374 0.08368189 -0.025381004 0.037715472 -0.036056675 0.026579631 -0.04944356
-0.0020939917 -0.0023194826 -0.04293129 -0.067399755 -0.0840311 0.047518134 0.02552103 0.1178436
-0.02263837 0.08394566 -0.11167461 -0.0073348465 -0.10616071 0.011309605 0.102465734 0.06660673
0.076088116 -0.11548617 0.050877765 -0.060551826 -0.025394535 -0.07625475 -0.09095344 -0.0358438
-0.020951333 -0.08258653 0.023780707 -0.1075562 0.08416324 0.10315047 0.008899349 -0.04935069
-0.08421504 -0.092683434 -0.034859315 -0.101874344 -0.02296193 -0.06218769 0.09101007 0.07785349
-0.12499917 -0.016199801 0.12389221 0.10377611 -0.066199325 -0.010274826 0.049218222 -0.011727246
0.1066212 -0.1256148 -0.03681408 0.013238083 0.121722564 0.04261422 0.036796454 -0.08838374
0.034250353 0.031113582 0.009693282 -0.030836366 -0.040145352 0.111816615 0.10154153 -0.07191499
-0.009428327 0.020987904 -0.044682592 -0.022934547 0.04309653 -0.07797561 -0.045138545 0.11289921
0.0853002 0.059525277 0.09318057 -0.116755046 0.11802514 0.0015522437 0.07004605 -0.020751106
0.047563773 0.05902217 -0.12240893 -0.03007249 -0.022615183 0.03786538 -0.117008284 0.06621111
00000000: f3ed dfbd 5ea5 c33d 67d5 e8bd f22a a23d
00000010: 01d2 933c caad f73d fdc1 f9bd a42d ed3a
00000020: 0e0e de3c 385e bbbc 6d90 eb3b 8236 99bd
00000030: 0223 2bbd 44e4 40bc 5dd3 863d 05e7 8a3d
00000040: 97e0 b93d 2d68 27bc fae3 fb3d efa4 e5bd
00000050: 057e dc3d 7986 9abd d98e dabd 89dc f1bd
00000060: f0a5 a3bd cbe8 a5bd 4044 593c 124f 6bbd
00000070: cdc7 833d ea70 ff3c c6ec 0cbd d972 563d
00000080: 886d b73c b846 13bc ed24 fdbd 73cd 3f3c
00000090: 8e6d 9c3d 3845 b73d 29ee 2dbc dd2d c2bb
000000a0: 6e8f 863b 9a0b debc f636 3c3d 823d e63c
000000b0: 1722 ea3d 0680 62bd cfd1 0ebc 30f4 66bd
000000c0: 6e05 03bc a372 983d 4549 c63d 7b50 a4bd
000000d0: 5391 03bd c278 85bd 05dc 80bd f86f eebd
000000e0: 9da5 cbbd 2e53 91bd 3720 a3b8 d275 9cbd
000000f0: 0d19 223d 2524 85bd bc2a 593d 74f8 473c
00000100: c6da dc3d 1bdb 3d3d 200c da3c 77e0 b33c
00000110: 7a39 7e3d 0700 8ebd a2a5 013d db27 3b3d
00000120: f3cb 3bbc a521 57bd f095 c5bc 8e75 743d
00000130: 1dd4 333d 2683 b5bd 859c 5cbd 99e7 733c
00000140: 8fd3 ac3c 1044 e6bc 2524 b23d 08b6 c8bd
00000150: 3bde 9cba 07a9 e8bd b8ef d4bd 706a 82bc
00000160: 2b97 6fbd 60e1 773d 2e95 4dbd 7e0b d53d
00000170: c842 9dbc a51f bcbc 3c0a de3d 69f3 c83d
00000180: 68f2 e7bd 77ce 673d eb14 2f3c 27d6 52bd
00000190: ad95 dd3d 79a2 343c b6e5 39bd c76d 86bc
000001a0: a0dd 18bd d365 c6bc d2a0 b2bd 6cd6 9abd
000001b0: 46f8 803d eb37 fcbc df3f 1d3d 3a1c 31bd
000001c0: 6fa6 863d 89b2 f33c bf47 babd 1fa6 9fbd
000001d0: 99d8 05bd 8c50 883d 53b6 9cbd d7e1 243d
000001e0: 00b1 44bc 5bdb b63d 4481 59bd 10a8 ebbd
000001f0: fa23 9c3d 4456 b03d f3d5 f23d 8812 973d
00000200: eefa f63a 0a1f f43d 1d78 cb3d c47f 4dbd
00000210: 4690 4ebd c304 fd3d 722a dfbc 931a 683c
00000220: 3f8f 9d3d 204b c7bc 25d6 0dbd b50e 5fbc
00000230: 6474 8d3d acf9 283d 8a4d c3bd 8c44 b8bd
00000240: 32bb 933d d4e2 c03d 2737 65bd 5709 e13c
00000250: 9e5e 3b3d a081 a9bc b850 3cbd 5e52 78bd
00000260: 2d1a d23d 4c18 753d f67d 53bb 64eb 68bd
00000270: 2b3b 08bd a1bb 54bd b321 cebd 981b 9abd
00000280: e1b9 86bd 0f1e a5bd 6961 ab3d d3eb cfbc
00000290: 8a7b 1a3d 2ab0 13bd 87bd d93c 5585 4abd
000002a0: 5a3b 09bb 7602 18bb b8d8 2fbd e208 8abd
000002b0: 7f18 acbd 60a2 423d 7b11 d13c fc57 f13d
000002c0: 1a74 b9bc b4eb ab3d a8b5 e4bd 2759 f0bb
000002d0: c96a d9bd ec4b 393c 8ed9 d13d 1c69 883d
000002e0: 16d4 9b3d 0384 ecbd 3465 503d 3105 78bd
000002f0: 3308 d0bc 732b 9cbd cc45 babd f3d0 12bd
00000300: 21a2 abbc 2023 a9bd c2cf c23c 6d46 dcbd
00000310: c75d ac3d 8e40 d33d 93ce 113c f323 4abd
00000320: ef78 acbd d0d0 bdbd a4c8 0ebd 7fa3 d0bd
00000330: a81a bcbc 85b8 7ebd 7d63 ba3d a771 9f3d
00000340: 91ff ffbd 72b5 84bc 33bb fd3d 9288 d43d
00000350: 8393 87bd be57 28bc 0c99 493d a323 40bc
00000360: 375c da3d 2ba1 00be 5cca 16bd 8be4 583c
00000370: ae49 f93d 408c 2e3d e1b7 163d 8902 b5bd
00000380: 194a 0c3d e9e1 fe3c 92d0 1e3c 8c9c fcbc
00000390: 746f 24bd 1c00 e53d 01f5 cf3d 2b48 93bd
000003a0: 4579 1abc d3ee ab3c 1805 37bd 3be1 bbbc
000003b0: fd85 303d adb1 9fbd 32e3 38bd b337 e73d
000003c0: dfb1 ae3d c7d0 733d 74d5 be3d 451d efbd
000003d0: 2ab7 f13d a874 cb3a 4e74 8f3d 39fe a9bc
000003e0: 3bd2 423d 3bc1 713d 88b1 fabd 955a f6bc
000003f0: 7a43 b9bc bb18 1b3d 0aa2 efbd b199 873d

lin2.bias f4 [16]
-0.07412687 -0.017589133 -0.0099407565 0.08214903 0.0923439 -0.10085556 0.07558556 -0.08622363
-0.05619277 -0.10835078 0.022538599 -0.066830665 0.04898661 0.111388095 -0.0027029042 -0.051849604
00000000: d4cf 97bd 1617 90bc 8ede 22bc c03d a83d
00000010: cc1e bd3d 5c8d cebd 9acc 9a3d 0496 b0bd
00000020: 642a 66bd 04e7 ddbd dea2 b83c 84de 88bd
00000030: 2fa6 483d 711f e43d 3523 31bb 4060 54bd

lin3.weight f4 [3, 16]
0.02961047 0.05043488 -0.053260107 0.23803937 0.035801955 -0.039262414 0.15311651 0.15250209
-0.13806202 0.19877023 0.2076862 0.21287914 0.095038004 -0.12555721 -0.09252083 0.121712275
-0.18746792 -0.118734404 -0.035978656 -0.108578585 -0.08904352 0.11349711 -0.05129238 0.15608627
0.030868638 0.16411777 -0.029613843 0.21916436 -0.120279044 0.2179825 0.24132454 0.17423691
-0.16774346 -0.13555594 -0.20123625 0.1897492 -0.14118452 -0.021466121 0.22039075 0.20842041
0.092036165 0.016122753 -0.001793113 -0.23049666 0.10137025 -0.0108216 0.21098469 -0.18856756
00000000: a891 f23c ce94 4e3d 4527 5abd 98c0 733e
00000010: 12a5 123d a0d1 20bd 93ca 1c3e 8229 1c3e
00000020: 2160 0dbe 6c8a 4b3e b1ab 543e fdfc 593e
00000030: 49a3 c23d 1292 00be 907b bdbd 4944 f93d
00000040: 97f7 3fbe 062b f3bd 5b5e 13bd 735e debd
00000050: 735c b6bd 2c71 e83d f517 52bd 14d5 1f3e
00000060: 3ae0 fc3c 7d0e 283e bb98 f2bc 9f6c 603e
00000070: dc54 f6bd ce36 5f3e c81d 773e 296b 323e
00000080: f1c4 2bbe 2dcf 0abe e010 4ebe 9d4d 423e
00000090: ad92 10be b8d9 afbc 1dae 613e 296c 553e
000000a0: 757d bc3d dd13 843c e306 ebba 5107 6cbe
000000b0: 359b cf3d 154d 31bc 5f0c 583e db17 41be

lin3.bias f4 [3]
-0.12076742 -0.13356388 -0.2117635
00000000: e954 f7bd f8c4 08be 88d8 58be
