dagger_models/model_1.pth (torch, 231749 bytes, 24 tensors)

conv1.weight f4 [4, 1, 5, 5]
-0.120584995 0.040600073 -0.1520957 0.11357583 0.056419656 -0.039767213 -0.17878054 -0.17367369
0.19331045 0.08724989 -0.05935782 -0.105892815 0.00040746504 0.04464493 -0.13758278 0.052130662
0.027587635 0.19290292 -0.027116375 -0.01712591 -0.1610526 -0.13556895 0.15995595 -0.17857389
-0.0831145 0.087005 -0.15391704 -0.11350131 -0.11809403 0.19249727 -0.19992281 0.10661016
0.11854953 -0.18381529 -0.14673938 -0.13175838 -0.07019665 0.08738915 -0.12995954 0.14748634
0.06333369 -0.056264944 0.18640107 -0.008148029 -0.05299793 0.032807257 -0.03639918 0.091458276
-0.19353114 -0.16110204 -0.15717518 -0.123385645 -0.19377655 0.1351598 -0.16808432 0.18643881
0.05639361 -0.111872256 0.044378065 -0.18201075 -0.040497337 -0.06357568 0.016348127 -0.11012703
0.09989007 -0.079917446 -0.05402816 0.0048496574 0.13079973 0.021498319 -0.06514921 0.15579939
0.19809203 -0.15331747 0.15776151 0.01573725 -0.09916395 -0.15205477 0.13817622 0.034166027
0.03057372 -0.12824965 -0.044732857 -0.17433654 0.041410107 -0.16388215 0.05020657 0.07677187
0.053893913 -0.18530157 0.08925339 0.19014065 0.0010230088 -0.17479864 -0.01999024 -0.0994738
-0.112492345 0.049411688 0.19952573 -0.08959974
00000000: 44f5 f6bd 434c 263d fabe 1bbe 729a e83d
00000010: 4c18 673d f2e2 22bd 3f12 37be 84d7 31be
00000020: 2df3 453e 12b0 b23d 2f21 73bd 55de d8bd
00000030: 08a1 d539 9add 363d 80e2 0cbe f686 553d
00000040: 77ff e13c 5888 453e 2923 debc a34b 8cbc
00000050: f9ea 24be 96d2 0abe 7ecb 233e 13dc 36be
00000060: ef37 aabd ad2f b23d 6e9c 1dbe 6073 e8bd
00000070: 48db f1bd 011e 453e 91b8 4cbe 6d56 da3d
00000080: 19ca f23d 133a 3cbe d942 16be abeb 06be
00000090: 43c3 8fbd 15f9 b23d 1d14 05be a906 173e
000000a0: 18b5 813d 1276 66bd ecdf 3e3e 507f 05bc
000000b0: 5c14 59bd e760 063d 4e17 15bd 7a4e bb3d
000000c0: 072d 46be eff7 24be 88f2 20be 9db1 fcbd
000000d0: 5c6d 46be 5567 0a3e 4c1e 2cbe d1e9 3e3e
000000e0: fcfc 663d 481d e5bd c6c5 353d 0761 3abe
000000f0: 89e0 25bd f733 82bd 82ec 853c 488a e1bd
00000100: 2a93 cc3d c2ab a3bd a24c 5dbd e0e9 9e3b
00000110: 5df0 053e 3e1d b03c f36c 85bd e089 1f3e
00000120: a3d8 4a3e 41ff 1cbe 3c8c 213e 68eb 803c
00000130: 7816 cbbd 3fb4 1bbe 117e 0d3e adf1 0b3d
00000140: bd75 fa3c e053 03be cd39 37bd 4785 32be
00000150: a59d 293d b9d0 27be 68a5 4d3d 923a 9d3d
00000160: ddbf 5c3d b2bf 3dbe 7bca b63d 3bb4 423e
00000170: 7b16 863a 6afe 32be 92c2 a3bc ebb8 cbbd
00000180: 6362 e6bd e963 4a3d 7950 4c3e 1280 b7bd

conv1.bias f4 [4]
0.019855693 0.14650156 -0.05447468 -0.08135968
00000000: 68a8 a23c 8104 163e d820 5fbd e79f a6bd

norm1.weight f4 [4]
1.000326 0.99971825 0.9995106 1.0004437
00000000: af0a 803f 89ed 7f3f eddf 7f3f 8a0e 803f

norm1.bias f4 [4]
-3.0213514e-05 -7.0232905e-05 -4.8592923e-05 0.000438013
00000000: 0773 fdb7 014a 93b8 41d0 4bb8 1ca5 e539

norm1.running_mean f4 [4]
-91.90042 -97.54139 -44.277103 -72.12597
00000000: 04cd b7c2 3115 c3c2 c11b 31c2 7f40 90c2

norm1.running_var f4 [4]
491.3153 545.6532 135.79251 293.2583
00000000: 5ca8 f543 ce69 0844 e2ca 0743 10a1 9243

conv2.weight f4 [8, 4, 5, 5]
-0.023673534 -0.0025425008 0.0017823796 0.027585989 -0.08810116 0.07896947 -0.0800437 -0.027795274
0.030534843 -0.042048335 -0.08382055 -0.022266392 0.09881628 0.023328198 0.0811573 0.087665655
-0.010879693 0.044231474 -0.061792802 0.015901843 -0.04050853 0.03171864 0.0169151 0.08045673
-0.047415834 -0.02906009 0.0714672 -0.098615624 0.03932299 -0.04859267 0.06643096 0.04912805
-0.05725951 -0.014138157 0.0023431273 -0.07545978 0.052233323 -0.06643655 0.086738385 -0.055213034
0.024461256 -0.043197807 -0.079814784 -0.06691158 -0.08458279 -0.04202752 -0.027054572 0.03104806
-0.095313884 -0.018751433 -0.08914745 0.043094173 -0.022993218 0.05149109 -0.017892933 0.0986591
0.055752266 -0.02523663 -0.03493058 -0.02876068 -0.03318916 -0.055693846 0.06287157 -0.06797011
-0.050718326 -0.028347597 -0.016313415 0.018361378 -0.056566004 -0.09084014 0.09992083 -0.04125935
-0.06494744 0.09132764 -0.03411362 -0.02042158 0.034602847 -0.0841832 0.060528 0.039898124
0.043816637 -0.090893745 0.0834484 -0.020650158 0.03697085 -0.05990368 0.010151726 0.052111816
0.022475665 -0.07098453 -0.0108952215 -0.037658162 -0.059480265 -0.03056271 -0.011694519 -0.022005545
-0.05704402 0.0891355 -0.059639186 0.07836863 -0.07515125 0.04921826 -0.023824817 0.0044064927
-0.081766985 0.09396828 -0.039581668 0.0066834376 -0.0064495876 -0.03791329 -0.0035381224 0.012392689
0.062354393 -0.071716145 -0.03528988 -0.01274114 -0.01298807 0.08438204 -0.003266018 0.0872817
-0.018517844 0.029849371 0.012723502 0.08779094 -0.05376186 0.026103968 -0.06417332 0.09838624
0.03750268 0.026956256 0.031185914 -0.08764548 -0.004104214 0.081408635 -0.013144616 0.05687755
-0.06476283 -0.050736744 0.03415512 0.07308096 -0.03608643 0.027104206 -0.056020007 -0.003141007
-0.033135492 -0.0690576 -0.033942368 0.0373619 -0.0106467 0.019356823 0.009446223 -0.057469383
0.018865442 -0.052617505 -0.060149807 -0.09083253 0.09966599 0.07589531 -0.039389618 0.011388075
-0.09245286 0.0278121 -0.075269915 0.04834147 -0.022073489 0.048122287 0.09321926 -0.011077371
0.02817128 0.060262855 0.0028335594 -0.06018441 0.042442102 0.034521617 0.013446478 -0.0040460257
-0.018840473 0.076773226 -0.02410565 0.012524429 0.0013185677 0.037781656 -0.029239213 -0.055157144
0.04558023 -0.026152981 -0.03182073 0.020936366 -0.05885629 -0.07177685 -0.08631241 0.052474815
-0.034365304 0.006148379 -0.046403855 0.07244464 -0.058458224 -0.0838237 0.019528829 -0.036278326
-0.025094174 0.008805981 -0.057248745 0.018064324 -0.078587405 -0.07599525 -0.061718624 -0.0389014
-0.08385428 -0.007324108 0.00040216156 -0.07417739 -0.040909097 0.032427505 0.03323174 -0.032793555
0.08300455 0.014425585 0.09583306 0.09226279 -0.016463567 -0.09900507 0.042966723 -0.009959398
0.024984615 0.08029783 -0.011574038 0.0011078402 0.026993232 0.01052344 -0.072757885 0.06022436
0.07366044 -0.040645972 -0.094619706 -0.020672599 0.07658743 -0.033821177 -0.09672192 0.01065172
0.041056924 0.07630654 -0.09334687 0.0943822 -0.004928817 0.092761904 0.027028766 0.0429747
0.022558494 0.040959932 0.016917245 0.0565141 0.04770381 -0.06376308 0.010067592 0.065740936
00000000: 00ef c1bc 16a0 26bb bc9e e93a 03fc e13c
00000010: 626e b4bd bfba a13d f4ed a3bd eab2 e3bc
00000020: 3524 fa3c e03a 2cbd 1caa abbd 0268 b6bc
00000030: 3160 ca3d c71a bf3c cc35 a63d 0d8a b33d
00000040: bd40 32bc 102c 353d 731a 7dbd 9544 823c
00000050: 46ec 25bd 68eb 013d 8991 8a3c 80c6 a43d
00000060: 1b37 42bd 6d0f eebc 655d 923d fdf6 c9bd
00000070: 2511 213d 1c09 47bd f50c 883d 7f3a 493d
00000080: f388 6abd baa3 67bc 278f 193b a88a 9abd
00000090: 9cf2 553d e30f 88bd e5a3 b13d 1027 62bd
000000a0: f962 c83c 2ff0 30bd ef75 a3bd f008 89bd
000000b0: be39 adbd 0c25 2cbd 8da1 ddbc 8058 fe3c
000000c0: ed33 c3bd 9b9c 99bc f092 b6bd 8483 303d
000000d0: 465c bcbc 52e8 523d 3394 92bc c80d ca3d
000000e0: 7d5c 643d 0dbd cebc 5e13 0fbd 859b ebbc
000000f0: 5bf1 07bd 3b1f 64bd cfc2 803d ea33 8bbd
00000100: 05be 4fbd 3839 e8bc b6a3 85bc 9a6a 963c
00000110: c1b1 67bd 650a babd 4ba3 cc3d 90ff 28bd
00000120: 2a03 85bd fc09 bb3d b9ba 0bbd 284b a7bc
00000130: b7bb 0d3d 3e68 acbd 35ec 773d 376c 233d
00000140: 1379 333d 8026 babd ffe6 aa3d 852a a9bc
00000150: bf6e 173d 905d 75bd 6d53 263c 3373 553d
00000160: e31e b83c 5660 91bd df81 32bc 723f 1abd
00000170: 94a1 73bd a65e fabc 5e9a 3fbc f944 b4bc
00000180: fea6 69bd ac8c b63d 3848 74bd bb7f a03d
00000190: e6e8 99bd 1699 493d 432c c3bc 5764 903b
000001a0: 7375 a7bd 7172 c03d 6320 22bd bd00 db3b
000001b0: 1057 d3bb f74a 1bbd d8df 67bb b40a 4b3c
000001c0: 5267 7f3d eadf 92bd 1f8c 10bd 37c0 50bc
000001d0: eacb 54bc 7ed0 ac3d b00a 56bb bfc0 b23d
000001e0: bcb2 97bc ab86 f43c 3c76 503c bdcb b33d
000001f0: 6535 5cbd fdd7 d53c 4d6d 83bd ba7e c93d
00000200: 699c 193d 5ed3 dc3c 9a79 ff3c 797f b3bd
00000210: a47c 86bb 92b9 a63d 845c 57bc 6ff8 683d
00000220: 60a2 84bd 55d1 4fbd 3de6 0b3d 78ab 953d
00000230: 5dcf 13bd a409 de3c 3c75 65bd 5ad9 4dbb
00000240: 15b9 07bd 126e 8dbd 2707 0bbd cb08 193d
00000250: 7f6f 2ebc 3392 9e3c 55c4 1a3c 0465 6bbd
00000260: b38b 9a3c 7485 57bd a55f 76bd 6806 babd
00000270: af1d cc3d 006f 9b3d 0257 21bd 0c95 3a3c
00000280: ed57 bdbd 33d6 e33c 1d27 9abd b501 463d
00000290: 76d3 b4bc e01b 453d bde9 be3d dd7d 35bc
000002a0: 75c7 e63c 2fd6 763d 3db3 393b ee83 76bd
000002b0: c5d7 2d3d 8a66 0d3d 9e4e 5c3c 8694 84bb
000002c0: 5657 9abc 483b 9d3d 3679 c5bc 4333 4d3c
000002d0: cad3 ac3a f0c0 1a3d 1387 efbc 75ec 61bd
000002e0: 56b2 3a3d c73e d6bc 7456 02bd be82 ab3c
000002f0: 4b13 71bd beff 92bd 90c4 b0bd d5ef 563d
00000300: a2c2 0cbd 5778 c93b f811 3ebd db5d 943d
00000310: e471 6fbd c3ab abbd ecfa 9f3c 9598 14bd
00000320: 4c92 cdbc f646 103c a97d 6abd a2fb 933c
00000330: 6ff2 a0bd 66a3 9bbd abcc 7cbd 1357 1fbd
00000340: cbbb abbd 12ff efbb 36d9 d239 51ea 97bd
00000350: 4c90 27bd b4d2 043d 011e 083d 8952 06bd
00000360: 4afe a93d 4a59 6c3c 2044 c43d 46f4 bc3d
00000370: 9ade 86bc 2cc3 cabd e0fd 2f3d be2c 23bc
00000380: 89ac cc3c 3073 a43d 09a1 3dbc f334 913a
00000390: e920 dd3c 826a 2c3c 1602 95bd d2ad 763d
000003a0: 49db 963d 647c 26bd fac7 c1bd 9559 a9bc
000003b0: dfd9 9c3d 1388 0abd 2416 c6bd 8d84 2e3c
000003c0: 4e2b 283d 9a46 9c3d a52c bfbd 744b c13d
000003d0: ea81 a1bb f4f9 bd3d 6e6b dd3c 3d06 303d
000003e0: 97cc b83c 9ac5 273d 0996 8a3c 547b 673d
000003f0: 1265 433d 3896 82bd 8bf2 243c 2fa3 863d

conv2.bias f4 [8]
0.062634416 -0.0930582 -0.08920998 -0.05147408 -0.078705125 -0.0830005 -0.005824406 0.024235073
00000000: 7946 803d 4c95 bebd b9b3 b6bd 7cd6 52bd
00000010: 2730 a1bd 2bfc a9bd a9da bebb a288 c63c

norm2.weight f4 [8]
0.9999169 1.0000432 0.999989 0.9997424 0.99990076 1.0000042 1.0000317 1.0003691
00000000: 8efa 7f3f 6a01 803f 47ff 7f3f 1eef 7f3f
00000010: 7ff9 7f3f 2300 803f 0a01 803f 180c 803f

norm2.bias f4 [8]
-0.00017831755 -1.6579432e-05 5.675893e-05 0.00015116429 0.00018364709 7.7918e-05 0.000134925 7.778329e-05
00000000: c1fa 3ab9 0f14 8bb7 7010 6e38 db81 1e39
00000010: 6491 4039 e867 a338 a77a 0d39 961f a338

norm2.running_mean f4 [8]
-0.2572183 -0.1729068 -0.21490957 0.09002207 -0.19222103 0.1393648 -0.20778838 -0.022201266
00000000: 1eb2 83be 7b0e 31be 4111 5cbe 7e5d b83d
00000010: 97d5 44be a5b5 0e3e 7ac6 54be 6edf b5bc

norm2.running_var f4 [8]
0.3250483 0.06795465 0.101356305 0.103046775 0.12626186 0.1742757 0.19539586 0.11820467
00000000: bb6c a63e cf2b 8b3d e593 cf3d 300a d33d
00000010: ca4a 013e 5475 323e da15 483e 4a15 f23d

conv3.weight f4 [16, 8, 6, 6]
-0.0009546707 -0.036735043 0.0033986028 -0.04304551 -0.0008028879 -0.04869944 0.0027913766 0.0057128705
-0.047240358 -0.017502474 -0.049774308 0.04859331 0.004357542 -0.039547335 0.02863196 0.0243328
-0.030930806 -0.038179647 0.0092574125 0.013081007 -0.024167536 -0.04321353 0.022285331 -0.027576236
0.0081600705 -0.050738465 -0.019633675 0.035810705 -0.00015420164 0.044481523 0.04374795 -0.048771515
0.021780396 -0.011130428 -0.033929083 -0.032719377 -0.032367926 0.018784583 -0.017720493 0.009353798
-0.04145074 0.053687423 0.04238459 -0.01103319 0.029964464 0.05562188 -0.0012835662 0.05360861
-0.042971257 0.006420559 -0.010943669 0.024729365 0.0408341 0.041143466 -0.013904325 -0.023220468
0.04363392 -0.020159716 -0.057470523 0.042971823 -0.031711396 0.0137221245 0.034475535 0.014179961
0.03593709 -0.004144861 -0.011149446 -0.020033177 0.025357598 -0.035151735 -0.046750557 0.02665352
0.037026286 0.018297326 0.056457598 -0.05223365 -0.021506911 0.014667785 0.026086975 0.0146551505
-0.041399095 -0.023410697 0.0069368593 0.05134717 0.024849985 0.055064753 0.05602953 0.0361951
0.020069685 -0.037874017 0.03652935 0.041276757 0.05801202 -0.0027496356 0.002646987 0.015612206
-0.029324751 -0.043313865 -0.03344423 0.057057224 0.013232253 0.0040122177 -0.048541978 -0.0016009128
0.017597541 -0.031221578 -0.006418906 0.0038277651 -0.0349018 -0.029280674 0.052537326 -0.04206896
0.05078001 0.02367823 0.04555877 0.0065261214 -0.011961572 -0.014309581 0.027480783 -0.003429703
-0.024690293 0.039161853 -0.005397751 -0.05394432 -0.0041058776 0.03416863 -0.05550898 -0.0018249062
-0.0006025437 -0.050402258 -0.025461696 0.016344246 -0.039615065 0.0047397823 0.02613335 0.007969578
-0.058293063 -0.04213704 0.014076309 -0.04932238 -0.033258535 0.0364532 0.046348687 0.047518175
-0.050009392 -0.020375766 0.048752997 -0.018577408 -0.057744704 0.05224345 -0.019742414 0.049151003
0.03790086 -0.04708929 0.047615387 -0.023639055 0.018317461 0.016276466 0.0010828155 -0.0492362
0.03280398 -0.040077854 -0.0058518536 0.028786099 0.049304888 0.021388585 0.038798172 -0.003839679
-0.058089465 0.058235265 -0.018065115 0.032077525 0.04944357 -0.038911086 0.04207832 -0.043444715
-0.018034868 0.049294908 -0.0059895767 -0.00468235 -0.010095192 0.050880477 0.03338914 -0.022573795
0.0161255 -0.01782105 -0.027006762 0.044243224 0.052057873 -0.025282413 -0.039051235 -0.05227624
0.046199232 -0.0009648501 -0.02379649 0.005923655 0.006114863 -0.04348892 -0.0048113065 -0.006434117
0.05835492 -0.0041725575 -0.0089233015 -0.025696004 0.013969342 -0.017383374 -0.04448306 -0.0025747188
0.05253259 0.05140811 -0.028651344 0.0040305434 -0.009656927 0.030076893 0.004557434 -0.014830434
0.050575316 0.053338453 0.0557649 0.047428157 0.040555384 -0.013846648 -0.03773432 -0.058444686
0.02943499 -0.03157458 -0.04907575 0.04409019 0.02923217 -0.045550525 0.00979862 0.035567064
0.013170325 0.054952446 -0.02121425 -0.046017077 0.038889598 0.0295659 0.04027361 -0.03112274
0.014947796 -0.056599867 0.0040502003 0.023141531 -0.05333067 0.02777729 -0.03347933 0.008123959
0.0050246962 -0.026473053 -0.026967557 0.01942722 -0.058823492 -0.015234284 -0.015017205 -0.028577683
00000000: de42 7aba 7c77 16bd 18bb 5e3b 7d50 30bd
00000010: e578 52ba 1079 47bd 87ef 363b 0833 bb3b
00000020: 1b7f 41bd 5961 8fbc 25e0 4bbd c709 473d
00000030: b6c9 8e3b 63fc 21bd 928d ea3c 9555 c73c
00000040: 9a62 fdbc 4362 1cbd 67ac 173c b851 563c
00000050: fffa c5bc ac00 31bd ba8f b63c 8fe7 e1bc
00000060: d1b1 053c 23d3 4fbd cdd6 a0bc 3fae 123d
00000070: 30b1 21b9 4232 363d 0d31 333d a4c4 47bd
00000080: cd6c b23c 665c 36bc 39f9 0abd c104 06bd
00000090: 3b94 04bd 20e2 993c 912a 91bc ac40 193c
000000a0: 40c8 29bd 58e7 5b3d 779b 2d3d 8ec4 34bc
000000b0: 0978 f53c c5d3 633d 563d a8ba b494 5b3d
000000c0: a102 30bd 8d63 d23b 134d 33bc 3d95 ca3c
000000d0: a841 273d 0d86 283d f7ce 63bc da38 bebc
000000e0: 7bb9 323d fd25 a5bc 3666 6bbd 3903 303d
000000f0: cfe3 01bd c3d2 603c 3836 0d3d 1153 683c
00000100: c532 133d 9dd1 87bb 2aac 36bc 9e1c a4bc
00000110: bdba cf3c 44fb 0fbd 837d 3fbd 7c58 da3c
00000120: e0a8 173d 46e4 953c 1540 673d f4f2 55bd
00000130: 432f b0bc 2651 703c 5ab4 d53c 281c 703c
00000140: 1992 29bd cac7 bfbc 984e e33b 6951 523d
00000150: 3292 cb3c 948b 613d 387f 653d 5041 143d
00000160: 2e69 a43c c921 1bbd cd9f 153d d111 293d
00000170: 039e 6d3d 3b33 34bb 1379 2d3b 57ca 7f3c
00000180: 763a f0bc e169 31bd d1fc 08bd d6b4 693d
00000190: 17cc 583c ec78 833b f4d3 46bd b8d5 d1ba
000001a0: b828 903c 65c4 ffbc b055 d2bb 3edb 7a3b
000001b0: 31f5 0ebd 06de efbc 6131 573d 8050 2cbd
000001c0: b3fe 4f3d d9f8 c13c d59b 3a3d 13d9 d53b
000001d0: 78fa 43bc bc72 6abc 611f e13c dec4 60bb
000001e0: 4c43 cabc 2e68 203d 9edf b0bb b8f4 5cbd
000001f0: 998a 86bb 68f4 0b3d 625d 63bd b131 efba
00000200: 06f4 1dba 9972 4ebd 0c95 d0bc 5ee4 853c
00000210: 6843 22bd 2d50 9b3b 9b15 d63c d592 023c
00000220: b5c4 6ebd e497 2cbd 52a0 663c 4406 4abd
00000230: 1a3a 08bd f34f 153d 1fd8 3d3d 6ba2 423d
00000240: a6d6 4cbd 14eb a6bc 39b1 473d a62f 98bc
00000250: b685 6cbd 3afd 553d d8ba a1bc 9052 493d
00000260: ef3d 1b3d b3e0 40bd 5a08 433d b1a6 c1bc
00000270: 800e 963c 3956 853c 42ed 8d3a e6ab 49bd
00000280: 775d 063d ad28 24bd e8c0 bfbb d3d0 eb3c
00000290: ecf3 493d 1d37 af3c d5ea 1e3d 20a3 7bbb
000002a0: 38ef 6dbd 1a88 6e3d 4bfd 93bc b963 033d
000002b0: 5785 4a3d 3b61 1fbd 515a 2c3d 16f3 31bd
000002c0: dcbd 93bc 75e9 493d 3644 c4bb 666e 99bb
000002d0: 4e66 25bc 0c68 503d 0dc3 083d aeec b8bc
000002e0: a019 843c 73fd 91bc 493d ddbc 6238 353d
000002f0: a33a 553d 101d cfbc 30f4 1fbd 9c1f 56bd
00000300: 683b 3d3d ffed 7cba dbf0 c2bc 381b c23b
00000310: 305f c83b 7021 32bd 2aa8 9dbb 49d5 d2bb
00000320: 9205 6f3d f3b9 88bb 0a33 12bc 6d80 d2bc
00000330: abdf 643c 9467 8ebc de33 36bd 9dbc 28bb
00000340: 6a2c 573d 4f91 523d 39b6 eabc a612 843b
00000350: 1638 1ebc d163 f63c 8756 953b 59fb 72bc
00000360: 1028 4f3d 6c79 5a3d bc69 643d 0744 423d
00000370: 671d 263d 0ddd 62bc 4d8f 1abd b263 6fbd
00000380: a621 f13c 5954 01bd a703 49bd ea97 343d
00000390: 4e78 ef3c 3093 3abd 648a 203c c5ae 113d
000003a0: 59c8 573c d115 613d 82c9 adbc 677c 3cbd
000003b0: b34a 1f3d 3034 f23c f1f5 243d 1ef5 febc
000003c0: 9ae7 743c 43d5 67bd 8bb7 843b 4f93 bd3c
000003d0: 4371 5abd 338d e33c 9f21 09bd 5b1a 053c
000003e0: 35a6 a43b 04de d8bc 11eb dcbc d525 9f3c
000003f0: e7f0 70bd 3899 79bc b90a 76bc bf1b eabc

conv3.bias f4 [16]
0.0022337213 -0.049610816 -0.05781733 -0.058591664 -0.054695833 0.043155733 0.016234767 0.005150739
0.0043871813 0.05165529 0.032633353 -0.032752253 -0.0028967336 -0.019405056 0.033733066 -0.05746628
00000000: a063 123b b634 4bbd ddd1 6cbd d0fd 6fbd
00000010: bd08 60bd 11c4 303d c6fe 843c 88c7 a83b
00000020: 58c2 8f3b 7f94 533d 8daa 053d 3a27 06bd
00000030: 20d7 3dbb 5af7 9ebc af2b 0a3d c361 6bbd

norm3.weight f4 [16]
0.99989295 0.9999304 0.9999473 0.99976563 0.9998933 1.0000737 0.99967176 1.0001066
1.0002022 1.0001062 1.0002671 1.0002539 1.0003494 1.0001591 1.0003039 0.99960876
00000000: fcf8 7f3f 70fb 7f3f 8cfc 7f3f a4f0 7f3f
00000010: 02f9 7f3f 6a02 803f 7dea 7f3f 7e03 803f
00000020: a006 803f 7b03 803f c108 803f 5208 803f
00000030: 730b 803f 3705 803f f509 803f 5ce6 7f3f

norm3.bias f4 [16]
1.1343513e-05 -0.00021061444 -7.2380186e-05 -0.00019369113 -6.165555e-05 2.139743e-05 -0.0001888256 0.00014130361
-3.8197362e-05 0.00034674595 0.00017702048 0.00026220307 0.00016441463 0.00020865521 0.0003386222 -0.00036280983
00000000: 0450 3e37 62d8 5cb9 d1ca 97b8 9119 4bb9
00000010: 124d 81b8 a27e b337 7cff 45b9 e62a 1439
00000020: 1b36 20b8 74cb b539 939e 3939 4d78 8939
00000030: b766 2c39 75ca 5a39 1a89 b139 8337 beb9

norm3.running_mean f4 [16]
0.1649887 -0.31222072 -0.033726078 0.20633216 0.28211302 0.4561283 0.025194027 -0.008868487
-0.08973619 -0.12925926 0.25699782 -0.09430869 0.26188493 0.2756157 0.20775983 0.116881296
00000000: ccf2 283e 65db 9fbe 5b24 0abd bd48 533e
00000010: 1e71 903e a689 e93e b463 ce3c 214d 11bc
00000020: 9cc7 b7bd 8a5c 04be 3895 833e ea24 c1bd
00000030: c815 863e 801d 8d3e febe 543e 765f ef3d

norm3.running_var f4 [16]
0.09474654 0.14415722 0.2864324 0.13243793 0.122479916 0.22527635 0.1430621 0.10192162
0.12124392 0.1187817 0.12421529 0.16149896 0.15206468 0.12675428 0.108242944 0.1596187
00000000: 790a c23d f39d 133e 44a7 923e cf9d 073e
00000010: c0d6 fa3d d8ae 663e df7e 123e 48bc d03d
00000020: bb4e f83d d243 f33d 9664 fe3d fc5f 253e
00000030: d8b6 1b3e e0cb 013e 7aae dd3d 1673 233e

lin1.weight f4 [64, 768]
-0.02644794 0.009744385 -0.014262947 0.0360122 0.034524407 0.018206945 -0.024751741 0.023696585
0.006585718 -0.020964382 0.022764018 0.033797182 0.013977523 -0.034870896 -0.0037536235 0.00034424453
0.00040978356 -0.027058477 0.032717954 -0.029289918 0.007961816 -0.035308488 -0.016162451 -0.01751631
-0.0066086017 -0.019847507 0.03194988 0.008996313 -0.029787539 -0.028034264 0.03165586 -0.027696976
-0.022613032 0.0019091257 -0.010194699 0.0102406 -0.02462038 0.03294962 -0.02865903 0.007757519
-0.013120362 0.00595042 -0.006599262 -0.004173325 0.01647894 -0.0064943875 -0.0020228468 0.00961665
0.017071776 0.024759954 0.025208814 0.014058498 -0.0329968 -0.023234345 -0.012947043 0.035376165
0.0349203 -0.023668572 -0.0020467595 0.032711767 0.0339939 0.031436265 0.035727106 0.03608493
0.0193988 -0.0056726737 -0.025861755 -0.011413902 -0.0065728487 0.024161527 -0.01712691 0.033668462
0.0062588593 -0.031125301 0.019738235 0.025961692 0.009481742 -0.00708255 0.0058935657 -0.021425594
0.013789689 -0.0005685041 0.0005271174 0.0311563 -0.030378664 0.009370429 -0.03486477 -0.008604457
-0.009452492 0.03152269 0.03382442 -0.030930066 0.010004572 0.02133884 -0.020814499 0.016674174
-0.010973535 -0.0111604035 0.022256972 0.009795057 0.017616326 0.031415135 0.03147229 -0.03539285
-0.019862048 0.012808744 -0.023227122 -0.010224269 0.015159388 -0.020834006 0.023417657 -0.03127579
-0.00224768 -0.007530357 -0.0032401977 0.03564836 -0.033048313 -0.012872857 0.005464292 0.012576601
0.0105632655 -0.021644874 0.022566762 -0.0018759444 -0.000614692 0.018071972 -0.0076004644 -0.0055646063
0.0045648306 0.027444655 -0.00037794726 -0.014426129 -0.022957722 -0.008620095 0.030495295 0.02198817
0.032652188 -0.014340897 -0.009692961 0.0099598095 0.005725362 0.0044406434 0.01948126 -0.01410391
-0.024808634 0.0034365319 -0.0026522398 -0.023937047 -0.021659827 -0.013953464 -0.004678436 -0.011354145
-0.03190373 -0.004581504 0.023422513 -0.03345296 -0.034844726 0.034089472 -0.016547412 -0.021611623
0.016353082 -0.011773519 0.011489983 -0.016944835 0.007865186 0.008612471 0.010665678 -0.006907573
0.018850595 0.012846344 -0.010257372 -0.0006972307 0.013054067 0.035974234 0.018416738 -0.013665827
-0.022445867 -0.030785989 -0.01675508 -0.009497876 0.01816215 -0.015180412 0.009982811 0.008099094
0.0004156418 -0.028017549 -0.018874278 -0.013240972 -0.029407095 -0.027254604 0.013860075 0.014664967
-0.004657968 0.01755308 0.019191148 0.033262163 0.0065426813 -0.015693933 0.013399579 -0.022211365
-0.0006337257 -0.021539342 0.0008108757 -0.027359117 0.031116389 -0.0248605 0.028522857 0.026810817
-0.006418869 -0.020251501 -0.034460105 0.007463859 0.0010543988 -0.02288214 0.013418818 -0.030664021
0.0051039383 0.006304851 -0.03354514 0.020729741 0.035820793 0.019148331 0.007940742 0.012870204
-0.034613207 -0.023856012 0.0025355138 -0.026351752 -0.016376285 0.014642555 0.020989168 0.027213149
0.034136757 0.011970859 -0.023039598 0.023888081 -0.023938833 -0.02230293 -0.01875858 0.015940975
0.025319818 0.011877523 0.014962603 0.029890135 -0.023818312 -0.011927409 0.009952217 -0.028643565
-0.032619476 0.030084576 -0.0113128815 0.013912646 0.010366167 0.004231289 0.028641887 -0.019210327
00000000: 5aa9 d8bc eaa6 1f3c 23af 69bc 8781 133d
00000010: 7769 0d3d bb26 953c 2ac4 cabc 571f c23c
00000020: 02cd d73b 7fbd abbc 9b7b ba3c ea6e 0a3d
00000030: fb01 653c c9d4 0ebd 5aff 75bb b87b b439
00000040: 38d8 d639 bda9 ddbc 4303 063d 69f1 efbc
00000050: 4772 023c a29f 10bd 1e67 84bc 5d7e 8fbc
00000060: f88c d8bb 3d97 a2bc e1dd 023d 4665 133c
00000070: ff04 f4bc 1da8 e5bc 93a9 013d c5e4 e2bc
00000080: f73e b9bc a13b fa3a ab07 27bc 31c8 273c
00000090: aeb0 c9bc 2ef6 063d 58c6 eabc c932 fe3b
000000a0: c9f6 56bc befb c23b 9f3e d8bb 63c0 88bb
000000b0: d8fe 863c dfce d4bb bd91 04bb 278f 1d3c
000000c0: 1cda 8b3c 63d5 ca3c b782 ce3c 9d55 663c
000000d0: a727 07bd f455 bebc d61f 54bc 99e6 103d
000000e0: 9708 0f3d 98e4 c1bc ed22 06bb c6fc 053d
000000f0: 303d 0b3d 50c3 003d 9656 123d cbcd 133d
00000100: 3bea 9e3c d6e1 b9bb 08dc d3bc 6001 3bbc
00000110: 0d61 d7bb 65ee c53c bc4d 8cbc f1e7 093d
00000120: 1e17 cd3b 7dfa febc 14b2 a13c 9dad d43c
00000130: 4f59 1b3c bc14 e8bb d01e c13b ba84 afbc
00000140: 26ee 613c aa07 15ba 402e 0a3a 7f3b ff3c
00000150: addc f8bc 6e86 193c 5cce 0ebd b5f9 0cbc
00000160: a0de 1abc f01d 013d 7a8b 0a3d 0d61 fdbc
00000170: 37ea 233c cace ae3c 2b83 aabc 4798 883c
00000180: 57ca 33bc 20da 36bc 4154 b63c 727b 203c
00000190: 1d50 903c 28ad 003d 17e9 003d 18f8 10bd
000001a0: bcb5 a2bc c4db 513c ce46 bebc b183 27bc
000001b0: 155f 783c 14ac aabc 63d6 bf3c 0b1b 00bd
000001c0: d04d 13bb 37c1 f6bb 7f59 54bb 0404 123d
000001d0: ab5d 07bd ade8 52bc ce0d b33b 160e 4e3c
000001e0: 8c11 2d3c 9750 b1bc eedd b83c 40e2 f5ba
000001f0: 4823 21ba ac0b 943c 510d f9bb 4d57 b6bb
00000200: 9394 953b 9dd3 e03c 3927 c6b9 925b 6cbc
00000210: d511 bcbc 4d3b 0dbc 45d1 f93c 8920 b43c
00000220: 4dbe 053d 15f6 6abc 3acf 1ebc 782e 233c
00000230: d19b bb3b d182 913b 2a97 9f3c 1614 67bc
00000240: 7a3b cbbc 7037 613b 33d1 2dbb a017 c4bc
00000250: f36f b1bc 129d 64bc 914d 99bb bc06 3abc
00000260: 7cad 02bd 7120 96bb 92e0 bf3c f905 09bd
00000270: 58b9 0ebd 67a1 0b3d 708e 87bc dc0a b1bc
00000280: e6f6 853c b8e5 40bc 7b40 3c3c e5cf 8abc
00000290: fbdc 003c 521b 0d3c 19bf 2e3c ec58 e2bb
000002a0: 906c 9a3c 7979 523c 890e 28bc 5cc6 36ba
000002b0: bae0 553c b859 133d b3de 963c a2e6 5fbc
000002c0: 65e0 b7bc e632 fcbc f341 89bc fb9c 1bbc
000002d0: cac8 943c 43b7 78bc f28e 233c 10b2 043c
000002e0: 80ea d939 0f85 e5bc 3b9e 9abc a9f0 58bc
000002f0: 26e7 f0bc 0c45 dfbc 5e15 633c 5445 703c
00000300: dea1 98bb 7acb 8f3c c136 9d3c e83d 083d
00000310: fd63 d63b 9090 80bc e889 5b3c 9cf4 b5bc
00000320: 9d20 26ba 4673 b0bc f290 543a 3a20 e0bc
00000330: cce7 fe3c 3fa8 cbbc c4a8 e93c 5ca2 db3c
00000340: 6055 d2bb 7ae6 a5bc 0a26 0dbd 6393 f43b
00000350: c133 8a3a 5373 bbbc 9ada 5b3c 1d33 fbbc
00000360: f03e a73b ec98 ce3b a166 09bd 6bd1 a93c
00000370: d3b8 123d f6dc 9c3c e319 023c 8cdd 523c
00000380: 94c6 0dbd af6d c3bc dd2a 263b a1df d7bc
00000390: 8f27 86bc 54e7 6f3c 7af1 ab3c 1cee de3c
000003a0: fcd2 0b3d 6c21 443c 8abd bcbc f0b0 c33c
000003b0: 5f1b c4bc a2b4 b6bc 98ab 99bc a696 823c
000003c0: 826b cf3c f199 423c b525 753c 28dc f43c
000003d0: 9f1e c3bc 2e6b 43bc a00e 233c e9a5 eabc
000003e0: 009c 05bd ee73 f63c aa59 39bc def1 633c
000003f0: dbd6 293c a0a6 8a3b 64a2 ea3c fa5e 9dbc

lin1.bias f4 [64]
0.00017520717 -0.035053395 -0.0041594175 0.028410267 0.013324623 -0.02670971 -0.008767957 0.022794668
-0.02632705 -0.017423691 0.019530488 0.015038204 0.0024816878 0.021651933 -0.005332396 -0.007495522
-0.013895859 -0.024711695 0.035588853 0.010004957 -0.02228369 0.02569515 -0.02998334 0.0050737513
0.0020310564 0.02247157 -0.0021176229 0.012083538 -0.019768864 0.01988953 -0.012680611 -0.0042507756
-0.02695502 0.031430554 0.031553738 0.008111448 -0.027779898 -0.006168896 0.0053965105 -0.031458005
0.022376701 -0.031134594 0.033862937 -0.025650697 -0.028023608 0.01323681 0.0032107686 -0.02527843
-0.0062321792 0.025678858 0.014490053 0.030732619 -0.009625184 0.020200128 -0.02491859 0.005472857
0.018159615 -0.020910105 0.004656141 -0.00693418 0.0028773989 -0.034150656 0.03089745 -0.015974604
00000000: d1b7 3739 2694 0fbd b94b 88bb a6bc e83c
00000010: 854f 5a3c 52ce dabc 7aa7 0fbc e2bb ba3c
00000020: d3ab d7bc 21bc 8ebc 67fe 9f3c cd62 763c
00000030: d0a3 223b 655f b13c 61bb aebb ff9c f5bb
00000040: 75ab 63bc 2e70 cabc 9ec5 113d d5eb 233c
00000050: 498c b6bc a37e d23c 9f9f f5bc b641 a63b
00000060: 791b 053b 4c16 b83c d1c7 0abb 08fa 453c
00000070: 50f2 a1bc 5eef a23c 56c2 4fbc 174a 8bbb
00000080: c6d0 dcbc 53bd 003d 7e3e 013d e1e5 043c
00000090: ab92 e3bc 7324 cabb 36d5 b03b 1cda 00bd
000000a0: 584f b73c fa0d ffbc ddb3 0a3d 6921 d2bc
000000b0: c491 e5bc 35df 583c c26b 523b b614 cfbc
000000c0: 4f37 ccbb 785c d23c b067 6d3c f9c2 fb3c
000000d0: f3b2 1dbc bd7a a53c 1222 ccbc a755 b33b
000000e0: 79c3 943c ab4b abbc 8b92 983b 1e38 e3bb
000000f0: be92 3c3b 8fe1 0bbd a61c fd3c 2cdd 82bc

lin2.weight f4 [16, 64]
-0.10208391 0.10093561 -0.095221296 0.016725376 0.079282984 -0.022958979 -0.10967727 -0.1116353
-0.06424467 0.054608777 -0.113398 0.005435109 0.11291 -0.11706537 0.08639194 -0.008717477
0.037118807 -0.06937091 0.031267643 -0.09804489 -0.057617694 0.1151465 -0.084982395 -0.090438664
0.080881596 0.06753728 -0.05536291 0.03621593 -0.07803741 0.10456711 -0.089198604 0.027628094
0.05220358 -0.06368424 -0.10688077 0.05429022 -0.01226674 0.093475 -0.0016391575 -0.05621308
0.020709395 -0.010002986 -0.0055931658 -0.047639564 -0.056670904 -0.051368684 0.0713775 -0.08845173
0.119150534 -0.042180404 0.11029592 -0.02563563 0.06791812 0.032113865 -0.122594684 -0.04838583
0.059616685 -0.006913841 0.107393935 0.013900995 0.0776456 -0.08609176 -0.10216145 -0.058133602
-0.08248787 -0.08134708 -0.12307427 -0.03266278 -0.050522957 0.066214725 -0.006816953 -0.08695623
-0.0099777775 -0.026542181 -0.07334974 0.015015861 -0.015511528 0.023615256 0.10132993 -0.0140539
-0.06514735 0.087693326 0.120560996 -0.07239887 0.11696425 0.102103464 -0.12151374 0.08050434
-0.06452207 0.028647281 0.08309702 0.056103237 -0.008182868 -0.05205579 -0.03341502 -0.073357254
0.11508859 0.00588835 0.08310066 0.11536908 0.027274182 -0.05378551 0.09231059 -0.09366646
-0.115576535 -0.0040520816 -0.043909956 -0.08718561 0.0981389 0.049680732 -0.06375369 -0.02356481
0.06075981 0.08306674 -0.119717136 0.07044624 -0.009469734 -0.079417445 -0.019391656 0.07146195
0.098884426 0.08262803 -0.08975893 0.08443806 0.07795645 -0.07303727 -0.059940662 -0.06416102
-0.10876386 0.09548793 0.09613939 0.047786202 -0.015850544 -0.082299456 -0.09046319 0.08358123
0.05817519 0.0856789 -0.056283344 0.11702291 6.7576766e-05 0.04636306 -0.07732375 -0.015687473
-0.016287075 0.0014528271 -0.05922157 -0.026421055 0.11114955 0.004658127 0.005838636 0.032728497
-0.09575103 0.07006061 0.10194308 0.03696736 0.06355916 0.0020189108 0.0028664023 0.078331254
-0.05736042 -0.10207075 0.09055401 -0.086988315 0.020079067 0.12254654 0.101406075 -0.10366807
-0.02356023 -0.077819824 -0.06257783 -0.0032883985 0.09857422 -0.03558819 0.077137396 0.058777303
0.043188248 0.045654505 0.07639277 0.1076845 -0.06119953 -0.07740787 -0.08526099 -0.11684116
-0.020531517 -0.024231117 0.020121759 0.008661361 -0.005673944 0.0049168305 0.120765336 0.11579344
-0.08404185 0.035002045 -0.052073926 0.0946735 0.013391027 0.011534877 -0.024531998 0.02810391
-0.045218084 -0.04587922 -0.04474023 0.03512545 -0.06948118 -0.008508098 0.12374619 -0.11299344
-0.122960776 -0.06974025 0.019744879 0.09429092 -0.088300124 0.0014250549 -0.0041634827 0.040999256
0.015206093 0.051782813 -0.015659092 -0.09253794 -0.028202701 0.09081775 0.09292498 0.051441595
0.08183986 -0.05104957 0.026337707 0.05626471 -0.07018833 -0.013237989 -0.055127624 0.087945394
0.07654815 0.03393953 -0.09333249 0.0068773557 -0.12467885 0.11067769 0.112535834 0.0071262335
-0.035156947 -0.11055094 0.064394325 0.1158917 -0.08668271 -0.11936868 0.05771023 -0.012249902
0.0010538939 0.124665424 0.10284947 0.09131426 -0.02058451 0.06967703 -0.030779442 -0.018851489
00000000: 5e11 d1bd 54b7 ce3d 6203 c3bd a803 893c
00000010: 1e5f a23d 7814 bcbc 7a9e e0bd 0ca1 e4bd
00000020: b692 83bd 74ad 5f3d 363d e8bd 0019 b23b
00000030: 5c3d e73d f8bf efbd 42ee b03d c0d3 0ebc
00000040: e409 183d 5612 8ebd 8012 003d c2cb c8bd
00000050: 8800 6cbd eed1 eb3d 400b aebd e837 b9bd
00000060: 40a5 a53d fc50 8a3d 38c4 62bd 2857 143d
00000070: 14d2 9fbd 4827 d63d c2ad b6bd 5054 e23c
00000080: 6cd3 553d e26c 82bd 4ee4 dabd 6c5f 5e3d
00000090: 70fa 48bc d26f bf3d 00d9 d6ba b03f 66bd
000000a0: c0a6 a93c 90e3 23bc e046 b7bb b421 43bd
000000b0: c01f 68bd f867 52bd 5e2e 923d 2e26 b5bd
000000c0: 3205 f43d 5cc5 2cbd d4e2 e13d d001 d2bc
000000d0: a818 8b3d d489 033d ec12 fbbd 3830 46bd
000000e0: a030 743d 808d e2bb 5af1 db3d 00c1 633c
000000f0: a804 9f3d e050 b0bd 063a d1bd 801d 6ebd
00000100: 66ef a8bd 4c99 a6bd 5d0e fcbd 68c9 05bd
00000110: 29f1 4ebd 969b 873d bf60 dfbb 1c16 b2bd
00000120: d579 23bc fd6e d9bc 6338 96bd 1605 763c
00000130: 1024 7ebc c874 c13c 1186 cf3d 5442 66bc
00000140: f96b 85bd 8f98 b33d afe8 f63d dc45 94bd
00000150: f48a ef3d 9f1b d13d 32dc f8bd 76df a43d
00000160: 2624 84bd b4ad ea3c c52e aa3d 82cc 653d
00000170: 7011 06bc 7438 55bd 30de 08bd 543c 96bd
00000180: 91b3 eb3d 0ff3 c03b ae30 aa3d a046 ec3d
00000190: 1b6e df3c 324e 5cbd 560d bd3d 33d4 bfbd
000001a0: 64b3 ecbd 53c7 84bb edda 33bd 5e8e b2bd
000001b0: 0cfd c83d 067e 4b3d 4b91 82bd fd0a c1bc
000001c0: 47df 783d e51e aa3d 422e f5bd 1e46 903d
000001d0: f126 1bbc 9da5 a2bd 40db 9ebc a55a 923d
000001e0: eb83 ca3d e238 a93d 88d3 b7bd dded ac3d
000001f0: a2a7 9f3d 9094 95bd 5784 75bd da66 83bd
00000200: 96bf debd 2d8f c33d bae4 c43d 77bb 433d
00000210: 00d9 81bc 9e8c a8bd c444 b9bd a32c ab3d
00000220: 1c49 6e3d 6b78 af3d 5d89 66bd b5a9 ef3d
00000230: 00b8 8d38 31e7 3d3d ea5b 9ebd 0483 80bc
00000240: 796c 85bc ca6c be3a 5192 72bd f870 d8bc
00000250: 60a2 e33d 34a3 983b 0752 bf3b 510e 063d
00000260: 1e19 c4bd f07b 8f3d 89c7 d03d 166b 173d
00000270: 4e2b 823d b44f 043b 40da 3b3b 236c a03d
00000280: c2f2 6abd 780a d1bd 6174 b93d ee26 b2bd
00000290: db7c a43c aef9 fa3d fdad cf3d ed4f d4bd
000002a0: 6201 c1bc 0060 9fbd ce28 80bd 2c82 57bb
000002b0: 48e1 c93d ecc4 11bd 36fa 9d3d 78c0 703d
000002c0: 29e6 303d 3800 3b3d d073 9c3d b189 dc3d
000002d0: 5cac 7abd 0488 9ebd 509d aebd 6b4a efbd
000002e0: b631 a8bc 5680 c6bc 63d6 a43c 62e8 0d3c
000002f0: 7eec b9bb 5d1d a13b d153 f73d 1c25 ed3d
00000300: 221e acbd 4e5e 0f3d 784b 55bd 2ee4 c13d
00000310: 0a66 5b3c c8fc 3c3c 54f7 c8bc 2c3a e63c
00000320: 9936 39bd d9eb 3bbd 8841 37bd b4df 0f3d
00000330: 264c 8ebd 8d65 0bbc a46e fd3d 1b69 e7bd
00000340: dcd2 fbbd fad3 8ebd 03c0 a13c 991b c13d
00000350: b2d6 b4bd e8c8 ba3a d36d 88bb d6ee 273d
00000360: fa22 793c 371a 543d 7f47 80bc 8884 bdbd
00000370: 5a09 e7bc a8fe b93d 744f be3d 6cb4 523d
00000380: a89b a73d 5b19 51bd 2dc2 d73c d375 663d
00000390: e6be 8fbd 26e4 58bc 81cd 61bd b71c b43d
000003a0: 47c5 9c3d 2d04 0b3d 1b25 bfbd 715b e13b
000003b0: a057 ffbd fcaa e23d 3079 e63d 2e83 e93b
000003c0: bb00 10bd 8868 e2bd 2ce1 833d a158 ed3d
000003d0: b486 b1bd 9177 f4bd 9061 6c3d d0b3 48bc
000003e0: d022 8a3a 9650 ff3d bea2 d23d f902 bb3d
000003f0: d9a0 a8bc d5b2 8e3d 2b25 fcbc 706e 9abc

lin2.bias f4 [16]
0.012801647 -0.018014144 -0.0572414 -0.0340516 0.016927944 -0.0965283 0.0017952253 -0.023335174
0.035170466 -0.07378361 -0.054381 -0.062616736 0.08295774 0.023933966 -0.012968789 -0.10321594
00000000: 00be 513c 6692 93bc f575 6abd b179 0bbd
00000010: 79ac 8a3c a1b0 c5bd c44d eb3a 6829 bfbc
00000020: e80e 103d dc1b 97bd 9dbe 5ebd 343d 80bd
00000030: bfe5 a93d 2a11 c43c 0b7b 54bc e162 d3bd

lin3.weight f4 [3, 16]
0.08156943 0.1665758 -0.034543626 0.1878627 -0.1388705 -0.11786352 -0.065129995 -0.12622084
-0.14376725 0.09635109 -0.1037675 -0.21183068 0.15253171 -0.11049687 -0.023996389 -0.02314465
0.23378995 0.14283152 -0.21398777 0.1717218 -0.053143773 -0.06913403 0.24628201 -0.08985911
0.026110267 -0.1483446 0.15005748 0.21577525 0.06673838 -0.00048184607 -0.10593245 -0.1560381
0.0735766 -0.11988098 -0.121998884 0.030504541 0.045741457 -0.03838138 -0.11628215 -0.019007059
-0.14830036 0.09890231 0.23888077 0.17089476 0.19789483 0.18639117 0.080402724 -0.050503492
00000000: e00d a73d d992 2a3e 9e7d 0dbd 145f 403e
00000010: 1134 0ebe 6e62 f1bd e062 85bd 0940 01be
00000020: b937 13be b853 c53d 0e84 d4bd 24ea 58be
00000030: 4631 1c3e 2f4c e2bd 1394 c4bc d999 bdbc
00000040: a266 6f3e 6d42 123e 9c1f 5bbe d7d7 2f3e
00000050: 49ad 59bd 2496 8dbd 5a31 7c3e 0e08 b8bd
00000060: 33e5 d53c a6e7 17be aba8 193e 30f4 5c3e
00000070: 22ae 883d 49a0 fcb9 1df3 d8bd 74c8 1fbe
00000080: 54af 963d 2984 f5bd 8dda f9bd a9e4 f93c
00000090: 655b 3b3d cb35 1dbd 5625 eebd b1b4 9bbc
000000a0: 0ddc 17be 4b8d ca3d 299d 743e 09ff 2e3e
000000b0: f1a4 4a3e 54dd 3e3e 2faa a43d c0dc 4ebd

lin3.bias f4 [3]
-0.011759145 -0.100585304 -0.22919612
00000000: 6ea9 40bc abff cdbd 63b2 6abe
